DL_experiments/models_chp/checkpoint_ptl_model.ckpt/lr_find_temp_model_fcdb2d39-dd00-400d-aa8e-edf98353d705.ckpt (torch, 257907 bytes, 33 tensors)

conv1.0.weight f4 [16, 3, 3, 3]
000000 ba 1d d2 bd c9 06 1a be eb d1 3a 3e c8 43 14 3e
       -0.10259576 -0.15041651 0.1824414 0.14478981
000010 50 b3 0b be 33 48 8c bd e4 08 6e 3d 6b 2d fc bd
       -0.13642621 -0.068497084 0.058113948 -0.1231335
000020 45 a3 42 be a3 db 13 bd 9a 71 d6 bd 1b 0e d2 3d
       -0.19007595 -0.036098134 -0.104708865 0.10256597
000030 da da 2f 3e db 17 a3 3c 62 f8 6c 3d 17 6e 11 be
       0.17173329 0.019908836 0.057854064 -0.14202152
000040 c7 02 1b be 58 56 a9 bc b4 f1 22 be a1 3a 9c 3d
       -0.15137778 -0.020671055 -0.15912515 0.0762837
000050 ff f9 3e 3e 7e 36 3e ba e9 de b7 bd ef f9 22 be
       0.18650053 -0.0007256045 -0.089780636 -0.15915655
000060 9f a5 52 3d 4c 7a b7 bd 5e 7b f4 3c 63 bf 00 3c
       0.05142748 -0.08958873 0.029843982 0.00785813
000070 09 7e 0e be af 86 d9 3c 39 37 a3 3c e8 8b f4 3d
       -0.13915266 0.02655348 0.019923793 0.119407475
000080 43 43 73 bd 6e 76 61 3d 96 45 1b be 6d 77 f1 bd
       -0.059390318 0.055044584 -0.15163264 -0.11790357
000090 9c a2 98 3d 18 6a ce bd 8c 57 f0 3d 92 84 44 3e
       0.0745289 -0.100788295 0.11735448 0.19191197
0000a0 a4 3a dc 3a 1c f2 50 3d 1c 2a 9f 3d 17 61 41 be
       0.0016802144 0.051012143 0.077717036 -0.18884693
0000b0 73 73 00 3e 16 60 70 bd 00 f3 3b be 0b c5 0e 3e
       0.1254404 -0.058685385 -0.18354416 0.13942353
0000c0 44 01 1a be d1 4d 19 3e 89 3c cf bd 2f 23 2a 3d
       -0.15039545 0.14971091 -0.10118968 0.04153746
0000d0 73 39 32 be 57 b7 06 be be 7a 62 bd 31 b7 93 bd
       -0.17404728 -0.13155876 -0.055292837 -0.07212675
0000e0 88 7a 43 3d 9e 97 7c 3c 52 08 b4 3d 3f 6c 1e be
       0.047724277 0.015417008 0.087906495 -0.1547098
0000f0 17 53 25 be 72 f3 8b 3d 21 fe 48 bd 5e e0 d0 3d
       -0.16144978 0.06833543 -0.04907048 0.10199045
000100 69 be 0d 3e 01 3c 0f be a6 72 24 3d be 2e 3b 3e
       0.13842167 -0.13987733 0.0401484 0.1827955
000110 d7 66 af 3b 33 71 3d be 15 03 57 3d 9c 66 3b 3e
       0.0053528356 -0.18500213 0.052493174 0.18300861
000120 d6 d8 a3 3d fd 17 a5 bd 35 5b 22 be 74 d4 86 3d
       0.080003425 -0.08061216 -0.15855105 0.06583491
000130 e2 f9 1f 3e 02 42 a6 3d 29 a0 25 3e 15 11 5e 3d
       0.15622666 0.08118059 0.16174378 0.05421551
000140 b0 47 04 3e 94 89 1d 3e 78 07 24 be 35 cb e7 3d
       0.12917972 0.15384513 -0.16018474 0.113180555
000150 55 60 9f 3c 7e 88 5d 3d e8 4d 71 bd fe 54 21 be
       0.019455114 0.054085247 -0.058912188 -0.15755078
000160 6e 3d aa bc 95 bc b7 3c c5 31 3c be 96 d0 ae bd
       -0.020781245 0.02242879 -0.1837836 -0.08535878
000170 bc a8 03 be 4a 1a dd 3d d0 81 7b bc a6 77 0d 3e
       -0.12857336 0.1079603 -0.015350774 0.13815174
000180 9b a8 10 be 77 8c f5 3d fb 22 81 bc 55 4c 9a 3c
       -0.14126818 0.11989682 -0.01576375 0.018835226
000190 d5 21 10 3d ee 84 b2 3b 0c a2 f2 bd 02 a5 0d be
       0.035188515 0.0054479754 -0.11847314 -0.13832477
0001a0 3d 5a 8c bd 2d 45 12 be 53 c2 a6 bd 96 34 61 bd
       -0.06853149 -0.14284201 -0.08142533 -0.05498179
0001b0 5f 9f ff 3d b6 5f 6e 3c cd c4 94 bd 25 32 05 be
       0.124815695 0.014549186 -0.07264099 -0.1300741
0001c0 01 40 6e 3d dc 18 ed 3d 35 db 62 bd 3e 42 04 3e
       0.058166508 0.11577007 -0.055384833 0.12915894
0001d0 98 74 d2 bc bd 39 3f 3e b7 8c 19 3e 80 db 2f be
       -0.025690362 0.18674369 0.14995085 -0.17173576
0001e0 57 04 84 3d 6a b9 f3 3d 68 3f 38 be 4e fe 05 b9
       0.0644614 0.11900599 -0.17992938 -0.00012778604
0001f0 72 00 91 3d 44 e4 fd bc 81 c5 0f be 54 6e 17 3d
       0.07080163 -0.030992635 -0.14040186 0.03697045
000200 99 86 19 3e 08 fb be bd bc 45 d2 bc db 09 67 3d
       0.14992751 -0.09325224 -0.025668018 0.056405883
000210 c0 da 42 3e 91 38 cd 3a 39 16 bb bd 87 9e d2 bd
       0.19028759 0.0015657117 -0.09135098 -0.10284143
000220 cb b3 d2 bd 55 90 0f be a0 d9 1f bc 9b 6e c0 3c
       -0.10288199 -0.14019902 -0.009756476 0.02349024
000230 84 3e a0 bd be 7b 09 3e 84 75 f1 bd 6e da 2c 3e
       -0.07824424 0.1342611 -0.117899925 0.168802
000240 6d 21 03 be a2 1d 5d 3c 2e c4 0f bd 1c f1 f9 3d
       -0.1280572 0.013495835 -0.0350992 0.12204191
000250 d0 68 3d 3d 93 23 40 3e 9e d6 e3 3c 99 0e b2 3d
       0.046242535 0.1876357 0.027812298 0.086941905
000260 98 d4 ef bd 86 72 e5 bd d8 d5 00 be d6 32 1e bd
       -0.11710471 -0.11203484 -0.12581575 -0.0386227
000270 ec 03 dc bd 57 16 d0 3d 47 d5 d2 3d 8f 81 67 3d
       -0.107429355 0.10160511 0.10294586 0.05652004
000280 89 4b 5d 3b 6f 33 30 3e 0a 88 28 3e 93 26 05 be
       0.0033766946 0.1720712 0.16458145 -0.13002996
000290 8f ca 0d be 9d ab 18 be da ee 12 bd 7a aa 7c bd
       -0.13846801 -0.14909215 -0.035872318 -0.061686017
0002a0 26 ec 51 3d af e0 cd 3d 48 b5 07 bd 21 a5 9e bc
       0.0512506 0.100526206 -0.033131868 -0.019365849
0002b0 39 1f bb bd d8 c0 09 bd a2 f3 6e bd f5 c9 37 be
       -0.091368146 -0.033631176 -0.058337815 -0.17948134
0002c0 ed 3d 17 be 02 3f b0 3d 41 51 0c 3e d1 11 07 3e
       -0.14769717 0.08605768 0.13702871 0.1319039
0002d0 b0 53 b2 3d 57 08 72 bd 9f 37 0b be 20 ae 7b 3d
       0.087073684 -0.059089985 -0.13595437 0.061445355
0002e0 c9 b4 2a be e8 27 c4 bd 0a b3 98 3d 8c bc f2 bd
       -0.16670527 -0.09577924 0.07456024 -0.11852369
0002f0 bd ff 92 3c 93 90 39 3e 5b cf 2c be e4 0b 8e 3d
       0.017944211 0.18121557 -0.16875975 0.06935862
000300 74 62 c3 3d e7 c0 2a be 9a 9a 59 3c ed 90 da 3d
       0.09540263 -0.16675149 0.013281489 0.10672174
000310 5e fb d7 bd e1 ca 40 be 95 8f 07 3e 04 f1 7d 3d
       -0.10545991 -0.18827392 0.13238366 0.06199743
000320 8c 20 a4 bd 67 bf e6 39 26 8f 44 be 4c 93 27 be
       -0.0801402 0.00044011624 -0.19195232 -0.16364783
000330 48 b9 53 3d db d1 71 bd 45 ef 90 bc 94 24 af 3d
       0.05169037 -0.059038024 -0.017692218 0.085518986
000340 a5 7f f3 bc 06 0f f1 3d 67 b8 38 be c9 41 11 3d
       -0.029723952 0.117704436 -0.18039094 0.03546313
000350 35 0e c3 3c e9 b2 81 3d 54 1d 91 3d 0f 8e 29 3d
       0.023810485 0.063329525 0.07085672 0.041395243
000360 a5 73 0c 3c a1 7f 3f be d6 2c 7d bd 61 b7 3b 3e
       0.008572494 -0.1870103 -0.061810337 0.18331672
000370 9d d7 2b bd 03 9f e8 3d c6 32 f5 bd 36 e1 20 3e
       -0.04195367 0.11358454 -0.11972575 0.15710911
000380 2c 60 07 3e bc 17 29 3e 6c 61 60 3d 07 9b 14 bd
       0.1322028 0.1651296 0.05478041 -0.036280658
000390 4e 81 35 be c0 00 14 3e 82 4e 71 bd 39 00 1e bd
       -0.17725107 0.14453411 -0.05891276 -0.03857443
0003a0 b6 98 33 3e 05 45 45 bc 48 aa 2d 3e c1 21 31 3e
       0.17538723 -0.012040381 0.16959488 0.17298032
0003b0 56 b0 93 3d 0b 97 1f be 05 8d 2a 3e 8f 50 c0 3d
       0.07211368 -0.15584962 0.16655357 0.09390365
0003c0 fd d3 05 3d 57 46 a4 3d c9 06 9a bd 82 50 21 be
       0.03267287 0.08021229 -0.075208254 -0.15753368
0003d0 2e 32 d6 bc 9a b7 1c be e1 f2 08 3e c4 24 eb bd
       -0.026146974 -0.15304413 0.13373901 -0.11481622
0003e0 53 8a 20 be aa d1 b3 bd f8 0c 14 be 77 45 7c bd
       -0.15677767 -0.087802246 -0.14458072 -0.061589684
0003f0 6b b0 18 3e 00 3a af 3b cb 2c 88 bd f6 cc 0e 3e
       0.14911048 0.0053474903 -0.066491686 0.13945374

conv1.0.bias f4 [16]
000000 44 05 f6 3c f7 0f 15 3e e2 ea 43 3e 94 94 b9 bd
       0.030031808 0.14556871 0.1913257 -0.09061542
000010 03 1d b8 3d 4b 84 a9 3d 1f 7b 30 be c3 98 ac bd
       0.089899085 0.08277186 -0.17234467 -0.084275745
000020 37 35 28 bd 95 52 3d 3e ca 7f 28 3d eb 42 27 bd
       -0.041066375 0.18488534 0.041137494 -0.040835302
000030 aa b3 63 bd 26 b5 ce bd cd d3 34 3d f4 31 21 be
       -0.055591263 -0.10093145 0.0441473 -0.15741712

conv1.2.weight f4 [16]
000000 00 00 80 3f 00 00 80 3f 00 00 80 3f 00 00 80 3f
       1.0 1.0 1.0 1.0
000010 00 00 80 3f 00 00 80 3f 00 00 80 3f 00 00 80 3f
       1.0 1.0 1.0 1.0
000020 00 00 80 3f 00 00 80 3f 00 00 80 3f 00 00 80 3f
       1.0 1.0 1.0 1.0
000030 00 00 80 3f 00 00 80 3f 00 00 80 3f 00 00 80 3f
       1.0 1.0 1.0 1.0

conv1.2.bias f4 [16]
000000 00 00 00 00 00 00 00 00 00 00 00 00 00 00 00 00
       0.0 0.0 0.0 0.0
000010 00 00 00 00 00 00 00 00 00 00 00 00 00 00 00 00
       0.0 0.0 0.0 0.0
000020 00 00 00 00 00 00 00 00 00 00 00 00 00 00 00 00
       0.0 0.0 0.0 0.0
000030 00 00 00 00 00 00 00 00 00 00 00 00 00 00 00 00
       0.0 0.0 0.0 0.0

conv1.2.running_mean f4 [16]
000000 00 00 00 00 00 00 00 00 00 00 00 00 00 00 00 00
       0.0 0.0 0.0 0.0
000010 00 00 00 00 00 00 00 00 00 00 00 00 00 00 00 00
       0.0 0.0 0.0 0.0
000020 00 00 00 00 00 00 00 00 00 00 00 00 00 00 00 00
       0.0 0.0 0.0 0.0
000030 00 00 00 00 00 00 00 00 00 00 00 00 00 00 00 00
       0.0 0.0 0.0 0.0

conv1.2.running_var f4 [16]
000000 00 00 80 3f 00 00 80 3f 00 00 80 3f 00 00 80 3f
       1.0 1.0 1.0 1.0
000010 00 00 80 3f 00 00 80 3f 00 00 80 3f 00 00 80 3f
       1.0 1.0 1.0 1.0
000020 00 00 80 3f 00 00 80 3f 00 00 80 3f 00 00 80 3f
       1.0 1.0 1.0 1.0
000030 00 00 80 3f 00 00 80 3f 00 00 80 3f 00 00 80 3f
       1.0 1.0 1.0 1.0

conv2.0.weight f4 [32, 16, 3, 3]
000000 30 c3 37 3d c7 a1 98 bd f0 67 b5 bc c8 33 22 3d
       0.04486388 -0.074527316 -0.022144288 0.039600164
000010 8e 48 21 3d 93 62 9d 3d a0 26 18 bd 92 f6 90 bd
       0.039375834 0.07684817 -0.03714621 -0.070782796
000020 d0 b2 39 3d d6 68 4e 3d ae a0 90 3d e8 ec 51 bd
       0.045336545 0.050392948 0.07061897 -0.051251322
000030 80 fc 93 3c cb 5f b6 3c cc cc a0 bd d6 d6 cf bb
       0.018064737 0.022262475 -0.07851562 -0.006342749
000040 3b 65 4e bd fe e7 32 bd 16 05 68 bd 03 f0 40 bd
       -0.05038951 -0.043678276 -0.056645475 -0.047103893
000050 f0 e8 89 3c 73 0c 24 3d 40 ee f3 3b 6b 35 07 bd
       0.016834706 0.040050935 0.007444173 -0.033009928
000060 78 03 21 bd f6 bd 61 bd 1b 40 94 bd de 6a 55 3d
       -0.03930995 -0.0551128 -0.0723879 0.05210387
000070 96 a1 56 bd a8 8a 2a bd c0 6e 72 bc 30 df e5 3c
       -0.052400194 -0.04163614 -0.014796913 0.028060526
000080 70 91 f4 3c f0 61 81 3c 20 84 13 3c 80 65 e3 3b
       0.029854506 0.01579377 0.009003669 0.00693959
000090 ea e1 a7 bd 23 ec 83 3d 16 e1 48 3d 58 f3 03 3d
       -0.081973866 0.06441524 0.049042784 0.032214493
0000a0 36 aa 98 3c 43 69 19 bd a3 dd 65 3d 88 7e 1d bd
       0.01863585 -0.0374539 0.056119572 -0.038450748
0000b0 cb 03 9d 3c 70 52 c8 3c 23 48 04 bd 86 ed 09 3d
       0.019166848 0.024453372 -0.032295357 0.033673786
0000c0 86 b7 60 3d ab 4d 87 3c 06 1b 9c bc 88 08 4f 3d
       0.05486252 0.016516527 -0.019055855 0.050545245
0000d0 56 08 57 3c 2b f1 18 3c be b3 62 bd 50 9f 20 bd
       0.013124546 0.009334843 -0.055347197 -0.039214432
0000e0 00 5a 71 3c 6b 66 1b bc 1f 87 88 bd 97 9d 8f bd
       0.01473093 -0.009484868 -0.06666397 -0.0701248
0000f0 03 6a 6e 3d 3b 2b e3 bc ec 45 a9 bd 16 ab 59 3d
       0.05820657 -0.027730575 -0.0826529 0.053141676
000100 48 52 13 bd a0 48 40 bc 3b ca fb 3c 56 89 d9 39
       -0.03596714 -0.011736065 0.03073608 0.0004149179
000110 ab 9e 94 3a 80 e0 ae 3c eb 52 53 bd 20 b7 f3 bc
       0.0011338791 0.021347284 -0.05159275 -0.029750407
000120 36 40 72 3d 1b 94 e6 bc 6b c6 94 3c d6 31 1f 3b
       0.059143268 -0.028146794 0.01816102 0.002429118
000130 db 56 3c 3d a0 40 ab 3c 68 31 6e 3d e8 bd 59 3d
       0.04598127 0.020904839 0.058152586 0.053159624
000140 1c cb 9f bd 64 07 90 3d 80 62 09 bc 56 61 5a 3a
       -0.07802412 0.0703266 -0.008385301 0.0008330544
000150 90 3f 2b bd 94 57 8e bd f0 1e 8c bc db fb 93 3d
       -0.041808665 -0.06950298 -0.017104596 0.07225772
000160 16 5b dd 3c 38 d5 30 3d 6e f1 7a bd 50 da df 3c
       0.027020972 0.04317209 -0.0612654 0.02732578
000170 ce 18 a5 bd eb 7c 91 bb 78 7b 84 bd 80 0d 20 3b
       -0.08061372 -0.00443994 -0.06468862 0.002442211
000180 b0 fe 72 3d b6 bd 8d bd 8e 66 9f 3d b0 ff 4a 3d
       0.05932492 -0.0692095 0.07783233 0.04956025
000190 4b dc 5c bd 08 9d 1a bd 06 24 5f 3d 16 83 11 3c
       -0.053921025 -0.037747413 0.054477714 0.008881351
0001a0 eb 62 44 3c 20 40 86 bd db 41 40 bd 73 15 15 3d
       0.0119864745 -0.065551996 -0.046937805 0.03639741
0001b0 66 df 73 3d 73 71 3a 3d d8 c6 26 bd 06 c9 34 3d
       0.05953922 0.04551835 -0.040716976 0.044137023
0001c0 f8 c1 56 bd 96 8f 4c 3d 00 49 d1 3a fe e8 9a 3d
       -0.052431077 0.04994162 0.001596719 0.07563971
0001d0 d7 03 92 3d de 03 76 3d 87 45 aa bd b3 ad 73 bd
       0.07129639 0.06006228 -0.083140425 -0.059491824
0001e0 ab 85 93 3c 1e 06 55 bd b2 8f 94 bd 26 e5 de 3c
       0.018008074 -0.052007787 -0.0725397 0.027208876
0001f0 b8 a8 23 3d 44 8e 81 3d c8 4e 6e 3d 83 7b 2f 3d
       0.039955825 0.06325963 0.0581806 0.0428424
000200 56 2b 88 ba 6b ed 0b 3d 8b 51 49 bd 4b 7b 62 bd
       -0.0010388892 0.034161966 -0.04915003 -0.055293363
000210 76 b5 46 3c 00 7b f8 3a c2 87 92 bd df c2 80 3d
       0.012128225 0.0018957555 -0.071548 0.06287169
000220 10 32 91 3c 1e 8d 0b 3d 88 e2 2b 3d e2 72 86 3d
       0.017724067 0.034070127 0.041964084 0.06564881
000230 48 82 6d bd 90 5f ff bc 6e 57 01 bd 68 43 18 bd
       -0.057985574 -0.031173497 -0.03157752 -0.03717366
000240 76 29 48 bd 40 d8 be bc 9f 9a 95 bd 37 dd 9c bd
       -0.048867665 -0.023296475 -0.07304882 -0.07659381
000250 fb e9 bc bc ab 28 43 bc ac 3a a7 3d 2b 21 e2 3c
       -0.02306079 -0.0119115515 0.08165488 0.027603706
000260 5f 73 9d 3d 86 d6 67 bd 56 86 79 bc 80 c3 40 3b
       0.07688021 -0.05660107 -0.015229782 0.0029413402
000270 38 df 06 3d 1e 5f 3b bd d6 4e 6e bc 42 a9 94 bd
       0.03292772 -0.045745008 -0.014545163 -0.07258846
000280 b3 08 9b bd 20 b3 26 3d 86 5f 3b 3d eb 66 75 bc
       -0.075700186 0.04069817 0.045745395 -0.014978151
000290 9b 2f 92 bd 8b 54 92 3c 90 d2 fa 3c 5b 6e 6a bd
       -0.07137986 0.017862579 0.030617982 -0.05723415
0002a0 96 48 64 3d d8 22 40 bd 3e 37 31 bd d6 ae 83 bc
       0.055733286 -0.04690823 -0.043265574 -0.01607458
0002b0 34 2e a5 3d 9b ef 26 3d d0 49 9e bd de 26 43 3d
       0.08065453 0.04075585 -0.07728922 0.04764449
0002c0 60 e6 cf bc 40 ef 09 3d e6 a9 b0 3c 5b 78 8e 3c
       -0.025378406 0.033675432 0.021565389 0.017391374
0002d0 5e be 06 3d 20 ec e4 bc fe 41 33 3d 80 42 2c 3d
       0.032896392 -0.027944624 0.043764107 0.042055607
0002e0 8b cb a4 bd 36 87 0c bc 56 f3 89 ba 6e f8 48 3d
       -0.08046635 -0.008577159 -0.001052479 0.049065046
0002f0 9b a2 59 3d 1b 2b e7 bc 93 c8 5f 3d 08 fb 8b 3d
       0.05313359 -0.028218796 0.05463464 0.0683499
000300 76 dd 67 bd e7 da 90 bd 00 75 0d bb e8 a6 33 3d
       -0.056607686 -0.07073002 -0.002158463 0.043860346
000310 96 9f 06 bc ab f2 88 ba fe 31 19 bd 46 b5 bf 3c
       -0.008216759 -0.0010448297 -0.037401192 0.023401868
000320 d0 a0 69 3d 86 70 97 bc 13 08 33 3d 5b 0a 11 3d
       0.05703813 -0.018486273 0.043708872 0.035410266
000330 ab 97 16 3c 23 d9 81 3d bb 84 5f bd de d3 75 3d
       0.009191434 0.06340244 -0.05456994 0.060016505
000340 00 bd 3a 3d b8 b6 6e bd 82 4f a6 3d 93 2f 36 bd
       0.0455904 -0.058279723 0.08120634 -0.044478964
000350 96 82 ee bb 2b f2 57 bc 86 69 11 bd 28 7b 76 bd
       -0.0072787507 -0.013180296 -0.035501026 -0.060176045
000360 c0 9c 32 bd 7b 07 0b bd 6b 4d 4d bc 00 3a 84 bd
       -0.04360652 -0.03394268 -0.012530665 -0.06456375
000370 9c 8b 9d bd 07 5e 83 bd e0 2f 0c bd 76 49 98 3d
       -0.07692644 -0.06414419 -0.034225345 0.074358866
000380 c8 b2 a8 3d 4b 6c 06 3c 66 be 7f 3d 20 fa 16 bc
       0.08237225 0.00820453 0.062437437 -0.009214908
000390 28 27 92 3d 80 d8 6c 3c 0b 51 b4 3c 3c 2b a2 bd
       0.07136375 0.0144559145 0.0220113 -0.079184026
0003a0 10 aa 06 bd f0 c4 55 bd 16 db 97 3b 3b ab fa bc
       -0.032877028 -0.052189767 0.0046342714 -0.030599227
0003b0 26 01 84 3c 78 35 0f 3d e0 11 5e 3d 58 12 6b 3d
       0.016113829 0.0349631 0.054216266 0.05739054
0003c0 f4 ae 8d 3d 4b ee 9b 3c 60 14 7a bd 86 b5 db 3c
       0.06918135 0.019034525 -0.061054587 0.026819956
0003d0 b6 54 44 3c 56 32 a7 3a f6 f1 17 3d 76 38 94 3d
       0.011983087 0.001275609 0.037095986 0.072373316
0003e0 f0 03 82 bd ea 17 84 bd 6b be ea bc 2f 12 a4 bd
       -0.06348407 -0.06449874 -0.028655251 -0.08011281
0003f0 c4 fb a9 bd c2 5d a5 3d d6 86 4b 3b db a9 23 bd
       -0.082999736 0.080745235 0.003105571 -0.03995691

conv2.0.bias f4 [32]
000000 00 38 03 b9 40 b0 99 bb eb 77 84 bd 76 55 4d 3c
       -0.00012513995 -0.0046902 -0.06468185 0.0125325825
000010 cb 6b 6e bc 40 7b df 3b a6 ad a0 bd 70 12 e9 3c
       -0.014552067 0.0068201125 -0.07845621 0.028451174
000020 00 5c 98 39 56 53 ec 3c e0 15 05 bd b6 f1 c8 3c
       0.00029060245 0.028848331 -0.032491565 0.02452932
000030 56 43 22 bd db 95 5a 3d 88 e9 3e 3d d6 71 ac 3b
       -0.039614998 0.05336557 0.04660943 0.0052625937
000040 b0 d6 97 bd 96 c8 94 bd be 42 25 bd 26 81 cf 3c
       -0.07413995 -0.07264821 -0.040346853 0.025330137
000050 4a 56 8b 3d 5c 1f 8e 3d 10 a3 5c bd b0 14 1f bd
       0.06803568 0.06939575 -0.053866446 -0.03883809
000060 fb b3 5d bd 50 57 0c 3d 56 3e 81 bc fb de 81 3d
       -0.05412672 0.034262955 -0.015776794 0.06341358
000070 86 09 e5 bc 73 00 46 bd 8b 30 19 bd a0 2d b2 3c
       -0.027958643 -0.048340272 -0.03739981 0.021750271

conv2.2.weight f4 [32]
000000 00 00 80 3f 00 00 80 3f 00 00 80 3f 00 00 80 3f
       1.0 1.0 1.0 1.0
000010 00 00 80 3f 00 00 80 3f 00 00 80 3f 00 00 80 3f
       1.0 1.0 1.0 1.0
000020 00 00 80 3f 00 00 80 3f 00 00 80 3f 00 00 80 3f
       1.0 1.0 1.0 1.0
000030 00 00 80 3f 00 00 80 3f 00 00 80 3f 00 00 80 3f
       1.0 1.0 1.0 1.0
000040 00 00 80 3f 00 00 80 3f 00 00 80 3f 00 00 80 3f
       1.0 1.0 1.0 1.0
000050 00 00 80 3f 00 00 80 3f 00 00 80 3f 00 00 80 3f
       1.0 1.0 1.0 1.0
000060 00 00 80 3f 00 00 80 3f 00 00 80 3f 00 00 80 3f
       1.0 1.0 1.0 1.0
000070 00 00 80 3f 00 00 80 3f 00 00 80 3f 00 00 80 3f
       1.0 1.0 1.0 1.0

conv2.2.bias f4 [32]
000000 00 00 00 00 00 00 00 00 00 00 00 00 00 00 00 00
       0.0 0.0 0.0 0.0
000010 00 00 00 00 00 00 00 00 00 00 00 00 00 00 00 00
       0.0 0.0 0.0 0.0
000020 00 00 00 00 00 00 00 00 00 00 00 00 00 00 00 00
       0.0 0.0 0.0 0.0
000030 00 00 00 00 00 00 00 00 00 00 00 00 00 00 00 00
       0.0 0.0 0.0 0.0
000040 00 00 00 00 00 00 00 00 00 00 00 00 00 00 00 00
       0.0 0.0 0.0 0.0
000050 00 00 00 00 00 00 00 00 00 00 00 00 00 00 00 00
       0.0 0.0 0.0 0.0
000060 00 00 00 00 00 00 00 00 00 00 00 00 00 00 00 00
       0.0 0.0 0.0 0.0
000070 00 00 00 00 00 00 00 00 00 00 00 00 00 00 00 00
       0.0 0.0 0.0 0.0

conv2.2.running_mean f4 [32]
000000 00 00 00 00 00 00 00 00 00 00 00 00 00 00 00 00
       0.0 0.0 0.0 0.0
000010 00 00 00 00 00 00 00 00 00 00 00 00 00 00 00 00
       0.0 0.0 0.0 0.0
000020 00 00 00 00 00 00 00 00 00 00 00 00 00 00 00 00
       0.0 0.0 0.0 0.0
000030 00 00 00 00 00 00 00 00 00 00 00 00 00 00 00 00
       0.0 0.0 0.0 0.0
000040 00 00 00 00 00 00 00 00 00 00 00 00 00 00 00 00
       0.0 0.0 0.0 0.0
000050 00 00 00 00 00 00 00 00 00 00 00 00 00 00 00 00
       0.0 0.0 0.0 0.0
000060 00 00 00 00 00 00 00 00 00 00 00 00 00 00 00 00
       0.0 0.0 0.0 0.0
000070 00 00 00 00 00 00 00 00 00 00 00 00 00 00 00 00
       0.0 0.0 0.0 0.0

conv2.2.running_var f4 [32]
000000 00 00 80 3f 00 00 80 3f 00 00 80 3f 00 00 80 3f
       1.0 1.0 1.0 1.0
000010 00 00 80 3f 00 00 80 3f 00 00 80 3f 00 00 80 3f
       1.0 1.0 1.0 1.0
000020 00 00 80 3f 00 00 80 3f 00 00 80 3f 00 00 80 3f
       1.0 1.0 1.0 1.0
000030 00 00 80 3f 00 00 80 3f 00 00 80 3f 00 00 80 3f
       1.0 1.0 1.0 1.0
000040 00 00 80 3f 00 00 80 3f 00 00 80 3f 00 00 80 3f
       1.0 1.0 1.0 1.0
000050 00 00 80 3f 00 00 80 3f 00 00 80 3f 00 00 80 3f
       1.0 1.0 1.0 1.0
000060 00 00 80 3f 00 00 80 3f 00 00 80 3f 00 00 80 3f
       1.0 1.0 1.0 1.0
000070 00 00 80 3f 00 00 80 3f 00 00 80 3f 00 00 80 3f
       1.0 1.0 1.0 1.0

conv3.0.weight f4 [64, 32, 3, 3]
000000 5e 0f 06 bc 62 df 5c bd 6e 95 1d 3d 5e 7b 37 3d
       -0.008182375 -0.053923972 0.038472585 0.044795386
000010 4f 70 78 3c 92 10 6f 3d 86 b4 e7 bc c5 9a e6 3c
       0.015163495 0.058365412 -0.028284322 0.028149972
000020 47 c0 1b bc 7a ec 47 3c 3a 0e 52 3d fc 5d ad 3c
       -0.009506292 0.0122023765 0.0512831 0.02116298
000030 ca a3 86 bc 01 23 d9 3c bd 88 28 bd de 71 cd 3c
       -0.016435523 0.026505949 -0.04114603 0.02507871
000040 68 c9 9f bc 03 db fb 3c 95 5e cc 3c 8f 36 04 3d
       -0.019505218 0.030744081 0.024947444 0.032278594
000050 28 ac 0e bd 19 54 37 bd 08 a8 56 bd 5a c8 0d bc
       -0.03483215 -0.044757936 -0.05240634 -0.008653725
000060 a8 39 eb bc 7f d8 0d bc fc 37 e1 3c db ae 54 bd
       -0.028714016 -0.008657574 0.027492516 -0.051924568
000070 e7 b0 88 3c 66 10 06 3c 38 47 40 3d 8c aa 55 bd
       0.016685916 0.008182621 0.04694292 -0.0521646
000080 7a f4 08 3c 4c c8 a5 bc 35 38 88 3b 7b 69 67 3d
       0.008359069 -0.02023711 0.004157091 0.05649708
000090 b5 27 f6 3a 8f d5 0e 3d 53 da 4f 3d fc 8c 1b bc
       0.0018780144 0.034871634 0.05074532 -0.0094940625
0000a0 d9 ab e8 ba ea 25 c1 3b 95 37 46 3d 6f bf c9 bc
       -0.001775141 0.0058944123 0.04839285 -0.024627415
0000b0 df 01 f3 bc 5f c3 a8 bc 16 47 68 bd e2 4f 82 bb
       -0.029663978 -0.020600973 -0.056708418 -0.003976808
0000c0 f6 0e 59 3d a9 3c 55 bd 43 9b 69 bd 11 c3 8f 3c
       0.052992783 -0.052059803 -0.057032835 0.01754907
0000d0 7f bc 3f 3d 11 a6 04 bc 71 72 1a bd fe 22 15 3c
       0.046810623 -0.008096234 -0.037706796 0.009102581
0000e0 a0 27 29 3d 31 46 2f 3d ee 38 32 3d ad 4e b9 3c
       0.041297555 0.04279155 0.043511324 0.022620523
0000f0 60 b6 ae 3c db 14 37 bd f1 14 b8 bc 6e 30 1c bd
       0.021327198 -0.044697624 -0.022470923 -0.038132124
000100 e9 51 44 bd 30 df e1 ba 75 d7 5c bc e0 9b bc bc
       -0.047929678 -0.0017232653 -0.013479103 -0.023023546
000110 33 c8 1f bd 50 4f 22 3d ad fe ae bc 8d 20 09 3b
       -0.039009284 0.03962642 -0.021361673 0.0020923943
000120 ac 9b da bc d7 82 96 bb 8d 59 ec 3c 3b 30 bb bc
       -0.026685558 -0.004593234 0.028851295 -0.022850147
000130 85 96 17 bd 4f 45 07 bd 4d 3c d3 3c 56 db d0 bc
       -0.03700878 -0.033025082 0.02578559 -0.025495213
000140 03 1a 9e bc 7a 61 0e 3d 95 8e 0a 3d e0 0f 6e 3d
       -0.019299513 0.03476093 0.033827383 0.05812061
000150 c6 4a 09 3d de 53 3c 3c 29 df 55 3b ba e1 a6 3c
       0.033518575 0.011494605 0.0032634235 0.020371307
000160 11 c9 1b bd 86 5d 6a 3d af a2 65 bd 29 59 38 bc
       -0.03803355 0.057218097 -0.05606335 -0.011251726
000170 f2 5b 6c 3d ec 37 df bc ae 7e 4f bd 73 3a 0c bd
       0.057704873 -0.027248345 -0.05065792 -0.03423543
000180 12 bb 2f 3d cc 9c 6e 3d 81 d4 5a bc 1a ed 9f bc
       0.042903014 0.058255002 -0.013356329 -0.019522239
000190 ca a3 00 bd 96 e4 46 bd bf a4 33 bd 9d 0f ad bc
       -0.0314062 -0.04855784 -0.043858286 -0.021125609
0001a0 9f db 5a 3d 4d bb 27 3d 81 4e 39 3d ea 71 97 3c
       0.053432103 0.04095011 0.045240883 0.018486936
0001b0 72 78 16 3d 5a e9 69 3d 66 b3 fb 3c 04 06 9b 3b
       0.03673596 0.057107307 0.030725192 0.0047309417
0001c0 45 ad ad bc 56 3a 1f 3d 60 39 3a 3d aa 98 6b bd
       -0.021200785 0.038873993 0.045464873 -0.05751864
0001d0 b9 47 d6 3c bc 99 c8 bc 67 d7 7b bb 1b 9e 9d 3c
       0.026157247 -0.024487369 -0.003842795 0.01924043
0001e0 dc 53 ff bc f6 1a 21 3d fd 47 5a bd c7 13 9c ba
       -0.031167917 0.039332353 -0.05329131 -0.001190775
0001f0 89 c0 3d 3d b9 50 32 bc a8 db 82 bb 26 cb 2b bd
       0.046326194 -0.010883504 -0.00399347 -0.041941784
000200 ff 24 30 bd 27 15 eb 3b 32 2c 27 3d 8a 41 46 bd
       -0.043004032 0.0071741524 0.040813632 -0.048402347
000210 8e 3f 94 bc e6 aa d7 b7 b1 69 cd bc 32 b5 4a 3d
       -0.018096711 -2.5709578e-05 -0.025074812 0.049489208
000220 55 d0 df 3b 2c 14 ee 3c 5a 8c 11 3d 12 00 48 3d
       0.006830255 0.029062353 0.03553424 0.048828192
000230 62 5a b1 bc 11 4e a2 bb 73 8d 49 3d e0 d1 64 3d
       -0.021649543 -0.004953154 0.049207162 0.055864215
000240 ef 2c 5f bb da b7 ef 3c 9c 70 fc 3c b5 7e 8d bc
       -0.0034053882 0.029262472 0.030815415 -0.017272333
000250 05 3a c7 3c c7 89 32 bd 7d 84 89 3c 8f 88 6c 3c
       0.024319658 -0.043588426 0.016786808 0.014436855
000260 6c e6 ce 3c c5 2d ae 3c 94 04 0a bd fc 88 d6 bb
       0.025256358 0.021262059 -0.033695772 -0.0065470915
000270 64 c7 04 3c 87 12 09 bd fc 21 08 bd 93 1f 59 3c
       0.008104179 -0.033464935 -0.033235535 0.013252157
000280 90 16 21 bd db e3 11 3d 37 cc 01 bc bf cc 0c 3d
       -0.039328158 0.03561769 -0.007922224 0.03437495
000290 f4 ad 6e 3d 9a b1 5e 3d 0c 17 e2 bc e6 01 cf 3c
       0.058271363 0.054368593 -0.02759888 0.02526946
0002a0 22 41 0a bd 05 90 18 3d b8 50 62 bd 53 98 1a bd
       -0.03375352 0.037246723 -0.05525276 -0.037742924
0002b0 c5 2d bb 3c 27 e8 35 bd bd 8d 3f bb f5 df 14 bd
       0.022848973 -0.04441085 -0.002922877 -0.036346395
0002c0 fe 6f 61 bd 5e ee 5a bd cd 48 0b 3b 67 57 35 3d
       -0.055038445 -0.05344998 0.002125311 0.044272806
0002d0 08 cf 1f bd e9 58 3f bc ad 18 af bc dd a6 9a bc
       -0.0390158 -0.011678913 -0.021374071 -0.018878395
0002e0 d1 19 27 bd bd 90 28 3d 6c 3d 77 3c 4c 2b 59 bc
       -0.040796105 0.04115366 0.015090328 -0.013254952
0002f0 0b 31 66 3d 25 43 62 3d e7 af 10 bb 9a 48 64 bd
       0.056199115 0.055239815 -0.0022077502 -0.0557333
000300 5f 52 95 bc 11 4c e9 bc ef ad f3 bc dc c3 49 3d
       -0.018227754 -0.028478654 -0.029746024 0.04925905
000310 77 f1 32 3d 37 8c 39 bd 29 41 45 3d be 6c c0 bc
       0.04368731 -0.045299735 0.048157845 -0.023489352
000320 e9 c8 d3 3c 7e 15 34 3d 10 f4 e2 3c cb d5 5c 3d
       0.025852637 0.04396581 0.027704269 0.053914826
000330 4b 0c 42 3d 03 30 e7 bc 7d de e5 3b 08 2a 14 3c
       0.047375005 -0.028221136 0.007015048 0.009043224
000340 c5 d6 58 3d 55 7c d0 bc 95 08 9d bc f8 88 0d bd
       0.052939195 -0.025449911 -0.019169131 -0.03455445
000350 19 eb ae bc 23 a4 62 bd dc 74 f1 3c cf 2b 07 3d
       -0.021352338 -0.055332314 0.029474668 0.033000764
000360 57 ea 08 bd 5c 44 26 3d 7e 0a 1b bb 96 8a b8 bc
       -0.03342661 0.040592536 -0.0023657377 -0.02252702
000370 9e 07 24 bd f4 f7 2c bd 3b ac f0 bc db ab d7 bc
       -0.040046327 -0.042228654 -0.029379 -0.026327064
000380 ef f2 48 3d a2 98 4e bd ae bd de 3b 49 c6 28 bc
       0.049059805 -0.05043853 0.006797514 -0.010301181
000390 18 91 b7 3c 26 7c a3 3c ff f1 52 bd 33 2b fd bc
       0.022408053 0.01995666 -0.051500317 -0.030904388
0003a0 26 27 0e bd 0b 48 00 bb 64 c3 23 bc 40 0e 15 3c
       -0.034705304 -0.001957419 -0.009995315 0.009097636
0003b0 a3 fd 61 3d 8b b7 14 3c 28 64 2c bd 03 a2 59 bd
       0.055173527 0.009076963 -0.042087704 -0.053133022
0003c0 e0 05 2d 3b b0 b4 fd bc 65 3b eb 3c b1 94 07 3d
       0.0026401207 -0.030969948 0.028714845 0.033100788
0003d0 96 d9 da bc 72 9e 10 bd a5 24 77 3c 79 15 58 3d
       -0.026715081 -0.035307355 0.01508442 0.052754853
0003e0 a6 dc 09 3d 2b a5 5f 3c 93 28 18 bd a5 99 4e bc
       0.033657692 0.013650219 -0.03714807 -0.012609874
0003f0 26 94 67 3d 32 d2 ea bc 24 e3 45 bd b1 ec 1a bd
       0.05653777 -0.028664682 -0.04831232 -0.037823383

conv3.0.bias f4 [64]
000000 0c 41 4e bd 7c 5d 49 3d 8f 5f e3 3b 4e 06 61 bd
       -0.050355002 0.04916142 0.0069388817 -0.054937653
000010 c6 e7 3d bd b4 8d 33 bd d6 d9 6e 3d a9 37 fd 3c
       -0.046363614 -0.04383631 0.058313213 0.03091033
000020 b9 eb e8 bc b7 a9 60 bd 23 2d 0b 3c 58 d6 d2 3b
       -0.028432714 -0.054849353 0.008494648 0.006434243
000030 bc f6 e5 bc fa 4c e8 3b 7c 47 d5 bc b1 aa 20 bc
       -0.028071754 0.0070892544 -0.026035063 -0.009806321
000040 a1 74 66 3b 5a ba 46 3d 29 e5 29 3d bb 2f 85 3c
       0.003516473 0.048517562 0.04147831 0.016258111
000050 22 56 e4 bc 11 58 06 3d 3a 06 9d 3c 94 90 0d bc
       -0.027873103 0.03279883 0.019168008 -0.008640427
000060 a3 a1 64 3d b3 8c de 3c 13 02 64 bc 18 56 af bc
       0.05581821 0.0271667 -0.01391651 -0.021403357
000070 27 52 a4 bc 65 4e 02 3d 00 24 5c 3c a4 c9 18 3c
       -0.020058705 0.031813044 0.013436317 0.009325419
000080 03 31 62 bd bf f1 a2 bc be 5a 3e bd d7 8f 05 3d
       -0.055222522 -0.019890664 -0.046473257 0.03260788
000090 76 b6 bb 3c 80 11 6c 3d 45 22 0e 3c 03 c4 4c 3d
       0.022914153 0.057633877 0.008675163 0.04999162
0000a0 17 bc 1d bd 9a 58 9c bb c2 90 d4 3b c1 89 d1 bc
       -0.038509455 -0.0047713043 0.006486983 -0.025578381
0000b0 59 25 45 3d 76 67 a1 bc 10 ce 5e 39 02 9a 80 bb
       0.04813132 -0.019702654 0.00021248334 -0.003924609
0000c0 60 e4 1d bc 50 24 6c 3d 62 55 70 3d f8 40 40 3d
       -0.009636968 0.057651818 0.058675177 0.04693696
0000d0 46 a9 16 3d 26 b9 a8 ba c2 01 02 3d 19 1f 54 3d
       0.036782525 -0.0012872561 0.031739958 0.05178747
0000e0 b6 06 aa 3c 0b 79 16 bd a0 07 c6 3c 5e f0 16 3d
       0.020755153 -0.03673653 0.024173558 0.036850326
0000f0 6b 43 f7 bc 03 c6 e8 3b e4 89 da 3c c8 52 41 bd
       -0.030183515 0.007103683 0.02667708 -0.047198087

conv3.2.weight f4 [64]
000000 00 00 80 3f 00 00 80 3f 00 00 80 3f 00 00 80 3f
       1.0 1.0 1.0 1.0
000010 00 00 80 3f 00 00 80 3f 00 00 80 3f 00 00 80 3f
       1.0 1.0 1.0 1.0
000020 00 00 80 3f 00 00 80 3f 00 00 80 3f 00 00 80 3f
       1.0 1.0 1.0 1.0
000030 00 00 80 3f 00 00 80 3f 00 00 80 3f 00 00 80 3f
       1.0 1.0 1.0 1.0
000040 00 00 80 3f 00 00 80 3f 00 00 80 3f 00 00 80 3f
       1.0 1.0 1.0 1.0
000050 00 00 80 3f 00 00 80 3f 00 00 80 3f 00 00 80 3f
       1.0 1.0 1.0 1.0
000060 00 00 80 3f 00 00 80 3f 00 00 80 3f 00 00 80 3f
       1.0 1.0 1.0 1.0
000070 00 00 80 3f 00 00 80 3f 00 00 80 3f 00 00 80 3f
       1.0 1.0 1.0 1.0
000080 00 00 80 3f 00 00 80 3f 00 00 80 3f 00 00 80 3f
       1.0 1.0 1.0 1.0
000090 00 00 80 3f 00 00 80 3f 00 00 80 3f 00 00 80 3f
       1.0 1.0 1.0 1.0
0000a0 00 00 80 3f 00 00 80 3f 00 00 80 3f 00 00 80 3f
       1.0 1.0 1.0 1.0
0000b0 00 00 80 3f 00 00 80 3f 00 00 80 3f 00 00 80 3f
       1.0 1.0 1.0 1.0
0000c0 00 00 80 3f 00 00 80 3f 00 00 80 3f 00 00 80 3f
       1.0 1.0 1.0 1.0
0000d0 00 00 80 3f 00 00 80 3f 00 00 80 3f 00 00 80 3f
       1.0 1.0 1.0 1.0
0000e0 00 00 80 3f 00 00 80 3f 00 00 80 3f 00 00 80 3f
       1.0 1.0 1.0 1.0
0000f0 00 00 80 3f 00 00 80 3f 00 00 80 3f 00 00 80 3f
       1.0 1.0 1.0 1.0

conv3.2.bias f4 [64]
000000 00 00 00 00 00 00 00 00 00 00 00 00 00 00 00 00
       0.0 0.0 0.0 0.0
000010 00 00 00 00 00 00 00 00 00 00 00 00 00 00 00 00
       0.0 0.0 0.0 0.0
000020 00 00 00 00 00 00 00 00 00 00 00 00 00 00 00 00
       0.0 0.0 0.0 0.0
000030 00 00 00 00 00 00 00 00 00 00 00 00 00 00 00 00
       0.0 0.0 0.0 0.0
000040 00 00 00 00 00 00 00 00 00 00 00 00 00 00 00 00
       0.0 0.0 0.0 0.0
000050 00 00 00 00 00 00 00 00 00 00 00 00 00 00 00 00
       0.0 0.0 0.0 0.0
000060 00 00 00 00 00 00 00 00 00 00 00 00 00 00 00 00
       0.0 0.0 0.0 0.0
000070 00 00 00 00 00 00 00 00 00 00 00 00 00 00 00 00
       0.0 0.0 0.0 0.0
000080 00 00 00 00 00 00 00 00 00 00 00 00 00 00 00 00
       0.0 0.0 0.0 0.0
000090 00 00 00 00 00 00 00 00 00 00 00 00 00 00 00 00
       0.0 0.0 0.0 0.0
0000a0 00 00 00 00 00 00 00 00 00 00 00 00 00 00 00 00
       0.0 0.0 0.0 0.0
0000b0 00 00 00 00 00 00 00 00 00 00 00 00 00 00 00 00
       0.0 0.0 0.0 0.0
0000c0 00 00 00 00 00 00 00 00 00 00 00 00 00 00 00 00
       0.0 0.0 0.0 0.0
0000d0 00 00 00 00 00 00 00 00 00 00 00 00 00 00 00 00
       0.0 0.0 0.0 0.0
0000e0 00 00 00 00 00 00 00 00 00 00 00 00 00 00 00 00
       0.0 0.0 0.0 0.0
0000f0 00 00 00 00 00 00 00 00 00 00 00 00 00 00 00 00
       0.0 0.0 0.0 0.0

conv3.2.running_mean f4 [64]
000000 00 00 00 00 00 00 00 00 00 00 00 00 00 00 00 00
       0.0 0.0 0.0 0.0
000010 00 00 00 00 00 00 00 00 00 00 00 00 00 00 00 00
       0.0 0.0 0.0 0.0
000020 00 00 00 00 00 00 00 00 00 00 00 00 00 00 00 00
       0.0 0.0 0.0 0.0
000030 00 00 00 00 00 00 00 00 00 00 00 00 00 00 00 00
       0.0 0.0 0.0 0.0
000040 00 00 00 00 00 00 00 00 00 00 00 00 00 00 00 00
       0.0 0.0 0.0 0.0
000050 00 00 00 00 00 00 00 00 00 00 00 00 00 00 00 00
       0.0 0.0 0.0 0.0
000060 00 00 00 00 00 00 00 00 00 00 00 00 00 00 00 00
       0.0 0.0 0.0 0.0
000070 00 00 00 00 00 00 00 00 00 00 00 00 00 00 00 00
       0.0 0.0 0.0 0.0
000080 00 00 00 00 00 00 00 00 00 00 00 00 00 00 00 00
       0.0 0.0 0.0 0.0
000090 00 00 00 00 00 00 00 00 00 00 00 00 00 00 00 00
       0.0 0.0 0.0 0.0
0000a0 00 00 00 00 00 00 00 00 00 00 00 00 00 00 00 00
       0.0 0.0 0.0 0.0
0000b0 00 00 00 00 00 00 00 00 00 00 00 00 00 00 00 00
       0.0 0.0 0.0 0.0
0000c0 00 00 00 00 00 00 00 00 00 00 00 00 00 00 00 00
       0.0 0.0 0.0 0.0
0000d0 00 00 00 00 00 00 00 00 00 00 00 00 00 00 00 00
       0.0 0.0 0.0 0.0
0000e0 00 00 00 00 00 00 00 00 00 00 00 00 00 00 00 00
       0.0 0.0 0.0 0.0
0000f0 00 00 00 00 00 00 00 00 00 00 00 00 00 00 00 00
       0.0 0.0 0.0 0.0

conv3.2.running_var f4 [64]
000000 00 00 80 3f 00 00 80 3f 00 00 80 3f 00 00 80 3f
       1.0 1.0 1.0 1.0
000010 00 00 80 3f 00 00 80 3f 00 00 80 3f 00 00 80 3f
       1.0 1.0 1.0 1.0
000020 00 00 80 3f 00 00 80 3f 00 00 80 3f 00 00 80 3f
       1.0 1.0 1.0 1.0
000030 00 00 80 3f 00 00 80 3f 00 00 80 3f 00 00 80 3f
       1.0 1.0 1.0 1.0
000040 00 00 80 3f 00 00 80 3f 00 00 80 3f 00 00 80 3f
       1.0 1.0 1.0 1.0
000050 00 00 80 3f 00 00 80 3f 00 00 80 3f 00 00 80 3f
       1.0 1.0 1.0 1.0
000060 00 00 80 3f 00 00 80 3f 00 00 80 3f 00 00 80 3f
       1.0 1.0 1.0 1.0
000070 00 00 80 3f 00 00 80 3f 00 00 80 3f 00 00 80 3f
       1.0 1.0 1.0 1.0
000080 00 00 80 3f 00 00 80 3f 00 00 80 3f 00 00 80 3f
       1.0 1.0 1.0 1.0
000090 00 00 80 3f 00 00 80 3f 00 00 80 3f 00 00 80 3f
       1.0 1.0 1.0 1.0
0000a0 00 00 80 3f 00 00 80 3f 00 00 80 3f 00 00 80 3f
       1.0 1.0 1.0 1.0
0000b0 00 00 80 3f 00 00 80 3f 00 00 80 3f 00 00 80 3f
       1.0 1.0 1.0 1.0
0000c0 00 00 80 3f 00 00 80 3f 00 00 80 3f 00 00 80 3f
       1.0 1.0 1.0 1.0
0000d0 00 00 80 3f 00 00 80 3f 00 00 80 3f 00 00 80 3f
       1.0 1.0 1.0 1.0
0000e0 00 00 80 3f 00 00 80 3f 00 00 80 3f 00 00 80 3f
       1.0 1.0 1.0 1.0
0000f0 00 00 80 3f 00 00 80 3f 00 00 80 3f 00 00 80 3f
       1.0 1.0 1.0 1.0

ln1.weight f4 [16, 2304]
000000 02 24 9b bc 76 a6 72 bc 26 eb e0 bb e6 7b a2 bc
       -0.018938068 -0.014810195 -0.0068639694 -0.01983447
000010 60 8b 4f bc 86 fc 9d 3c 18 b3 00 3c 06 9b 28 bc
       -0.012667507 0.019285452 0.007855199 -0.010290867
000020 a0 81 51 3b 18 6b 5e bc 66 64 f4 3b 58 7d 10 3c
       0.0031968132 -0.013575338 0.0074582575 0.008818947
000030 0e 19 19 3c 78 98 13 3c fb 75 90 bc 96 eb c5 3b
       0.009344352 0.009008519 -0.017634382 0.006040047
000040 af d6 99 3c a0 bf 72 bb cb 62 60 bb 2b c3 31 bc
       0.018779127 -0.0037040487 -0.0034238573 -0.010849754
000050 20 8d c6 3b 08 17 9e bc be 40 1f 3c eb 78 25 3b
       0.006059304 -0.019298092 0.009720026 0.0025249075
000060 ec f2 8a 3c 54 89 8f bc 96 8b a3 3b b8 a1 7f 3c
       0.016961537 -0.017521538 0.004991005 0.015602522
000070 a3 19 7a bc 4b 2d 08 bc d3 82 8f bc 5b b5 bf 3b
       -0.015264901 -0.00831158 -0.017518437 0.0058504767
000080 76 f2 42 bb 06 d0 3a bc 6b 4d 92 3a fe 60 2f 3c
       -0.0029746569 -0.011402136 0.0011161988 0.010704277
000090 cf 22 87 3c 3e 39 03 3c 1b 9e 95 3b c0 8e 63 3c
       0.01649609 0.008009253 0.004565967 0.013889015
0000a0 a6 3a 1f 3c 56 e0 a7 b9 2b 12 1c ba ab ca 9e bc
       0.009718573 -0.00032019865 -0.0005953635 -0.019383749
0000b0 e0 cf f5 3b 22 28 9d 3c 30 d5 44 bc 8e dd 19 3c
       0.0075015873 0.019184176 -0.0120137185 0.009391202
0000c0 80 1c f2 3a 06 c3 56 3c 2b fc ef 3a 0e 3e 45 3c
       0.0018471628 0.013108021 0.0018309405 0.012038721
0000d0 f6 b2 9f bc 2b 56 37 3c 8b 77 53 3c 3b 82 a2 3c
       -0.019494515 0.011189978 0.012906919 0.01983749
0000e0 8a 56 a1 bc 83 99 4c 3c 07 70 96 3c 47 54 84 3c
       -0.019694585 0.012487772 0.018363966 0.016153468
0000f0 58 da 85 3c 1b b9 a2 3b 96 6f 3e 3b 3c a3 9e 3c
       0.016339466 0.004965914 0.002905821 0.019364946
000100 eb bc 20 bc 3e b1 2a bc e6 56 bc 3b 7e d0 53 3c
       -0.009810667 -0.010418234 0.005747664 0.012928126
000110 4b 6b 97 3b b6 65 8f 3b 80 e2 9b 3c 93 e7 2f bc
       0.0046209446 0.0043761386 0.019028902 -0.010736364
000120 ab 04 32 bc a2 6d 97 bc ab 9c 4a b9 4e c2 1d bc
       -0.010865371 -0.018484894 -0.00019322585 -0.009628845
000130 c3 36 15 3c 7e 82 65 3c 36 39 76 bc 28 37 93 3c
       0.0091072945 0.014008163 -0.015028289 0.017970636
000140 56 c5 75 38 ab 96 36 ba 7b 24 69 3c d0 d2 e2 3b
       5.8596335e-05 -0.00069652003 0.014229889 0.0069221035
000150 2b e2 c0 bb ce f7 25 bc 5b eb 3e 3c 13 9e 68 3c
       -0.0058863363 -0.010129882 0.011652793 0.014197844
000160 7b f4 94 3c b6 6c cd bb ab 52 70 ba 93 a9 6e 3c
       0.018182984 -0.006269063 -0.0009167592 0.014566797
000170 f6 88 60 bc 56 dc e5 b9 2b 6f 1f bc 28 26 1d bc
       -0.013704529 -0.00043842447 -0.009731094 -0.009591617
000180 93 a9 3d bc eb b3 0d bc 30 77 28 3c f3 7c 83 3c
       -0.011576074 -0.008648853 0.010282323 0.016050791
000190 16 d5 b0 bb d6 91 d1 3b 3c d9 81 3c ae 98 84 3c
       -0.0053964956 0.006395559 0.015850656 0.016186085
0001a0 00 2e 90 bc 33 2d 1c 3c ea e4 94 bc 3a 0b a4 bc
       -0.01760006 0.009532261 -0.018175561 -0.020024884
0001b0 33 64 9b bc b8 30 01 3c a8 ef 36 3c 16 f7 a3 bc
       -0.018968677 0.007885151 0.011165537 -0.02001528
0001c0 c0 ef 3b 3b 0c 51 a9 bc 82 42 97 3c 38 76 8a bc
       0.0028676838 -0.020668529 0.01846433 -0.016902074
0001d0 58 76 39 3c 96 18 b2 bb 0e 1e 5a bc 96 88 4c 3b
       0.011319719 -0.00543506 -0.01331283 0.0031209341
0001e0 e3 20 93 bc eb fc 1e bb ef 21 9a bc e8 75 8e 3c
       -0.017960018 -0.0024259638 -0.018815009 0.017390206
0001f0 26 28 a7 bc 1e e9 15 bc 86 b2 ce 3b 00 62 97 3b
       -0.020404886 -0.009149818 0.0063079027 0.004619837
000200 82 e5 86 3c 0b d2 95 bc cb f4 79 bc f0 1b d4 bb
       0.01646686 -0.018288633 -0.015256117 -0.006473057
000210 db 41 61 bc 03 5d 8a 3c ab fb 7c 3a 42 40 a0 3c
       -0.013748611 0.016890055 0.00096505386 0.01956189
000220 a0 07 e8 bb 56 56 11 3a 26 fe 8b bb 80 f6 b8 3b
       -0.007080987 0.0005544176 -0.00427224 0.0056446195
000230 bb 4a 80 bb db 74 98 3b 56 14 71 ba 5b 42 a1 3b
       -0.0039151586 0.004652602 -0.00091964507 0.0049212403
000240 08 13 2b 3c 4b fb 3f 3b f6 3b a3 3b 6b 9c 37 bb
       0.010441549 0.002929407 0.004981513 -0.0028016816
000250 13 07 2b bc 76 ed 6a bb f3 ba 35 3c 30 a5 10 3c
       -0.010438698 -0.0035847104 0.011091935 0.008828446
000260 10 fc 9f 3b 6b 3b 63 3b c0 0c 4c bb 00 4a e3 b9
       0.004882343 0.0034672867 -0.003113553 -0.00043351948
000270 f6 58 54 3b 46 60 c4 bb 70 e1 83 3b 53 20 2d 3c
       0.0032401658 -0.005992922 0.004024677 0.010566789
000280 ce e6 5f 3c cb 86 45 bc 80 7a 14 bb cb a4 0d 3c
       0.013665868 -0.012056063 -0.0022656024 0.008645247
000290 30 e1 9d bc cb 69 1f bc 5c db a1 bc 40 4a a8 bc
       -0.019272417 -0.009729813 -0.019757919 -0.020543218
0002a0 ce 03 75 bc c0 16 20 3c 8e 2f 09 3c ab 69 38 3c
       -0.01495452 0.009771049 0.008373154 0.011255662
0002b0 00 00 f8 b4 38 d1 52 bc 0a 8f 9d 3c 56 5c e2 3b
       -4.61936e-07 -0.012867264 0.019233245 0.00690798
0002c0 ab 3e ab b9 2a c5 86 bc d6 69 da 3b 0b 43 57 bc
       -0.00032662353 -0.016451437 0.0066654487 -0.013138543
0002d0 76 c9 0d bb 16 f6 64 3b a0 9b 86 3c 2b b8 46 bc
       -0.0021634973 0.0034936718 0.01643163 -0.01212887
0002e0 e7 86 a7 3c a0 03 11 3b d3 0c 60 3c d6 2a 16 3a
       0.020450069 0.0022127405 0.0136749325 0.0005728429
0002f0 98 d2 80 bc 60 c9 07 bb 2b 8e 5b ba 00 bf 95 3b
       -0.015725419 -0.0020719394 -0.00083753717 0.004569888
000300 00 ed 9f bc 63 5b a9 3c f7 93 83 bc 4b 0a eb bb
       -0.01952219 0.02067346 -0.016061766 -0.007172858
000310 b6 dd 43 3b 4e c2 26 bc 2b 42 5a 3b 56 4f 57 3c
       0.0029886789 -0.010178162 0.00333036 0.013141474
000320 d2 7b a2 3c db 9d 49 bc 16 d0 8a 3b bc 32 9f bc
       0.019834433 -0.012305702 0.0042362316 -0.019433372
000330 a3 0f 33 3c 1b cb 5d 3c ae cb a1 bc 00 2b 4a 3a
       0.010929021 0.013537194 -0.019750442 0.0007712096
000340 66 ff f3 3b cb 5e 15 3c 4b ae 93 3b 6b da 3b 3c
       0.0074462174 0.009116839 0.0045068613 0.011465649
000350 5e d1 2f 3c be df 42 3c 6b c6 d1 3a 36 b1 98 3c
       0.010731069 0.011894165 0.0016004568 0.018639188
000360 b2 7a a3 bc 77 8f 99 bc d0 71 38 3c 4b 7a 8a 3c
       -0.019955967 -0.018745167 0.011257604 0.016904017
000370 cb ad 80 bc ab 6a 10 b9 d0 d0 8d bc 3e 95 42 3c
       -0.015707871 -0.00013772647 -0.017311484 0.011876402
000380 4b 80 4b bc 66 8b 88 bb 10 23 c4 bb 80 20 8a 3c
       -0.012420724 -0.004167008 -0.005985625 0.0168612
000390 e8 83 22 bc ab f0 d7 b9 46 0f 3c 3c 3e a3 74 3c
       -0.009919144 -0.00041187307 0.011478251 0.014931498
0003a0 ab 6d 43 3c 38 03 3b bc 56 e0 1b 3c a0 2a 8d bb
       0.011928002 -0.011414342 0.009513935 -0.00430806
0003b0 a6 fc 86 3c 2b 31 9c 3b 0b 89 3d bb db 04 a2 3c
       0.016477894 0.0047666035 -0.0028920795 0.019777706
0003c0 00 e0 b5 39 2b 48 d5 3b 00 e4 a7 ba c6 89 30 3c
       0.00034689903 0.0065088472 -0.0012809038 0.010775035
0003d0 7b 78 7b 3c 46 68 a7 bc f6 c3 f1 bb b0 18 15 3c
       0.015348549 -0.020435464 -0.0073780967 0.009100124
0003e0 46 d1 35 bc c0 7e 29 bc 96 07 b6 bb 6b 02 84 3a
       -0.011097258 -0.010345161 -0.0055551035 0.0010071521
0003f0 eb 63 ea ba 2b 44 51 bb 7e 51 45 bc bb bd ce bb
       -0.0017882561 -0.00319315 -0.012043355 -0.0063092387

ln1.bias f4 [16]
000000 eb 45 ac ba cc 9f a1 bc 36 c8 84 bb d3 63 99 3c
       -0.0013143396 -0.019729517 -0.0040521873 0.018724358
000010 18 4e a5 3c 66 34 30 bc 0b c8 a2 3b 2b 7f 4d bb
       0.02017884 -0.01075468 0.0049676946 -0.0031356316
000020 ec 19 83 3c 37 b3 91 bc 3c db 90 3c ce 38 55 3c
       0.016003571 -0.017785652 0.017682664 0.013014032
000030 de 5f 5c 3c 40 3c 30 3c 2b a3 d4 bb cb 98 bb bb
       0.013450591 0.010756552 -0.0064891777 -0.0057250015

batchnorm.weight f4 [16]
000000 00 00 80 3f 00 00 80 3f 00 00 80 3f 00 00 80 3f
       1.0 1.0 1.0 1.0
000010 00 00 80 3f 00 00 80 3f 00 00 80 3f 00 00 80 3f
       1.0 1.0 1.0 1.0
000020 00 00 80 3f 00 00 80 3f 00 00 80 3f 00 00 80 3f
       1.0 1.0 1.0 1.0
000030 00 00 80 3f 00 00 80 3f 00 00 80 3f 00 00 80 3f
       1.0 1.0 1.0 1.0

batchnorm.bias f4 [16]
000000 00 00 00 00 00 00 00 00 00 00 00 00 00 00 00 00
       0.0 0.0 0.0 0.0
000010 00 00 00 00 00 00 00 00 00 00 00 00 00 00 00 00
       0.0 0.0 0.0 0.0
000020 00 00 00 00 00 00 00 00 00 00 00 00 00 00 00 00
       0.0 0.0 0.0 0.0
000030 00 00 00 00 00 00 00 00 00 00 00 00 00 00 00 00
       0.0 0.0 0.0 0.0

batchnorm.running_mean f4 [16]
000000 00 00 00 00 00 00 00 00 00 00 00 00 00 00 00 00
       0.0 0.0 0.0 0.0
000010 00 00 00 00 00 00 00 00 00 00 00 00 00 00 00 00
       0.0 0.0 0.0 0.0
000020 00 00 00 00 00 00 00 00 00 00 00 00 00 00 00 00
       0.0 0.0 0.0 0.0
000030 00 00 00 00 00 00 00 00 00 00 00 00 00 00 00 00
       0.0 0.0 0.0 0.0

batchnorm.running_var f4 [16]
000000 00 00 80 3f 00 00 80 3f 00 00 80 3f 00 00 80 3f
       1.0 1.0 1.0 1.0
000010 00 00 80 3f 00 00 80 3f 00 00 80 3f 00 00 80 3f
       1.0 1.0 1.0 1.0
000020 00 00 80 3f 00 00 80 3f 00 00 80 3f 00 00 80 3f
       1.0 1.0 1.0 1.0
000030 00 00 80 3f 00 00 80 3f 00 00 80 3f 00 00 80 3f
       1.0 1.0 1.0 1.0

ln2.weight f4 [5, 16]
000000 90 72 d3 3d 88 a7 38 bd e4 d0 07 be 40 f3 71 3c
       0.103245854 -0.045081645 -0.13263279 0.014767468
000010 f8 fb 06 bd 26 0f 5e 3e 22 3e 55 be 2a 33 16 be
       -0.03295514 0.21685466 -0.20824483 -0.14667955
000020 ac 89 6c be d4 59 65 be 5a 7d 03 be b0 d3 92 3d
       -0.23099393 -0.22397548 -0.12840787 0.071692824
000030 a0 a9 4e 3c 44 72 42 be ac 89 d0 3d e0 d3 10 be
       0.012613684 -0.18988901 0.10182509 -0.14143324
000040 d8 fc cb 3d 36 f1 37 3e 14 e8 d9 bd 0c 9f 8f bd
       0.099603355 0.17963108 -0.106399685 -0.07012758
000050 e0 6c be 3c 6e 48 42 be 1e a0 02 be e4 28 45 3e
       0.023245275 -0.18972942 -0.12756392 0.1925388
000060 00 18 52 3b c6 1b 47 be 58 af 24 bd 6c 67 86 3d
       0.0032057762 -0.19444188 -0.040206283 0.06562695
000070 06 69 50 3e e6 85 66 be 0e 4d 0c be 52 31 71 be
       0.20352563 -0.22512016 -0.13701269 -0.2355397
000080 d8 45 94 bd 70 2d b2 bc 6c 40 ab bd 82 c5 5f be
       -0.07239884 -0.021750182 -0.08361897 -0.21852687
000090 4e 34 29 be 68 d0 36 be aa 48 19 3e c0 a7 42 bc
       -0.16523859 -0.17852938 0.14969125 -0.011880815
0000a0 40 62 02 3e c4 94 35 be 60 54 c3 bc f0 8a 64 bd
       0.12732792 -0.17732531 -0.023843944 -0.055796564
0000b0 94 09 84 bd c0 20 70 be 90 cf b6 3d 20 66 c4 3c
       -0.064471394 -0.23449993 0.08926308 0.023974478
0000c0 a4 98 b3 3d c4 57 32 be ea 24 5e be 30 2f 46 3e
       0.08769348 -0.17416292 -0.21693769 0.19353938
0000d0 60 dc 14 bd e2 3e 3f 3e 06 42 25 be e0 d2 ff 3d
       -0.03634298 0.18676332 -0.16138467 0.12491393
0000e0 2a 8d 5a be 46 f4 4b 3e de 02 42 3e 58 30 33 bd
       -0.21342912 0.19917402 0.18946406 -0.043747276
0000f0 94 5e 9c bd 10 c7 2c bd 30 6b ed 3d d8 0b 46 3e
       -0.07635227 -0.04218203 0.1159271 0.19340456
000100 fc 8e e5 bd c0 37 99 bb d0 2f 39 3e d8 82 3b be
       -0.11208913 -0.0046758354 0.18084645 -0.18311632
000110 48 55 bd 3d 70 58 a3 bd 34 1e da 3d 04 55 24 3e
       0.09244782 -0.079758525 0.10650292 0.16048056
000120 ae 4c 22 be 34 6c 4b be fa 94 1a be d4 7a 38 3e
       -0.15849563 -0.19865495 -0.15095893 0.18015605
000130 98 c5 17 be 00 ec 05 be 72 05 6b 3e 48 d5 23 bd
       -0.1482147 -0.13078308 0.22951296 -0.039998323

ln2.bias f4 [5]
000000 a0 f5 2d 3d 8e 34 41 3e 84 16 51 3e 30 aa 48 be
       0.042470574 0.18867704 0.20418745 -0.19596171
000010 b0 74 a2 3c
       0.019831032
