DL_experiments/models_chp/checkpoint_ptl_model.ckpt/lr_find_temp_model_c17f1b44-89b2-4832-b982-c3fc34a9c88c.ckpt (torch, 257907 bytes, 33 tensors)

conv1.0.weight f4 [16, 3, 3, 3]
00000000: ddd5 123e 361e 643d 6a28 613d 512f 1abe
00000010: 5ffa 243e 2b25 b83d 272b a73d b291 d1bc
00000020: e332 33be ff77 93bd 9633 243e 582d 123c
00000030: 79d8 e3bd 2f1e 413e 49b3 273e 8627 e13c
00000040: 31b1 2d3e ab6d ebbd d011 5f3d 8019 fabc
00000050: 73df d73d bfcb e33c 292f bbbc 98a2 d4bd
00000060: d927 abbd 8c6d 20bd 9bb6 2ebd f77d f2bd
00000070: 9320 c1bd 1230 39be 2d91 283e 560c 3abe
00000080: 2e75 393e 757e 16be 565d 11be f005 073e
00000090: 1131 0a3e 2b3a 16be 45a0 27be 4120 fd3b
000000a0: 82bf 2b3e 2119 443e ba9e 213d 73aa 3c3e
000000b0: bf17 2c3e 1a4a 82bd 6648 86bc e4ae d53d
000000c0: 42f8 c63d 9f69 fe3d 4f52 cabd fa6e c5bc
000000d0: 8ace 2e3d 9734 323e c789 803d fdd5 74bd
000000e0: c87b e33c 19ce 3bbd 90ae cd3d aae4 3d3e
000000f0: 05c4 ad3c fef4 53bd 409c ac3d 623f 3b3e
00000100: 9ce6 70bd 81b9 be3c b07e edbc 98e3 333e
00000110: 1344 433e 261d 553d 7fed d1bc 5924 a43d
00000120: 3b73 0ebe a344 2d3e ecd0 37be fcd2 a6bb
00000130: 1622 b83d 026c c0bd 834c c1bd a7d4 c93d
00000140: 552a 3d3e c9c4 e0bd 32c7 13be 40cf 9c3d
00000150: 044b 39be 619f 85bd 0be9 a2bd 0e61 0dbd
00000160: 4141 1e3e 1a0e 013c aeac 813d b426 9b3d
00000170: 8beb c4bd f334 273e cfad 5abc b3f5 2abe
00000180: c213 7bbd 3881 043e 3f7e 84bd d864 8dbd
00000190: f883 22be 9d10 9a3d ee17 353d 76f1 f8bb
000001a0: 3491 6c3d c245 313e ed39 2d3e 902d 8fbd
000001b0: b8d2 bdbd 4912 dc3d 9e7b a73c 47a1 f23d
000001c0: 02e0 e43b 07c4 fb3d ce5e a6bd cd46 2b3e
000001d0: 6ded b53d 06a3 c93d 6d69 f33d 0686 183e
000001e0: 4509 103d e2bd a93c 21c5 1f3e 5ac3 b3bd
000001f0: 1539 7d3c a990 f13d 2b83 7cbd 8c1e e4bc
00000200: 4c11 08bd ea0a 553c 6575 273e 1c83 08bd
00000210: 61c1 be3d c1b4 323e 5ae7 5ebd 0ebe 5f3d
00000220: 8ad3 cf3d 08b6 00bd 4145 6b3d 6707 acbd
00000230: f37a 3bbe 6671 d4bd 4316 583d a440 12be
00000240: 59e0 9d3c ed68 233e 9d5a 243e ecda 1abe
00000250: 1ca7 323e 1d92 323c 94f2 323d 0e7d ffbd
00000260: 0d2c f93d ecea 6a3d b992 e73d 7ea2 3b3e
00000270: 0541 423e dd19 933a 7c72 163d 2e1d 5a3d
00000280: 5e89 fb3c 4741 1fbe 7d0a 173e 8b90 71bd
00000290: 71b5 15be 9ed6 b83c afeb 9e3d 1e2a fdbc
000002a0: ad74 983d 3461 553d dc26 39be d8f3 223d
000002b0: 9a1a 52bd 02b7 ecbd 5b0d fe3a 5f37 3d3e
000002c0: 5c3c 813d 0fec c2bd 1667 03be 6675 e03d
000002d0: 6b67 003e a163 96bd 3de3 a3bd 9a3d 05be
000002e0: 852d 49bd 33ee 903d 66b1 c2bd a3e5 1abe
000002f0: ae30 30be 209c 16bd ae2b 25be b975 93bd
00000300: e147 68bd acc7 2ebe 1c6a 3dbc db37 c6bd
00000310: bde1 be3d 935d 33be 970b fb3d 5dc5 30bd
00000320: f7a5 9abc b812 fe3d e261 bfbd 32a3 89bd
00000330: 64a7 3b3b 9ba9 dd3d 2a25 cf3d c98f b1bd
00000340: 5f51 2abe a2ad 52bd f036 053e 595f 163e
00000350: 459c 5abd 486c de3d 7f06 40be 58dd 39be
00000360: e08d 433e d105 323c 4400 e1bc 4992 6f3d
00000370: 3c85 b8bd a3a4 383e b1cd 94bd 2ac2 07be
00000380: b3de ffbc 8fba 423e 133b 3ebe aa39 00be
00000390: 38f3 c83d 522b 853d b226 a8bd d30a 9d3d
000003a0: 5ebf 27be 33fc aebd ffdd fbbd e37f acbc
000003b0: f817 103e 66ba ff3d a436 783d 89e8 fbbd
000003c0: bd42 703d 408f 923d c6b0 09bb 3206 15be
000003d0: 9004 09be 4587 c33d c09a cd3d a07f 053d
000003e0: f89a 1d3c 0e66 9bbd d80e 423e adad ba3d
000003f0: 588e f0bd 218d 143e 9939 c03d 6bc4 04bd
0.14339395 0.055692874 0.054970182 -0.15057112 0.16111134 0.08991464 0.081625275 -0.025582168
-0.1749988 -0.07200622 0.16035303 0.008921944 -0.11125273 0.1885917 0.16376986 0.027484667
0.16962124 -0.11495527 0.054460347 -0.030529737 0.105406664 0.027807115 -0.022849636 -0.10382575
-0.0835721 -0.039166972 -0.042654615 -0.11840432 -0.09430041 -0.18084744 0.1646163 -0.18168768
0.18111107 -0.14696677 -0.14195761 0.13185859 0.1349528 -0.14670627 -0.16369732 0.007724792
0.16772273 0.19150211 0.039458014 0.18424396 0.16805933 -0.0636179 -0.016391944 0.10433748
0.0971532 0.124224894 -0.0987898 -0.02410077 0.04267744 0.17402874 0.06276279 -0.059774388
0.027768984 -0.045850847 0.10043061 0.1854426 0.021211633 -0.051747315 0.0842824 0.18285897
-0.058813676 0.023281815 -0.028991073 0.17567289 0.19068937 0.05202975 -0.025625942 0.08014745
-0.13911144 0.16920714 -0.17950791 -0.0050910693 0.089908764 -0.09395601 -0.094384216 0.09855013
0.1847318 -0.10975034 -0.14431456 0.07656717 -0.18095022 -0.0652454 -0.07954606 -0.034516387
0.1545458 0.007876897 0.06331764 0.075757414 -0.09615239 0.16328792 -0.013347103 -0.1669529
-0.06129814 0.12939918 -0.06469392 -0.06904 -0.15870655 0.075227 0.044212274 -0.0075971438
0.057755664 0.17311767 0.16916628 -0.06991112 -0.09268707 0.10745675 0.020444687 0.118471675
0.0069847116 0.122932486 -0.08123551 0.16726227 0.08883176 0.098455474 0.11885343 0.14894876
0.03516509 0.020720426 0.15602542 -0.08777495 0.015455504 0.1179517 -0.06164853 -0.027846597
-0.03321962 0.01300309 0.16353376 -0.03332816 0.09314228 0.17451765 -0.054419853 0.05462461
0.1014777 -0.0314236 0.057439093 -0.083998494 -0.1830862 -0.103731915 0.052755605 -0.14282471
0.019272016 0.15957995 0.16050191 -0.15122575 0.1744656 0.010899094 0.04368837 -0.12475024
0.12166605 0.057352945 0.11307282 0.18323705 0.18970115 0.0011222918 0.036730275 0.053250484
0.03070515 -0.15552245 0.14750095 -0.058975738 -0.14619996 0.022563275 0.07759797 -0.030903872
0.07444129 0.052094653 -0.1808123 0.03978333 -0.0512949 -0.115583435 0.0019382642 0.18478154
0.06310341 -0.09517681 -0.12832293 0.10959892 0.12539451 -0.073432215 -0.08002327 -0.1301178
-0.049115676 0.07076683 -0.09506492 -0.15126662 -0.1720607 -0.036769986 -0.16129944 -0.07200188
-0.056709174 -0.17068356 -0.011560943 -0.09678622 0.093204 -0.17516164 0.1225807 -0.04315697
-0.018877966 0.12405914 -0.093448415 -0.0672058 0.0028633708 0.10823365 0.1011451 -0.08670003
-0.16632603 -0.05143512 0.13009238 0.1468481 -0.053371686 0.10860497 -0.18752478 -0.18150842
0.1909709 0.010865645 -0.027465947 0.058489118 -0.090097874 0.18031554 -0.07265795 -0.13257661
-0.031234121 0.19016479 -0.18577223 -0.12521997 0.09812015 0.06502403 -0.082105055 0.0766808
-0.16381595 -0.08544197 -0.12298202 -0.021057075 0.14071643 0.124867246 0.060598984 -0.12300212
0.058657397 0.07156229 -0.0021009906 -0.14553145 -0.13380647 0.09547285 0.10039282 0.032592416
0.009619467 -0.07587825 0.18950975 0.09115157 -0.117459 0.14506961 0.09385986 -0.03241388

conv1.0.bias f4 [16]
00000000: c294 64bc 9350 3d3e 46f5 90bd e60c 693d
00000010: 9d43 15be 15f8 6ebd 8989 933c 7fe5 313e
00000020: 5f9f f83d 7d12 ec3d 9ca5 693d 48b8 22be
00000030: f4c9 393e e597 3abd 1805 40be fb11 7fbd
-0.013951482 0.18487768 -0.07078032 0.056897067 -0.14576574 -0.05834206 0.018009918 0.17372702
0.121397726 0.11526964 0.057042703 -0.1589061 0.18143445 -0.045555014 -0.18751943 -0.062273007

conv1.2.weight f4 [16]
00000000: 0000 803f 0000 803f 0000 803f 0000 803f
00000010: 0000 803f 0000 803f 0000 803f 0000 803f
00000020: 0000 803f 0000 803f 0000 803f 0000 803f
00000030: 0000 803f 0000 803f 0000 803f 0000 803f
1.0 1.0 1.0 1.0 1.0 1.0 1.0 1.0
1.0 1.0 1.0 1.0 1.0 1.0 1.0 1.0

conv1.2.bias f4 [16]
00000000: 0000 0000 0000 0000 0000 0000 0000 0000
00000010: 0000 0000 0000 0000 0000 0000 0000 0000
00000020: 0000 0000 0000 0000 0000 0000 0000 0000
00000030: 0000 0000 0000 0000 0000 0000 0000 0000
0.0 0.0 0.0 0.0 0.0 0.0 0.0 0.0
0.0 0.0 0.0 0.0 0.0 0.0 0.0 0.0

conv1.2.running_mean f4 [16]
00000000: 0000 0000 0000 0000 0000 0000 0000 0000
00000010: 0000 0000 0000 0000 0000 0000 0000 0000
00000020: 0000 0000 0000 0000 0000 0000 0000 0000
00000030: 0000 0000 0000 0000 0000 0000 0000 0000
0.0 0.0 0.0 0.0 0.0 0.0 0.0 0.0
0.0 0.0 0.0 0.0 0.0 0.0 0.0 0.0

conv1.2.running_var f4 [16]
00000000: 0000 803f 0000 803f 0000 803f 0000 803f
00000010: 0000 803f 0000 803f 0000 803f 0000 803f
00000020: 0000 803f 0000 803f 0000 803f 0000 803f
00000030: 0000 803f 0000 803f 0000 803f 0000 803f
1.0 1.0 1.0 1.0 1.0 1.0 1.0 1.0
1.0 1.0 1.0 1.0 1.0 1.0 1.0 1.0

conv2.0.weight f4 [32, 16, 3, 3]
00000000: 4beb 0f3d becb a83d 6aa8 a2bd b062 a73c
00000010: f4b7 9bbd d62b 23bc 9067 9b3c 2351 38bd
00000020: f245 a8bd b49b 9e3d 784f 1a3d 4043 f3bb
00000030: 1bb8 f83c 085d 47bd 384a 94bd 80cb 813b
00000040: 76b4 43bd 6618 863d 56de bdbb 4a69 a8bd
00000050: 0020 583b 1b2c 66bd 7748 8abd c37d 84bd
00000060: 1636 83bd e00e 103d 40de 4cbc 424e 98bd
00000070: 9e3a 89bd e6f9 783d 637e 71bd 8bfe 8cbc
00000080: f448 88bd f029 ac3c 0bdb a03d 4644 1dbd
00000090: 08dc 1fbd d03f a1bc 8b02 ff3c cb4d aabc
000000a0: ab1a 8a3c b643 e93c d6a0 0dbd 5fa2 83bd
000000b0: 2b27 f73c fb14 a73d 4066 543c 56f2 42bd
000000c0: 56a0 133b b461 973d f6df 503d c8b9 6bbd
000000d0: eb53 29bc 80b9 30bb 2eea 9f3d 8e4a 9bbd
000000e0: 3031 9ebc eb9f ec3b 9ba9 a03c b655 3ebd
000000f0: cb9b 39bd d338 70bd f6d5 2fbd 9e17 1dbd
00000100: b8cc 65bd bbe4 1d3d 8832 413d 0c61 873d
00000110: 20d0 25bc 8620 d8bc 2e59 70bd c6b4 10bd
00000120: 4324 143d c0e0 4bbc 2bdd 60bc 4be6 783d
00000130: 7328 603d 4367 863d 4b80 bc3c 26ad 973d
00000140: 5678 f5bc 5be4 363d 48c6 0dbd 8b87 65bc
00000150: e80b 0fbd d849 78bd 7cc7 86bd 00ba 723a
00000160: 0bf7 50bc 8bfb c23c d4b0 9b3d 562b 90ba
00000170: 30ed 2ebd a002 b5bc 4b00 203c 6bc0 6c3d
00000180: 1602 a93d e6ca 513d 4b4d e93c a6bb 043d
00000190: ab42 40b9 7bf0 883c e01f 203c d3af 6d3d
000001a0: 47c9 9dbd eb00 8c3b 4037 08bd 8ba3 9c3d
000001b0: b8b5 333d 766c 10bd e25f 9a3d 60dc 33bd
000001c0: c644 e13c cac7 a43d 9e52 58bd 0c0b 95bd
000001d0: 3e5c 63bd 80f2 86bd 20ae 88bd 1e6c 1cbd
000001e0: 5b5d ae3c 4611 853c 57f5 8b3d fe1f 72bd
000001f0: d3bc 9bbd 484c 61bd abf9 18bc 0b56 433d
00000200: 60ce d03c cb58 5bbc 4371 01bd 3bef 82bd
00000210: b06d aa3d b65b 5d3c 5e00 663d 00c4 54ba
00000220: 605d 1b3d cb6f 83bd c07a 6f3c fb1b 8abd
00000230: 26bf 04bd ebb2 383d e0f4 0bbd e808 733d
00000240: 46ea 4ebd 04e1 873d 5048 9bbc e6b6 bbbc
00000250: fe3c 33bd e602 44bd d077 a5bc 1b99 6f3d
00000260: 0bf3 603c e6a7 14bd 0ff6 a2bd 4621 673d
00000270: f63d 71bc 7b1b f63c 1676 8fbd 00b9 f43c
00000280: 36b1 a6bc 7b2c 57bd f63c 553d d0e8 bd3c
00000290: af4f 833d 6ba1 44bc 76f1 c8bc 4823 7f3d
000002a0: 9629 f93b ae00 713d 681b 3c3d 48c3 53bd
000002b0: 63f9 253d c0f3 623c 20b2 523c 0082 a03d
000002c0: 3890 18bd 6b5f 283d 005e 2bbb 2e9d 91bd
000002d0: 43dd a2bd e8a2 163d 564e 383c f654 77bd
000002e0: e3f8 a1bd a65b 8c3d 748e 95bd bbf1 a33d
000002f0: ee79 4f3d 3833 28bd 60f3 343c 7686 62bc
00000300: c636 773d a609 93bd b8e8 a33d 58d7 21bd
00000310: 560c 86bc 9bfd 64bd 048e a43d 1b95 f7bc
00000320: dbdd 633d c859 98bd 2042 2e3c 701f 04bd
00000330: 7fa8 9abd 835b 02bd cb73 2bbd 36b7 4c3c
00000340: a06e 4ebc d658 30bb 1661 3d3d 40f7 7ebc
00000350: 9b03 fb3c 4314 95bd e8c8 533d ab2e 3a3b
00000360: d8fe 0c3d a013 b7bc 80e5 6fbd c62d 463d
00000370: e373 313d b39f 7dbd 901f 9dbc 46e1 9bbd
00000380: 4444 963d 6655 ec3c 33b6 44bd de4b 4fbd
00000390: 0b99 88bd 6390 453d 988f 4c3d 1be8 c3bc
000003a0: afdb 9bbd 403d b43c 4070 03bc f377 a73d
000003b0: ce4f 4fbd 63ab 873d f0e3 43bd 638b 353d
000003c0: 965b 64bc 9393 8ebd e680 3cbd d644 4bbd
000003d0: 80a2 f7bc 58ae 90bd cbdb 64bd 9026 3b3d
000003e0: c3af 7dbd d8f1 85bd 8f8c 873d 1012 98bc
000003f0: ab3f 933b 2034 bc3c d4be 93bd 5cf3 a93d
0.035136502 0.08241986 -0.07942279 0.0204328 -0.07603446 -0.009959182 0.01897028 -0.044999253
-0.08216466 0.07744542 0.037673444 -0.0074237883 0.030361226 -0.048672706 -0.072407186 0.0039610267
-0.047779523 0.065476224 -0.005794327 -0.08223207 0.0032978058 -0.056194406 -0.06752103 -0.064693
-0.064068004 0.035170436 -0.01250416 -0.074368015 -0.067006335 0.060785197 -0.058958422 -0.01721122
-0.0665454 0.021016091 0.07854279 -0.03839519 -0.039028198 -0.019683748 0.031129142 -0.020789048
0.01685842 0.02847467 -0.034577213 -0.06427454 0.030170044 0.081582986 0.012963831 -0.04759439
0.0022525988 0.07391682 0.050994836 -0.05755022 -0.010334949 -0.0026966035 0.07808338 -0.075825796
-0.019310564 0.007221212 0.019612124 -0.04646846 -0.04531459 -0.05864794 -0.04292866 -0.0383526
-0.05610344 0.038548212 0.04716733 0.06610307 -0.010120422 -0.026382696 -0.0586788 -0.03532865
0.036167394 -0.012443721 -0.013724606 0.0607665 0.054726075 0.06562664 0.023010394 0.07406072
-0.029964607 0.04465137 -0.034612924 -0.014009367 -0.034923464 -0.060617298 -0.065810174 0.00092592835
-0.012754212 0.023801586 0.07602087 -0.0010999243 -0.04270667 -0.022095978 0.009765695 0.05780069
0.08252351 0.05121889 0.028479239 0.032405518 -0.00018335383 0.016716233 0.009773225 0.058029007
-0.07704406 0.0042725704 -0.033255816 0.07648381 0.043874472 -0.035259686 0.075378194 -0.043911338
0.027498614 0.08045919 -0.052813165 -0.07277498 -0.05550789 -0.06589222 -0.06673837 -0.038189046
0.02128475 0.016243588 0.06833904 -0.05911254 -0.07604375 -0.055004388 -0.009336869 0.04768948
0.025489032 -0.013387869 -0.031602155 -0.06393286 0.083217025 0.013510635 0.056152694 -0.00081163645
0.037930846 -0.06417807 0.014616668 -0.06743618 -0.032408856 0.045092504 -0.034169078 0.059334666
-0.05051639 0.06634715 -0.01895538 -0.022914361 -0.04375934 -0.047854327 -0.020198733 0.058495622
0.013729821 -0.036292933 -0.07957088 0.056428216 -0.014724245 0.0300424 -0.07004945 0.029873371
-0.020348173 -0.052532654 0.05206009 0.023182303 0.06411683 -0.012001376 -0.0245292 0.062289506
0.0076038344 0.05883854 0.045924574 -0.051699907 0.040521037 0.01385206 0.012859851 0.078372955
-0.037246913 0.041106623 -0.0026148558 -0.07110058 -0.079523586 0.036776453 0.0112491455 -0.06038376
-0.079087995 0.06853418 -0.073025614 0.08005091 0.05065339 -0.04106447 0.011044353 -0.013826003
0.06035497 -0.07179575 0.08003372 -0.03951201 -0.016363304 -0.05590592 0.080349 -0.030222466
0.0556315 -0.074389994 0.010635883 -0.032256544 -0.07551669 -0.031825554 -0.041858476 0.012494853
-0.012599617 -0.002690842 0.046235166 -0.015561879 0.030641368 -0.07279255 0.05170527 0.0028409164
0.034422725 -0.022348225 -0.058568478 0.048383497 0.04332341 -0.06191988 -0.01918009 -0.07611327
0.073372394 0.028849315 -0.04802532 -0.050609462 -0.06669816 0.0482334 0.04994163 -0.023914387
-0.07610261 0.022001863 -0.008022368 0.081771754 -0.050613217 0.06624486 -0.0478248 0.044322383
-0.013937851 -0.06961741 -0.046021365 -0.049626194 -0.030228853 -0.070645034 -0.055873673 0.045691073
-0.061935198 -0.06540269 0.06618606 -0.0185633 0.004493674 0.022974074 -0.07214132 0.0829837

conv2.0.bias f4 [32]
00000000: 529b aabd 3fb4 a4bd abfa 103c 94f1 9f3d
00000010: db23 473d 3312 4ebd 5ff0 82bd c83e 843d
00000020: a33a 203d 60ec 6cbd 0672 983c b623 8f3d
00000030: 6bfc 82bd 002b f7bb b61c a23c 80c0 8a3b
00000040: d683 8b3c 5397 273d 9bf5 f9bc bf70 85bd
00000050: 2eec 4f3d 0bad a13c 9e63 88bd 6b34 94bd
00000060: 74ee 9ebd c3ba 113d 0b77 3c3c 7618 d3bc
00000070: 4840 153d 1e47 3cbd 2b9e 5cbb 735b 533d
-0.08330406 -0.08042192 0.008848826 0.07809749 0.04861818 -0.050310325 -0.063935034 0.06457287
0.03911842 -0.057842612 0.018609058 0.06989233 -0.06395801 -0.007542968 0.019789081 0.0042343736
0.017030638 0.0409158 -0.030512622 -0.06515645 0.050762348 0.019735834 -0.066596255 -0.072365604
-0.07760325 0.0355785 0.011502991 -0.0257685 0.036438257 -0.04596626 -0.0033663611 0.051600885

conv2.2.weight f4 [32]
00000000: 0000 803f 0000 803f 0000 803f 0000 803f
00000010: 0000 803f 0000 803f 0000 803f 0000 803f
00000020: 0000 803f 0000 803f 0000 803f 0000 803f
00000030: 0000 803f 0000 803f 0000 803f 0000 803f
00000040: 0000 803f 0000 803f 0000 803f 0000 803f
00000050: 0000 803f 0000 803f 0000 803f 0000 803f
00000060: 0000 803f 0000 803f 0000 803f 0000 803f
00000070: 0000 803f 0000 803f 0000 803f 0000 803f
1.0 1.0 1.0 1.0 1.0 1.0 1.0 1.0
1.0 1.0 1.0 1.0 1.0 1.0 1.0 1.0
1.0 1.0 1.0 1.0 1.0 1.0 1.0 1.0
1.0 1.0 1.0 1.0 1.0 1.0 1.0 1.0

conv2.2.bias f4 [32]
00000000: 0000 0000 0000 0000 0000 0000 0000 0000
00000010: 0000 0000 0000 0000 0000 0000 0000 0000
00000020: 0000 0000 0000 0000 0000 0000 0000 0000
00000030: 0000 0000 0000 0000 0000 0000 0000 0000
00000040: 0000 0000 0000 0000 0000 0000 0000 0000
00000050: 0000 0000 0000 0000 0000 0000 0000 0000
00000060: 0000 0000 0000 0000 0000 0000 0000 0000
00000070: 0000 0000 0000 0000 0000 0000 0000 0000
0.0 0.0 0.0 0.0 0.0 0.0 0.0 0.0
0.0 0.0 0.0 0.0 0.0 0.0 0.0 0.0
0.0 0.0 0.0 0.0 0.0 0.0 0.0 0.0
0.0 0.0 0.0 0.0 0.0 0.0 0.0 0.0

conv2.2.running_mean f4 [32]
00000000: 0000 0000 0000 0000 0000 0000 0000 0000
00000010: 0000 0000 0000 0000 0000 0000 0000 0000
00000020: 0000 0000 0000 0000 0000 0000 0000 0000
00000030: 0000 0000 0000 0000 0000 0000 0000 0000
00000040: 0000 0000 0000 0000 0000 0000 0000 0000
00000050: 0000 0000 0000 0000 0000 0000 0000 0000
00000060: 0000 0000 0000 0000 0000 0000 0000 0000
00000070: 0000 0000 0000 0000 0000 0000 0000 0000
0.0 0.0 0.0 0.0 0.0 0.0 0.0 0.0
0.0 0.0 0.0 0.0 0.0 0.0 0.0 0.0
0.0 0.0 0.0 0.0 0.0 0.0 0.0 0.0
0.0 0.0 0.0 0.0 0.0 0.0 0.0 0.0

conv2.2.running_var f4 [32]
00000000: 0000 803f 0000 803f 0000 803f 0000 803f
00000010: 0000 803f 0000 803f 0000 803f 0000 803f
00000020: 0000 803f 0000 803f 0000 803f 0000 803f
00000030: 0000 803f 0000 803f 0000 803f 0000 803f
00000040: 0000 803f 0000 803f 0000 803f 0000 803f
00000050: 0000 803f 0000 803f 0000 803f 0000 803f
00000060: 0000 803f 0000 803f 0000 803f 0000 803f
00000070: 0000 803f 0000 803f 0000 803f 0000 803f
1.0 1.0 1.0 1.0 1.0 1.0 1.0 1.0
1.0 1.0 1.0 1.0 1.0 1.0 1.0 1.0
1.0 1.0 1.0 1.0 1.0 1.0 1.0 1.0
1.0 1.0 1.0 1.0 1.0 1.0 1.0 1.0

conv3.0.weight f4 [64, 32, 3, 3]
00000000: 36d4 8d3c f768 b73c 48ed fb3c 1663 6dbc
00000010: 365e 68bc 44f7 57bd 12bc 473c 6a66 e03c
00000020: bbce 413d 0df7 613c 9e0c 9d3b e16a 63bd
00000030: e23d 03bd c66f 513d 06f2 b5bc 98b2 be3c
00000040: dbe2 cdbc 7158 e9bc b590 47bd d033 083d
00000050: 822b a3bb 6c28 0a3d 4360 9cbb 770f 683d
00000060: 9b29 37bd 6acf e33c 3dca 00bd 8c23 3bbb
00000070: d38d 23bd 9d66 6abd fb5d 6abc 181d d03c
00000080: 1777 46bd 943c 8c3b 974a b1bb 1f95 253d
00000090: 85f0 a03b 7262 e43c dad2 853c 23e0 5dbd
000000a0: f972 103d 54f5 fd3c 58dd 9c3c e672 013d
000000b0: 8205 5dbb cfaf 6e3b a7f3 17bd f16e 573d
000000c0: dcc5 f43b 46e3 5e3d f23a 223c c853 59bd
000000d0: 1087 2abc 2846 0dbc 967e d03c b01c 31bc
000000e0: afc1 1ebd 62a1 99bc 3803 3f3d 9405 133d
000000f0: 19c5 01bd 1d48 303d 5701 27bd 8458 013b
00000100: 3c1a d63c 1aa1 543d db1c 82bc 9315 003c
00000110: 2b7f 61bc f937 5cbb 6b66 c6bc ac7c 84bb
00000120: 5a82 47bd d350 4ebd 3920 75bc 544d 4e3d
00000130: b037 663d 7a9f 60bd 78b6 b1bc fb3d 57bd
00000140: b0a9 1ebd 84d0 32bd 09ba 62bd 7100 5abd
00000150: b275 77bc a55d e4bc 0b10 01bd 7f01 b13c
00000160: 5e63 673d b2ab 203c cb09 5cbd 2102 c6bc
00000170: 4b08 35bd 3882 f03c 5ac9 c43a 2e2b 203c
00000180: 1bdb 23bd 374a 073d 14a4 513d 74c6 c6bc
00000190: 6e82 30bd 5865 08bd d8c1 54bb c78a 9d3c
000001a0: dbbe 253d edfa b03b 1009 8d3c 6f3e 6e3b
000001b0: 1c91 453c 61b4 c6bc b175 2b3d 6e33 d8bc
000001c0: 827e 41bd c445 5d3c 47dd 6bbd 8b4a 71bd
000001d0: 1bc5 43bd ab37 033d 1cb7 453d f4ce dbbc
000001e0: 1c20 14bd bf76 053d 6375 153d b999 fabc
000001f0: cfda 39bd ab94 493d 29d0 d3bc 5f3c 663d
00000200: 836c 5e3c 6406 f2bc df26 903c a52c 70bc
00000210: 2125 0ebd b940 e3bc 308e c23c b9b5 443d
00000220: b5dd 34bd f90c 813a 5662 e7bc c092 37bd
00000230: 8a1e 04bc 1228 0c3c aa62 16b9 6ff6 da3c
00000240: 709b 2abd b593 9dbc b08e c9bc 70f7 3cbd
00000250: bf50 633d ee96 42bd 349d a9bc da52 4a3d
00000260: 4625 afbc 9404 28bd e1a4 503d 00dc 5fbc
00000270: 55fe 813b c4f7 11bd c3cd 463d a330 08bc
00000280: 9c15 423d 079e 763b 5eaf 2c3d 7c5a dabc
00000290: 2f74 64bc aaed 523d 9edb f43c 34e5 4f3d
000002a0: 2f35 29bc a9e3 543d fb9e c23c dcd2 a5bb
000002b0: 7ea0 f7bc 3fdd ab3c f9cc 433d 89f7 4e3d
000002c0: c30f 58bd 52ea cb3c a26a 2abc 27b9 b93c
000002d0: bddc 0c3d 4409 833c e603 71bc c4e7 3e3d
000002e0: 2173 3a3d f90b ff3c bb3f 333d 333a 4fbd
000002f0: b440 bebc bcd5 03bb cfbd 553a 98da 02bd
00000300: 0e0b 80bb e506 d0bc 9b7f c33b 6cd6 30bc
00000310: 6e54 68bd cb27 d9bc 5876 69bd dd52 193d
00000320: 085c 593d 6c43 0abd eb0f 0e3b 0c8b 83bc
00000330: d5cf 5139 fc13 60bd 5ab6 65bd 8ca3 0b3a
00000340: 9701 f9bc 11e4 10bd da1d 45bb 4a44 4abd
00000350: 2bf8 56bd 3fd6 8ebc 2519 57bd afce 40bd
00000360: 952e 4d3d 6851 d8bc 3b73 47bd 0310 303d
00000370: 2c21 f2bc e47c 0abd f019 c7bc 2c84 08bd
00000380: 9d38 afbb 8081 17bd 26de 183d 2917 8d3c
00000390: 9916 013d f18f 933c e19c 143c 4253 13bd
000003a0: 4293 fcba d6b7 be3a 33d7 93bc 5de2 6a3d
000003b0: 4744 f33c 290d 4cbb 4d3a 78bc cbdb 51bc
000003c0: f8bc 363d 1693 b13c 0729 46bd 735c 66bd
000003d0: 03fd 54bd 4845 613d 1914 6f3c 27ce 523d
000003e0: c2fe d4bc 2809 bfba f41d 6ebd a2a1 34bc
000003f0: 3134 5ebd dd9f 19bc 7b65 eb3c baf8 353c
0.017313104 0.022388918 0.030752793 -0.014488956 -0.014182618 -0.052726045 0.012190836 0.027392585
0.047316294 0.013791812 0.004792764 -0.05552185 -0.032041438 0.051131986 -0.022210132 0.02327852
-0.025132587 -0.028484555 -0.048721988 0.033252537 -0.004979552 0.033729956 -0.0047722175 0.056655373
-0.044717412 0.027808864 -0.03144287 -0.0028555123 -0.039930176 -0.057226766 -0.014304633 0.025404498
-0.048453417 0.0042796824 -0.005410503 0.040425416 0.0049114847 0.027878974 0.016335893 -0.05416883
0.035265896 0.03100077 0.019148514 0.031603716 -0.0033725207 0.0036420708 -0.0370976 0.052596036
0.0074698757 0.054415964 0.009901749 -0.053058416 -0.010408178 -0.008622684 0.025450986 -0.010810062
-0.03875893 -0.018753711 0.04663393 0.03589399 -0.031682108 0.043037523 -0.040772762 0.0019736597
0.026135556 0.05191145 -0.0158829 0.007817644 -0.013763229 -0.0033602698 -0.024218759 -0.0040431824
-0.048708297 -0.05037005 -0.014961296 0.050366715 0.05620545 -0.05483959 -0.021693453 -0.052549344
-0.038736045 -0.043655887 -0.0553532 -0.053223077 -0.015103744 -0.027876684 -0.03150944 0.021607159
0.05649125 0.00980656 -0.053720277 -0.024170937 -0.044197362 0.029358968 0.0015013621 0.00977592
-0.040003877 0.03302976 0.051181868 -0.024264552 -0.043093137 -0.033299774 -0.0032464173 0.019231213
0.040465217 0.0054010064 0.017216235 0.0036353131 0.012058523 -0.024255933 0.041860286 -0.026391711
-0.047239788 0.013505403 -0.057584073 -0.05890898 -0.047795396 0.03203551 0.04827033 -0.026832081
-0.036163434 0.03258395 0.0364889 -0.030590879 -0.045374688 0.049214046 -0.025856094 0.056209918
0.013575676 -0.029544063 0.01759666 -0.014659082 -0.034703378 -0.027740823 0.02374944 0.048024867
-0.04415675 0.0009845785 -0.028245132 -0.044817686 -0.008063922 0.008554475 -0.0001434187 0.026728837
-0.041652143 -0.019235471 -0.024604172 -0.046134412 0.055496927 -0.04750722 -0.020704843 0.04939542
-0.021380078 -0.04101999 0.05093849 -0.013663292 0.0039670863 -0.03563668 0.048536073 -0.008312377
0.04738389 0.0037630813 0.04215943 -0.026654474 -0.013943716 0.051496185 0.029889878 0.050755695
-0.010327621 0.051974926 0.023757448 -0.005060537 -0.030227896 0.020979522 0.0478029 0.050529037
-0.052749407 0.024892006 -0.0104014 0.022671295 0.0343902 0.01599563 -0.014710402 0.046607748
0.04551995 0.031133639 0.04376195 -0.050592612 -0.023224212 -0.002011641 0.0008153589 -0.03194675
-0.003907568 -0.025393913 0.0059661395 -0.01079331 -0.056721143 -0.026508233 -0.056997627 0.03743254
0.053066283 -0.033755705 0.0021676968 -0.016057514 0.00020009217 -0.05470656 -0.056082107 0.00053267996
-0.030396266 -0.03537375 -0.0030077607 -0.04938153 -0.052482765 -0.017436145 -0.052514214 -0.04707211
0.050093252 -0.026406005 -0.048693877 0.04298402 -0.029556833 -0.03381051 -0.02430436 -0.033329174
-0.005347325 -0.036988735 0.037321232 0.017222958 0.03151569 0.018012973 0.009070606 -0.035968073
-0.001926996 0.0014550637 -0.01804695 0.057344783 0.029695643 -0.0031135774 -0.015150619 -0.01280875
0.04461381 0.021676581 -0.04837897 -0.05624051 -0.051999103 0.054997712 0.014592194 0.051466133
-0.026000384 -0.0014574872 -0.058134034 -0.011024864 -0.054248992 -0.009376493 0.028734913 0.011106664

conv3.0.bias f4 [64]
00000000: 8829 1b3d d363 1ebd 21d2 23bd a01b 223a
00000010: 34b7 b73c d53c 313d 26b6 82bc c42b adbb
00000020: dc17 5c3c 315b d2bb 1a12 bbbb c8f3 0e3c
00000030: 7865 5e3c 6807 1ebc ad76 d7bc 384c 233d
00000040: 04dc 60bd e19c 03bd 196d 48bd fd9b 5e3d
00000050: 6044 50bd 1969 3a3d bd74 1f3d de0b 093d
00000060: 54b5 3fbd 2a31 efbc 9206 34bd f073 363d
00000070: c389 27bd 97b7 08bd 5fd8 eabc 26a6 1d3d
00000080: 3d2f f0bb 6a61 0c3d 75a8 5ab9 9f20 543d
00000090: 0ff3 003d aa6d 44bd 52d0 d9bc 28d8 063d
000000a0: 195d 483d 7226 1f3d b974 623d cd8a 633d
000000b0: 9a01 4cbd a253 05bc eb03 5e3c c193 c8bc
000000c0: 9241 1a3d 0616 693d b4ff ea3b 896c 52bd
000000d0: 7108 6a3d b9a5 243d 2dd8 7d3b 667a ffbc
000000e0: 8339 6abd 16be d3bc e363 e3bc c03e cdb9
000000f0: ee5d c33c 5ab8 25bd 1c04 11bc 9df9 80bc
0.037881404 -0.03866942 -0.039995316 0.0006183926 0.022426225 0.043270905 -0.015955996 -0.0052847583
0.013433423 -0.0064195623 -0.005708945 0.008725114 0.013573997 -0.0096453205 -0.026301706 0.03986761
-0.054897323 -0.032132033 -0.04893217 0.05434798 -0.050846457 0.045510385 0.03892969 0.033458583
-0.046803787 -0.029198248 -0.04395158 0.04454416 -0.040902864 -0.03337821 -0.028667627 0.03848853
-0.00732985 0.03427259 -0.00020852855 0.051788922 0.0314818 -0.047956146 -0.026588593 0.032920986
0.04891691 0.038855024 0.055287097 0.055552293 -0.049806215 -0.008137615 0.013550739 -0.024484517
0.03766019 0.05690577 0.0071715955 -0.05137304 0.057136957 0.040197108 0.0038733587 -0.031186294
-0.057183754 -0.025847476 -0.02775759 -0.000391474 0.0238485 -0.040459014 -0.008851077 -0.015744025

conv3.2.weight f4 [64]
00000000: 0000 803f 0000 803f 0000 803f 0000 803f
00000010: 0000 803f 0000 803f 0000 803f 0000 803f
00000020: 0000 803f 0000 803f 0000 803f 0000 803f
00000030: 0000 803f 0000 803f 0000 803f 0000 803f
00000040: 0000 803f 0000 803f 0000 803f 0000 803f
00000050: 0000 803f 0000 803f 0000 803f 0000 803f
00000060: 0000 803f 0000 803f 0000 803f 0000 803f
00000070: 0000 803f 0000 803f 0000 803f 0000 803f
00000080: 0000 803f 0000 803f 0000 803f 0000 803f
00000090: 0000 803f 0000 803f 0000 803f 0000 803f
000000a0: 0000 803f 0000 803f 0000 803f 0000 803f
000000b0: 0000 803f 0000 803f 0000 803f 0000 803f
000000c0: 0000 803f 0000 803f 0000 803f 0000 803f
000000d0: 0000 803f 0000 803f 0000 803f 0000 803f
000000e0: 0000 803f 0000 803f 0000 803f 0000 803f
000000f0: 0000 803f 0000 803f 0000 803f 0000 803f
1.0 1.0 1.0 1.0 1.0 1.0 1.0 1.0
1.0 1.0 1.0 1.0 1.0 1.0 1.0 1.0
1.0 1.0 1.0 1.0 1.0 1.0 1.0 1.0
1.0 1.0 1.0 1.0 1.0 1.0 1.0 1.0
1.0 1.0 1.0 1.0 1.0 1.0 1.0 1.0
1.0 1.0 1.0 1.0 1.0 1.0 1.0 1.0
1.0 1.0 1.0 1.0 1.0 1.0 1.0 1.0
1.0 1.0 1.0 1.0 1.0 1.0 1.0 1.0

conv3.2.bias f4 [64]
00000000: 0000 0000 0000 0000 0000 0000 0000 0000
00000010: 0000 0000 0000 0000 0000 0000 0000 0000
00000020: 0000 0000 0000 0000 0000 0000 0000 0000
00000030: 0000 0000 0000 0000 0000 0000 0000 0000
00000040: 0000 0000 0000 0000 0000 0000 0000 0000
00000050: 0000 0000 0000 0000 0000 0000 0000 0000
00000060: 0000 0000 0000 0000 0000 0000 0000 0000
00000070: 0000 0000 0000 0000 0000 0000 0000 0000
00000080: 0000 0000 0000 0000 0000 0000 0000 0000
00000090: 0000 0000 0000 0000 0000 0000 0000 0000
000000a0: 0000 0000 0000 0000 0000 0000 0000 0000
000000b0: 0000 0000 0000 0000 0000 0000 0000 0000
000000c0: 0000 0000 0000 0000 0000 0000 0000 0000
000000d0: 0000 0000 0000 0000 0000 0000 0000 0000
000000e0: 0000 0000 0000 0000 0000 0000 0000 0000
000000f0: 0000 0000 0000 0000 0000 0000 0000 0000
0.0 0.0 0.0 0.0 0.0 0.0 0.0 0.0
0.0 0.0 0.0 0.0 0.0 0.0 0.0 0.0
0.0 0.0 0.0 0.0 0.0 0.0 0.0 0.0
0.0 0.0 0.0 0.0 0.0 0.0 0.0 0.0
0.0 0.0 0.0 0.0 0.0 0.0 0.0 0.0
0.0 0.0 0.0 0.0 0.0 0.0 0.0 0.0
0.0 0.0 0.0 0.0 0.0 0.0 0.0 0.0
0.0 0.0 0.0 0.0 0.0 0.0 0.0 0.0

conv3.2.running_mean f4 [64]
00000000: 0000 0000 0000 0000 0000 0000 0000 0000
00000010: 0000 0000 0000 0000 0000 0000 0000 0000
00000020: 0000 0000 0000 0000 0000 0000 0000 0000
00000030: 0000 0000 0000 0000 0000 0000 0000 0000
00000040: 0000 0000 0000 0000 0000 0000 0000 0000
00000050: 0000 0000 0000 0000 0000 0000 0000 0000
00000060: 0000 0000 0000 0000 0000 0000 0000 0000
00000070: 0000 0000 0000 0000 0000 0000 0000 0000
00000080: 0000 0000 0000 0000 0000 0000 0000 0000
00000090: 0000 0000 0000 0000 0000 0000 0000 0000
000000a0: 0000 0000 0000 0000 0000 0000 0000 0000
000000b0: 0000 0000 0000 0000 0000 0000 0000 0000
000000c0: 0000 0000 0000 0000 0000 0000 0000 0000
000000d0: 0000 0000 0000 0000 0000 0000 0000 0000
000000e0: 0000 0000 0000 0000 0000 0000 0000 0000
000000f0: 0000 0000 0000 0000 0000 0000 0000 0000
0.0 0.0 0.0 0.0 0.0 0.0 0.0 0.0
0.0 0.0 0.0 0.0 0.0 0.0 0.0 0.0
0.0 0.0 0.0 0.0 0.0 0.0 0.0 0.0
0.0 0.0 0.0 0.0 0.0 0.0 0.0 0.0
0.0 0.0 0.0 0.0 0.0 0.0 0.0 0.0
0.0 0.0 0.0 0.0 0.0 0.0 0.0 0.0
0.0 0.0 0.0 0.0 0.0 0.0 0.0 0.0
0.0 0.0 0.0 0.0 0.0 0.0 0.0 0.0

conv3.2.running_var f4 [64]
00000000: 0000 803f 0000 803f 0000 803f 0000 803f
00000010: 0000 803f 0000 803f 0000 803f 0000 803f
00000020: 0000 803f 0000 803f 0000 803f 0000 803f
00000030: 0000 803f 0000 803f 0000 803f 0000 803f
00000040: 0000 803f 0000 803f 0000 803f 0000 803f
00000050: 0000 803f 0000 803f 0000 803f 0000 803f
00000060: 0000 803f 0000 803f 0000 803f 0000 803f
00000070: 0000 803f 0000 803f 0000 803f 0000 803f
00000080: 0000 803f 0000 803f 0000 803f 0000 803f
00000090: 0000 803f 0000 803f 0000 803f 0000 803f
000000a0: 0000 803f 0000 803f 0000 803f 0000 803f
000000b0: 0000 803f 0000 803f 0000 803f 0000 803f
000000c0: 0000 803f 0000 803f 0000 803f 0000 803f
000000d0: 0000 803f 0000 803f 0000 803f 0000 803f
000000e0: 0000 803f 0000 803f 0000 803f 0000 803f
000000f0: 0000 803f 0000 803f 0000 803f 0000 803f
1.0 1.0 1.0 1.0 1.0 1.0 1.0 1.0
1.0 1.0 1.0 1.0 1.0 1.0 1.0 1.0
1.0 1.0 1.0 1.0 1.0 1.0 1.0 1.0
1.0 1.0 1.0 1.0 1.0 1.0 1.0 1.0
1.0 1.0 1.0 1.0 1.0 1.0 1.0 1.0
1.0 1.0 1.0 1.0 1.0 1.0 1.0 1.0
1.0 1.0 1.0 1.0 1.0 1.0 1.0 1.0
1.0 1.0 1.0 1.0 1.0 1.0 1.0 1.0

ln1.weight f4 [16, 2304]
00000000: 9020 8fbb e6e7 8bbc a603 88bb 4e3b a93c
00000010: 2751 aa3c 9653 c53a 10eb 00bc b8e0 443c
00000020: fb29 513c 6b83 3a3c 923f 9fbc 1643 aa3c
00000030: 16d8 5ebb c681 b4bb aaf2 933c f3da 333c
00000040: e3f9 99bc 2b6a 103c 2619 84bb d080 883b
00000050: ab03 76bc 5c3d a4bc 7aa7 8abc 20f5 153c
00000060: 9e78 1c3c 2ec1 22bc ba42 9b3c abe9 ccba
00000070: 666e cfbb bbd8 e53b 30c5 dd3b 341e 9f3c
00000080: 9653 df3a 98c4 8c3c 12b9 97bc 5663 70b9
00000090: 48d1 a8bc a7f3 9abc c642 7ebc c6e0 a2bc
000000a0: eef2 a53c d6ea b5bb e001 1e3b bbb8 a4bc
000000b0: c698 663c ae53 213c 0b2b 3bbc 2b50 c73b
000000c0: a36a 51bc 56ed 4fb9 60b6 68bc 0c4b 803c
000000d0: 5046 32bc c060 eeba f2a6 983c 9cb7 883c
000000e0: fe9d 52bc 021f a9bc 9388 5cbc e06a 4cbb
000000f0: 648b a0bc 07d3 8ebc 8ea1 6c3c d698 e53a
00000100: f295 9abc 76fd 0c3b d65d 7d3b dbb6 8a3c
00000110: d39d 47bc 36ba 063b 2ed3 99bc 6622 643c
00000120: f66e 513b b691 4e3c 56a3 c5bb 06b1 56bc
00000130: 4bdc a7bb 2b5d 40bc b0fd 1cbc 5828 0d3c
00000140: 2051 dbbb 1ba9 8bbb 2ec7 4cbc 8b83 7ebc
00000150: 9660 85bc 2b66 e6bb 3e74 8d3c cb5e 85bb
00000160: 800e 35bb c02a a03c 207f db3b 403e 82bb
00000170: ab8f 503b db90 27bc f8c0 263c 1693 a13b
00000180: e730 aa3c d691 69bc 1bf3 873b e07b 293c
00000190: eba5 b03a 2bd5 fc3b 9e26 9abc eb25 79bb
000001a0: e6c9 c03b 3007 f93b 26a5 0d3c fb6c 6f3c
000001b0: c02e a2bb d625 853a 984d 933c d6f4 123a
000001c0: c86b 853c ff67 9dbc a8a8 383c 76ed 20bc
000001d0: aba6 95bb d63f 6c3a b8eb 18bc 9602 9d3a
000001e0: 2e25 16bc 506d bc3b a07f d73b 938e 9bbc
000001f0: 3b9a a1bb 4e75 3cbc 0e86 6e3c bb1a 6ebc
00000200: ff70 923c f0c7 9ebb 568c 893b 3e58 373c
00000210: 1627 5c3b f894 9b3c ee3a 42bc 0e0d 30bc
00000220: d0f9 25bc 80d8 50bc 33f0 a23c 1096 d03b
00000230: 0300 883c bbf0 27bc bba6 86bc 2b0a 4cbc
00000240: 3bfd 983c a3da a43c 6b8c 1b3b b84a 9fbc
00000250: 7283 97bc 16d9 91bc 9b2f fdbb d69d ba3b
00000260: ab16 68ba 124f 9abc ab70 ddb9 c33b 2bbc
00000270: 0bb6 b2bb b06c 863c 0364 a33c d308 92bc
00000280: 80d2 e3ba 20a1 e3bb 80da 0f3a 935e 5fbc
00000290: c69e e13b cbb3 893c 7b5b 71bc b421 8b3c
000002a0: 1684 ccbb 60ef 8ebb a749 99bc e07f d53b
000002b0: 6f27 a73c cb68 2f3c 706c ca3b d638 fdbb
000002c0: 4e41 87bc d6b3 15bc 6f5d 95bc 661a d83b
000002d0: 006e cdbb f0d6 95bc 9664 77bb d085 30bc
000002e0: eb33 f03a f643 d93b 56e5 94b7 d05b 57bc
000002f0: 9b23 7e3c 4b4b aebb 5665 8a39 46aa 0f3c
00000300: 6bfa 1abc 1b33 57bc 0319 17bc ab38 f5ba
00000310: 0063 8eb9 b3d6 80bc 4403 a53c 0044 ca39
00000320: d668 923b bf81 a8bc 5647 3fbb fb88 a4bc
00000330: de93 703c d33f 083c a0f9 5bbb 7b56 8dbc
00000340: 6bf8 a13b 32ee 973c 802e 4b3c 7401 9c3c
00000350: 9efe 543c 68fd 3bbc 50b0 a53b 2b23 a73c
00000360: 6b22 413c a3ad 68bc abd2 e439 f095 a43b
00000370: 3e13 823c 66bc 9cbc 3b93 40bc a0fe 243b
00000380: bef8 9f3c 065d 92bb b0ec 87bc 86ae 07bc
00000390: 96d8 7dbc 6b6b 373b 9bec ad3b 2673 79bc
000003a0: 1602 673c caee a23c 06a0 86bb 48d4 0e3c
000003b0: abb2 f8ba 6b1e ba3a a8d4 90bc 2bc9 1e3c
000003c0: 5cb2 97bc b6cf 9a3b bb07 743c 4ec7 95bc
000003d0: 4697 df3b 6b7b aabc db6b a9bc 0620 f33b
000003e0: 02d4 a23c 4be2 c2bb 6eae 43bc 1b0a 153c
000003f0: bba4 f43b 8053 6b3b 0687 7ebc 3ba2 b73b
-0.0043678954 -0.017078351 -0.0041508256 0.020658161 0.02079065 0.0015054818 -0.007868543 0.012016468
0.012766357 0.011383872 -0.019439492 0.020783942 -0.003400331 -0.0055086343 0.018060047 0.0109774945
-0.018795913 0.008814375 -0.0040313182 0.0041657463 -0.015015523 -0.02004879 -0.016925562 0.009152681
0.009550242 -0.009933753 0.018952716 -0.0015633603 -0.006330299 0.0070143617 0.0067678913 0.019423582
0.001703846 0.017183587 -0.018520866 -0.00022925189 -0.020607606 -0.01891501 -0.01551885 -0.019882571
0.02025744 -0.0055516763 0.0024110004 -0.020107618 0.01407451 0.009846611 -0.011423836 0.006082555
-0.012781772 -0.00019829473 -0.014203638 0.015660785 -0.010881022 -0.0018186793 0.018634293 0.016689114
-0.012855051 -0.020644668 -0.013460296 -0.0031191632 -0.019597717 -0.01743461 0.0144428145 0.0017516862
-0.018870328 0.002151338 0.0038660667 0.016932895 -0.012183624 0.0020557768 -0.018777456 0.013924217
0.0031957007 0.012607982 -0.006031434 -0.013103729 -0.0051226965 -0.011740963 -0.009581968 0.008615576
-0.0066930205 -0.0042621023 -0.01249866 -0.015534292 -0.016281407 -0.0070312223 0.017267343 -0.004070138
-0.002762705 0.019551635 0.006698504 -0.003974706 0.0031823914 -0.010227407 0.010177843 0.004930864
0.020775272 -0.014255961 0.0041488535 0.0103444755 0.0013477182 0.0077158413 -0.018817242 -0.0038016986
0.005883443 0.007599734 0.0086453315 0.014613385 -0.0049494207 0.0010158371 0.017981336 0.00056059414
0.016286746 -0.019214628 0.0112706795 -0.00982224 -0.0045669875 0.0009012198 -0.0093335435 0.001197892
-0.009164138 0.0057503358 0.0065764934 -0.018988883 -0.004931716 -0.011502577 0.014558328 -0.01453274
0.017876146 -0.0048456118 0.0041976376 0.011190472 0.0033592633 0.018991932 -0.01185487 -0.0107453
-0.010130361 -0.01274693 0.019889927 0.006365545 0.016601568 -0.010250266 -0.016436925 -0.012453596
0.018675437 0.020123785 0.0023734819 -0.019444808 -0.018495295 -0.01780371 -0.0077266223 0.005695085
-0.00088534754 -0.018836532 -0.0004223635 -0.01045126 -0.00545383 0.016409248 0.01994515 -0.017826473
-0.001738146 -0.006946698 0.0005487576 -0.013633388 0.0068853823 0.016809365 -0.014731283 0.016983844
-0.006241332 -0.004362032 -0.018711878 0.006515488 0.020404546 0.010706137 0.0061774775 -0.0077277226
-0.016510632 -0.0091371145 -0.01823303 0.006594944 -0.0062692165 -0.018290967 -0.0037749163 -0.010774091
0.001832602 0.006630416 -1.7749768e-05 -0.013144448 0.015511419 -0.005319034 0.00026396912 0.008768624
-0.009459118 -0.013134743 -0.009222272 -0.0018708905 -0.0002715811 -0.015727377 0.020143159 0.00038579106
0.004468064 -0.02056968 -0.0029186807 -0.020084849 0.014683692 0.008315998 -0.0033565536 -0.017253151
0.004942944 0.018546198 0.012401223 0.019043662 0.013000159 -0.011473991 0.0050564185 0.020402512
0.011787991 -0.0142015545 0.0004364451 0.0050227568 0.015878316 -0.019132804 -0.0117538525 0.0025176182
0.01952779 -0.0044666557 -0.016592354 -0.008281356 -0.015493533 0.002798761 0.0053077466 -0.015225207
0.014099618 0.019889254 -0.0041084317 0.008717604 -0.0018974146 0.0014199739 -0.017679527 0.009691517
-0.018517666 0.004724468 0.014894421 -0.018283512 0.006823453 -0.020810803 -0.020681312 0.007419589
0.019876484 -0.0059473864 -0.011943443 0.009096648 0.0074659265 0.0035907924 -0.015535122 0.005604056

ln1.bias f4 [16]
00000000: 467a 55bc e065 96bb db00 ae3b f385 553c
00000010: 56df 56ba 6ea8 9c3c 267b 453c 6c04 94bc
00000020: cafe 99bc b6b9 67bb 76f5 0b3c 7b74 2c3c
00000030: 36ad 2ebb 7677 14bc ab93 573a db3b 273c
-0.013029641 -0.004589781 0.0053101606 0.013032424 -0.0008196732 0.019123282 0.012053287 -0.018068515
-0.01879825 -0.0035358495 0.008542409 0.010525818 -0.0026653535 -0.009061685 0.00082236034 0.010207142

batchnorm.weight f4 [16]
00000000: 0000 803f 0000 803f 0000 803f 0000 803f
00000010: 0000 803f 0000 803f 0000 803f 0000 803f
00000020: 0000 803f 0000 803f 0000 803f 0000 803f
00000030: 0000 803f 0000 803f 0000 803f 0000 803f
1.0 1.0 1.0 1.0 1.0 1.0 1.0 1.0
1.0 1.0 1.0 1.0 1.0 1.0 1.0 1.0

batchnorm.bias f4 [16]
00000000: 0000 0000 0000 0000 0000 0000 0000 0000
00000010: 0000 0000 0000 0000 0000 0000 0000 0000
00000020: 0000 0000 0000 0000 0000 0000 0000 0000
00000030: 0000 0000 0000 0000 0000 0000 0000 0000
0.0 0.0 0.0 0.0 0.0 0.0 0.0 0.0
0.0 0.0 0.0 0.0 0.0 0.0 0.0 0.0

batchnorm.running_mean f4 [16]
00000000: 0000 0000 0000 0000 0000 0000 0000 0000
00000010: 0000 0000 0000 0000 0000 0000 0000 0000
00000020: 0000 0000 0000 0000 0000 0000 0000 0000
00000030: 0000 0000 0000 0000 0000 0000 0000 0000
0.0 0.0 0.0 0.0 0.0 0.0 0.0 0.0
0.0 0.0 0.0 0.0 0.0 0.0 0.0 0.0

batchnorm.running_var f4 [16]
00000000: 0000 803f 0000 803f 0000 803f 0000 803f
00000010: 0000 803f 0000 803f 0000 803f 0000 803f
00000020: 0000 803f 0000 803f 0000 803f 0000 803f
00000030: 0000 803f 0000 803f 0000 803f 0000 803f
1.0 1.0 1.0 1.0 1.0 1.0 1.0 1.0
1.0 1.0 1.0 1.0 1.0 1.0 1.0 1.0

ln2.weight f4 [5, 16]
00000000: 1cdb 16be c03b 053c b449 2ebe 60a9 863d
00000010: f861 553d 7c3c 1ebe 0c42 8bbd f067 963c
00000020: 1c70 b3bd 80bf 723b 0871 393e 349e dd3d
00000030: 0024 1a3a 5cc2 48be b89e 463e 7839 edbd
00000040: cc4c fcbd 608c b03c 7cfd 2c3e f020 1d3e
00000050: b4e8 283e bcbb d13d 4e0a 133e b431 5fbe
00000060: 264d 7d3e 80fe 1e3e 9cc3 c6bd 009b a9bc
00000070: 5433 9b3d ee09 673e 78a6 7dbd 6cdb 7c3e
00000080: d2a6 413e 0050 603a fa11 603e 481f 803d
00000090: 40bf aabc fec5 593e c030 3fbc 8490 b5bd
000000a0: b8ba bebd 922b 7fbe c082 91bd 3454 683e
000000b0: f86d b6bd b4be a53d 009e 03bd bc6f 9e3d
000000c0: 88df db3d 14e7 d1bd 105e 89bc 30d5 aebd
000000d0: b4f7 cfbd d860 253e 8200 223e 508f 883c
000000e0: faff 0dbe b2e5 643e e098 62be 98c0 ab3d
000000f0: 9818 ad3d 6ea2 05be 98d3 7abe 840d 4b3e
00000100: 5a56 3c3e 109c 073e b0d4 08bd 8878 e6bd
00000110: 00a4 323a 1826 8cbd aecb 753e 4e89 333e
00000120: a410 cabd 1456 3c3e b8a1 e3bd 80fc 4dbe
00000130: e4b6 84bd 327b 4a3e c2c2 4cbe ac92 babd
-0.14732021 0.008131921 -0.17020303 0.065752745 0.052095383 -0.1545276 -0.06799707 0.018360108
-0.087616175 0.0037040412 0.18109524 0.108211905 0.0005879998 -0.19605392 0.19396484 -0.11583227
-0.12319335 0.021551311 0.16893572 0.15344596 0.16495019 0.102408856 0.143594 -0.21796304
0.24736461 0.15526772 -0.09705278 -0.020703793 0.075781494 0.22562382 -0.061926335 0.24693078
0.18911293 0.0008556843 0.21881858 0.062559664 -0.020843148 0.21266934 -0.011669338 -0.08865455
-0.093129575 -0.24918965 -0.07105017 0.22688371 -0.089076936 0.08093014 -0.032133102 0.077361554
0.107359946 -0.10249153 -0.016768485 -0.08536756 -0.101546675 0.16150224 0.15820506 0.0166699
-0.13867179 0.22353247 -0.2212863 0.08386344 0.084519565 -0.13050243 -0.24494779 0.19829375
0.18392316 0.13243127 -0.03340596 -0.11253458 0.0006814599 -0.06843203 0.24003479 0.17532846
-0.09866455 0.18392211 -0.1111483 -0.20115852 -0.06480196 0.19773558 -0.19996169 -0.09110007

ln2.bias f4 [5]
00000000: 40fb 8bbc d083 54be e005 543e ba91 433e
00000010: 0066 47be
-0.017087579 -0.20753407 0.20705366 0.19098559 -0.19472504

ln4.weight f4 [10, 49]
00000000: 8549 aebd ae4e 08bd f7a9 873d 2e72 8d3c
00000010: d2eb 0ebe 5ced 97bc fd8c 093e 4027 093d
00000020: 756e a0bd 253b fabb a7b1 ab3d dc18 dcbb
00000030: 1701 8d3d 1c46 35bd 71b6 d0bd 5cd0 1a3c
00000040: 7b47 06be ea1c f33d cace a8bd 755d b2bd
00000050: caed 953c 012a 6ebb 0548 113e c3a0 d8bd
00000060: 1cb7 963c 8b8f 0c3e 214d bfbd b7ea 0e3c
00000070: b713 8bbc 0af9 a6bc e753 b1bd c54f 473d
00000080: b69d 073e 4181 48bd 8a51 16bd 653d 40bd
00000090: b39d 68bd aed0 f33d 955e acbd 65bc a8bd
000000a0: 3ea8 f73d 93ac 3fba d3de c4bc 81cd c2bc
000000b0: 58a8 74bd 6ee2 053c 2eeb e63c b7de 08bc
000000c0: ce32 a2bd 019d 373c 218e dbbd b230 013e
000000d0: f70e 9fbd 8a54 a93c 85d1 b33d ccbd 94bd
000000e0: f584 a7bd 0519 39bd b55f cd3d 6edf 04bc
000000f0: 27b2 a63d 5f01 05be daa6 d83d 8c39 8cbd
00000100: 0000 a53d 133f 8d3c 70f6 07be 4e3a 08bd
00000110: e365 913d 388b 7c3d f7b6 0c3e 93c4 993a
00000120: e03c 0cbe 5ed5 983d 6e6b 1a3b caa8 37bd
00000130: b189 dbbd aa84 4c3d 271f 00be aa1a f4bd
00000140: ac86 013e fc31 2a3d 8e46 00be 25e7 83bd
00000150: baad d1bd 93bb c9bc 1e7e 0d3e 5c97 523c
00000160: 7a33 a73d 6ef0 c23c 3746 993c 9cf8 81bd
00000170: dc49 cfbb 18e4 613d d767 3b3d 1897 65bd
00000180: dc87 74bc 95d3 c2bd 5584 f03d dc50 5a3c
00000190: bed6 eb3d 8ab6 27bd 3054 9bbd 9321 e03c
000001a0: 6e2d 313b e0bf 12bd dcda 43bb f7e5 97bc
000001b0: de61 d53d 6e8a efbc c652 003e 77fa 2bbd
000001c0: a501 08be 3322 8dbd e546 e23d 93d6 abbc
000001d0: a5a7 8c3d ebe8 01be d377 e2bd caf3 80bd
000001e0: b7cd 133c 3764 8dbc 6a87 473d 40c9 033d
000001f0: 577c 4f3d 7655 023e 9348 b5bd 4531 e53d
00000200: d14a d43d c577 f83d 9384 09ba 9c2a 8c3c
00000210: 9c4c dfbc 819b c83c 3a91 8b3d 5c39 3ebc
00000220: 559d f9bd 2533 eb3b 734e 02be 27c3 bebd
00000230: c57a 6bbd 5d01 0d3e dc38 93bb 2c9f e5bd
00000240: 6587 4b3d 932c 93bc 6e59 b7bc 93e9 e03b
00000250: dc48 63bc d309 6cbd 83a5 bf3d 0301 873d
00000260: 7a43 c33d de6f a13d 538c ff3c ecd8 0e3e
00000270: 93ac bb3b 481c e83d dc5d 803d 0720 99bd
00000280: 0c1e c33d ba2c 12be 41a1 e83c da4b d53d
00000290: 4aee b2bc ca25 bd3d 8c2d 9b3d a513 f1bd
000002a0: e162 65bd 37db 43bd 9789 4ebd 615f d6bd
000002b0: 9737 4f3d e53c 6c3d 874c cabd 8eb1 1ebd
000002c0: ae48 a3bc b632 063e 458f 233d 6e0f 90ba
000002d0: 3809 f43d 1d96 01be 7e32 96bd 9c19 c13d
000002e0: 9ec2 d3bd 0016 0b3c 9c09 d23d e5b5 d1bd
000002f0: 7760 ba3c 0ab8 af3c d36c b6bd 4abe bfba
00000300: 2e66 9e3c 5c46 2c3d 4c55 ffbd 6119 6bbd
00000310: 4c49 a53d 85c8 053e f61c 00be 9872 033e
00000320: 1835 653d 855a acbd d02e a5bd bca4 2abd
00000330: 6e9b a53d 6567 e43c 001b 0bbd 6c34 873d
00000340: 7a14 a13d 21b5 e5bd f19c c33d 0aa2 16bd
00000350: 936e 9f3c fe9b f23d 8efa 0cbe 3a5c a63d
00000360: ee9d a63c 5803 f4bd 6ef0 ae3d 8aa2 61bd
00000370: 2e90 66bd 4342 b3bd 3c01 7b3d 51fa b1bd
00000380: 55fe 8cbd 0192 5e3c 78e8 ddbc 5c3e 7abc
00000390: 2c6c a4bd c0d2 81bd 1300 2bbd a574 69bc
000003a0: be57 e5bd 4a4f 5b3c 858b 67bd 4540 2fbd
000003b0: e5bd 333d da3e aa3d 9799 ad3d dc85 c3bd
000003c0: 1c0c 57bd aa3e 31bd 58f1 793d 2eeb c0bd
000003d0: 5da2 09be 5c7a 7c3d a617 03be 7888 ec3c
000003e0: dc68 e3bb aa10 0d3e fe71 833d 52ac 0fbe
000003f0: 85ff 363d 3a8e ccbd 7c62 af3d 6588 0f3d
-0.085101165 -0.03327816 0.06624215 0.01726636 -0.13957146 -0.018545799 0.13432689 0.033484697
-0.07833568 -0.007636445 0.08383494 -0.0067168307 0.068849735 -0.044256315 -0.10191048 0.009449091
-0.13113205 0.11870749 -0.08242567 -0.08709232 0.018301863 -0.0036340954 0.1418763 -0.10577538
0.01839786 0.13726632 -0.09340883 0.008722953 -0.016977174 -0.020382423 -0.08658581 0.04866006
0.13243756 -0.04895139 -0.036698855 -0.04693355 -0.05679102 0.11905037 -0.084164776 -0.082390584
0.120926365 -0.00073117873 -0.024032032 -0.023779633 -0.059730858 0.008171661 0.028188314 -0.008353881
-0.079198465 0.011206866 -0.10720468 0.12616232 -0.07766526 0.020670194 0.08780197 -0.072627634
-0.081796564 -0.045189876 0.1002802 -0.00810991 0.081394486 -0.12988804 0.105786994 -0.06846914
0.080566406 0.01724199 -0.13277602 -0.03325873 0.070995115 0.061656207 0.1374167 0.0011731557
-0.13695097 0.074625716 0.0023562568 -0.044838704 -0.10719622 0.049931206 -0.12511884 -0.11919148
0.1264903 0.041551575 -0.12526914 -0.06440572 -0.10238214 -0.024625575 0.13817641 0.01285347
0.08164115 0.023796286 0.018710239 -0.063462466 -0.0063259434 0.055149168 0.045753326 -0.056052297
-0.0149249695 -0.09513012 0.1174399 0.013324942 0.11515568 -0.040945567 -0.07584417 0.02735976
0.0027035135 -0.035827518 -0.002988509 -0.018542273 0.10419057 -0.029240813 0.12531576 -0.04198691
-0.13281877 -0.068912886 0.11048678 -0.02097634 0.06867913 -0.12686507 -0.11058011 -0.06296499
0.009021214 -0.0172597 0.048713125 0.03217435 0.05065569 0.12727913 -0.08851733 0.11191038
0.103658326 0.12132219 -0.00052458904 0.017110161 -0.02725821 0.024488213 0.06814809 -0.011610355
-0.12188212 0.0071777278 -0.12725239 -0.09314566 -0.05749013 0.13770051 -0.004492862 -0.11212
0.04968967 -0.01796559 -0.02238151 0.0068637817 -0.0138723515 -0.057626557 0.09357741 0.0659199
0.095343545 0.07882665 0.031194841 0.13949937 0.0057273596 0.11333519 0.06267902 -0.07476812
0.09527215 -0.14274874 0.028397204 0.10414858 -0.02184214 0.09235723 0.07577047 -0.11771325
-0.0560025 -0.04781648 -0.050424185 -0.10467411 0.050590124 0.05767526 -0.09877878 -0.038743548
-0.019932117 0.13105282 0.039931554 -0.0010990927 0.11915821 -0.1265492 -0.07333849 0.09428713
-0.10339855 0.008489132 0.10255739 -0.10239772 0.022751076 0.021450061 -0.08907475 -0.0014628854
0.019335832 0.042059287 -0.12467441 -0.05739725 0.08070621 0.13064773 -0.12511048 0.12836683
0.055958837 -0.08415703 -0.080655694 -0.04166101 0.080862865 0.027881334 -0.033961296 0.066017956
0.07865234 -0.11216188 0.095514186 -0.036775626 0.019461906 0.118461594 -0.13767454 0.081230596
0.020338979 -0.119147 0.08541952 -0.05508665 -0.056289844 -0.08752873 0.061280474 -0.08690322
-0.068844475 0.013584615 -0.027088389 -0.015273657 -0.08028445 -0.063390255 -0.041748118 -0.014249002
-0.11198376 0.013385603 -0.05652954 -0.0427859 0.04388227 0.08312769 0.084765606 -0.09547016
-0.052501783 -0.04327265 0.06102118 -0.09419857 -0.13440843 0.06164013 -0.1280199 0.028873667
-0.0069399904 0.13775888 0.06418227 -0.14030579 0.044677276 -0.09988065 0.08563706 0.035042185

ln4.bias f4 [10]
00000000: 105e 973d d7fd 53bd 2549 0bb9 cafe 303c
00000010: 2428 073e 8a2a fbbc 255c 61bc d7ee 06be
00000020: ee35 353d 1ece 07be
0.07390988 -0.051755752 -0.00013283321 0.010802934 0.13198906 -0.030659933 -0.013754879 -0.13177048
0.044240884 -0.13262221

ln5.weight f4 [10, 10]
00000000: 0b39 87be 4efd 903e ca3e a73d 147f 383e
00000010: ad5e 3a3e 6f6d 8bbe 7313 f53d 823c 6ebe
00000020: d82c 213d fe68 223e c8ca 333e 1792 43be
00000030: 33b2 283e c51e ee3d 1603 68bd 9cc2 f03d
00000040: b647 2abe 2d38 4f3e 0905 723e 3868 f83d
00000050: 8840 013e 3c5a e6bc 7228 cfbd 4bb7 17bd
00000060: 20c0 e1bc a66c 90be 8bcb 3ebe f1fb 9f3e
00000070: cfc3 5d3e de31 bb3d c2b9 97be 6bf5 5fbe
00000080: eb99 b03d b43f efbc bab1 1fbd 4821 d43d
00000090: 5e47 b1bd 4a8b 43be 7284 8b3d 9375 0abd
000000a0: a129 0dbe 88c7 04be 20ab 94be 6ff6 83be
000000b0: 195d 663e 7286 bcbd 4f68 933d 3065 403d
000000c0: d8b3 d63d 9a42 dabd 3d58 333e 6399 51be
000000d0: 888e 48be 7c47 1a3e 22ad 07be 77c8 d43d
000000e0: 41e0 633e 3d18 6cbe c307 30bd 30c0 7d3e
000000f0: ebf9 193e e937 2a3e a5a9 82be b325 933e
00000100: 06a2 42be caae 5f3e 0379 77be 3c3e 513e
00000110: 2f03 72bc 2cca 723d f8d2 5f3d 3d46 973d
00000120: e0c3 60be 5969 98be ea8c 3d3e 9079 c33d
00000130: bc84 2fbe 19fb 86bd 3400 ffbd 9665 8a3e
00000140: d470 8b3e 610e 093e c1dc 8fbc 9ecd 53be
00000150: dc4d 563e 3710 9ebe 08b7 833d 5a5f 95be
00000160: c6e6 71be 99e9 353e e060 1c3e d580 9cbd
00000170: 974b b6bd 3a0d 13be b0bb 1fbe 1073 89be
00000180: 596f 373c a0f4 8b3e 1739 5b3e ae8c 07be
-0.26410708 0.28318256 0.08166273 0.18017226 0.18200178 -0.2723193 0.119666 -0.2326527
0.039349407 0.15860364 0.17557824 -0.19098698 0.16474228 0.116269626 -0.056643568 0.11755869
-0.16628918 0.20236273 0.23634733 0.12129253 0.12622273 -0.028119199 -0.10115136 -0.037040036
-0.027557433 -0.28207892 -0.18632333 0.31246904 0.21656726 0.09140371 -0.2963391 -0.21870963
0.086231075 -0.02920518 -0.038987853 0.103579104 -0.0865619 -0.19096103 0.06812371 -0.033803534
-0.13785411 -0.1296674 -0.29036808 -0.2577395 0.22496451 -0.09205331 0.0719763 0.0469715
0.10483521 -0.106572345 0.17514129 -0.20468669 -0.19585621 0.15066332 -0.13249639 0.10389798
0.22253515 -0.23056121 -0.042976152 0.24780345 0.15036742 0.1662289 -0.25520054 0.287397
-0.1900712 0.2184402 -0.24167256 0.20433897 -0.014771267 0.059274837 0.054644555 0.07386444
-0.2194972 -0.29767874 0.18510786 0.095446706 -0.17140478 -0.06590862 -0.124512106 0.2703063
0.2723452 0.13384391 -0.017561318 -0.20683905 0.20928138 -0.30871746 0.06431395 -0.2917431
-0.2362319 0.17764892 0.1527133 -0.0764176 -0.08901136 -0.14360514 -0.15598941 -0.26845598
0.011195981 0.27335072 0.21408497 -0.13237259

ln5.bias f4 [10]
00000000: 725b 2f3e dea6 6ebe 24b1 8e3e c39e 45be
00000010: d25c a23d e63d 3c3e 9e9a cbbd d0ca 433d
00000020: 9e43 1b3e 8aa9 683e
0.17124727 -0.23305842 0.27869523 -0.19298844 0.0792786 0.18382987 -0.099416 0.04780084
0.15162513 0.22720924

ln6.weight f4 [5, 10]
00000000: c417 f63d 1abc a13e 8910 b3bd 8145 9ebe
00000010: 87b5 b3bd 4ff5 153e 022a 943e 079e a63d
00000020: d7a5 5e3c d4f7 c5bd 2418 0fbe 3bae 733e
00000030: e804 cf3d f849 9abe 9122 613d 8ef4 b6bd
00000040: 8d97 12be ded1 633e 3aae 553d c529 0c3e
00000050: e2a9 63bc 49ed 103e 0918 a1bd fe56 943e
00000060: 617c 70be e1d4 9f3e 7925 04be 7400 c43d
00000070: a7dd aabd 46ae a03b 70be 273e 183f 713e
00000080: 2de0 763d 431e 6a3e 103e aebd 5c99 4e3e
00000090: fe3c 2ebd a0fb 12be 6e91 f23d 9654 0d3e
000000a0: f38f 9f3d 9b5d 993e fb13 243d df94 0d3e
000000b0: 36c6 713e 9f66 62bd 98af 8ebe c592 68be
000000c0: 6ea8 6ebd 84bd c73d
0.12016252 0.31588823 -0.08743388 -0.30912402 -0.08774858 0.14644359 0.289383 0.0813561
0.013589344 -0.0966641 -0.13974053 0.23796932 0.10108358 -0.3013456 0.054964606 -0.08933364
-0.14315625 0.22248027 0.05216811 0.13687809 -0.013895484 0.14153017 -0.078659125 0.2897262
-0.23484947 0.312171 -0.1290492 0.09570399 -0.08343058 0.0049035875 0.1638124 0.23559225
0.060272384 0.22863106 -0.08507931 0.2017569 -0.042538635 -0.143538 0.11844145 0.13801798
0.07791128 0.29954228 0.040058117 0.13826321 0.23610768 -0.05527365 -0.27868342 -0.22712238
-0.058266096 0.09752944

ln6.bias f4 [5]
00000000: c97a 393e 35ef 46be a85a 863e 99cd 70be
00000010: fc9d 6bbe
0.18113245 -0.19427188 0.2624104 -0.2351593 -0.23009485

ln7.weight f4 [1, 10]
00000000: 7ab0 19be e680 9bbe 851a a0bc 5bfa 9abe
00000010: b83c 98bd a695 babd 9710 87be 8dc6 34be
00000020: 3fcc 48bd 4a62 993e
-0.15008727 -0.3037178 -0.019543895 -0.3026913 -0.07433456 -0.091105744 -0.26379845 -0.17653866
-0.04902291 0.299578
