DL_experiments/models_chp/model_1.pth (torch, 257715 bytes, 33 tensors)

conv1.0.weight f4 [16, 3, 3, 3]
00000000: 5701 1bbd 96c2 c93d 6f11 29be a80b 003c
00000010: 6e71 8d3d d22d 023e 6cb7 3d3e d4ca dc3c
00000020: 669d 1bbe 5de9 413e cf38 393c b1f7 16be
00000030: 3094 8e3d 11da da3d 32d4 c4bd a921 d03d
00000040: 6e89 173e 961a 0abe 11a5 f03d b773 02be
00000050: 607f e03c 90e2 fd3c 37f4 af3d 7c64 8b3d
00000060: 06f1 8d3d 434f 343e c41a 01be c1b8 cbbd
00000070: 5ccb eabd 0edf 183d 2b6b 23be 48a9 3e3b
00000080: bb4e 14bd 5cec afbd 09e1 54bd 6af3 b33d
00000090: 38c0 a0bd a6da 88bd 8aa9 09be 46c9 4cbe
000000a0: 5f7c 40be 48a8 25be 0666 173e 176c f13d
000000b0: 6794 8e3d 00ff c13d 1432 063e e5cc 19bd
000000c0: 393b 9d3d 0542 a93d 79fa 833d 30f0 2ebe
000000d0: 410e 52be 683f ebbd c0aa 60be 474f 0a3e
000000e0: bbef 42bd 0e9e 82bb 861b 823d 02f8 2ebe
000000f0: 3d6a aabc 326f 4dbe 6d7f 5abe 8f31 6c3d
00000100: cedb 7dbe 8078 033e 6e26 b13d 0243 57bc
00000110: 9499 27be 6c27 1abe cbf8 11bc c23e 2c3d
00000120: 6b68 39be 52c0 a5bd 1ba8 0dbe 6cbb b73b
00000130: d8fc 913d c7ac 31be 69eb b83d 1d48 fa3d
00000140: 6b68 68bc 6ed3 443d 4c5a 253e 9289 a73d
00000150: 5ce5 d03d 78cc 1fbe e379 433e 6ef3 84bb
00000160: 8f22 d0bc e1b9 2a3e b6cb 9bbd 6d76 593d
00000170: 2a81 383d 7ea8 9cbd 145b 193e f9f5 57bb
00000180: 485b f73d a9b3 ad3d b506 3b3e 6064 12be
00000190: 62aa 0fbe 4558 9b3b 4015 543e bb2a fc3d
000001a0: 5c61 233e 850e 04be 9f19 b43d 90c2 143d
000001b0: 6ec8 063e a8f6 22bd 48ba 383e 0922 f23d
000001c0: 8ad7 d63c 0055 2a3e f84c 4a3e e148 febd
000001d0: e96e f0bd 3769 003e 7ce5 5f3d d0f0 06be
000001e0: ce02 c43d 1a4b c9bd db1c 0d3d 2750 1d3d
000001f0: 6a29 1d3e 34ad d3bd 74e7 113d ee09 ec3d
00000200: 8abd 593d 1c1e c83c d692 2cbe f3e4 36bc
00000210: e6a2 163e 9eb2 b73d 5639 a9bd 0dba b63d
00000220: e063 ff3c 5943 ee3d fdc4 b23d 5342 133e
00000230: 179e 843e 69a3 4f3e 22f5 6d3d 63fb 083b
00000240: 6b74 0dbe f08e d13c ef0d 1ebe 2653 1a3e
00000250: 735f 153e 0f9d f0bd 2fcd 2e3e f351 41bd
00000260: 7c10 cebd 8ad2 ad3d bdd2 0d3e 3e24 313e
00000270: b171 13be 773f 4bbc 4550 1c3d 62a5 fbbd
00000280: 39d1 aabd a4ef bd3d 26bb 03be 0d78 25bc
00000290: 77ab aabd b1ff 68bc 4a71 c53d 59aa d33c
000002a0: 2970 2b3d 902d f33d af55 40be 825a 2abe
000002b0: 016a 333d a184 df3b 4777 003e 1a6a 6cbe
000002c0: 6d38 d8bd f2c6 fbbd 6189 01be 910e 80bd
000002d0: 462c dbbc 2288 893d 0514 56bb c198 0abe
000002e0: dd36 7ebe 7778 d5bd d9e3 c23c 0490 1bbe
000002f0: 5f36 bfbd beb8 71be 3705 26bd 49ea 71be
00000300: dd6d 3abd 042d 1dbe 1579 66be 1089 39bb
00000310: 9fbf e43d 4365 bd3b 4a06 a43d 1f9f 54be
00000320: c09b c83c 7b8a f63d 82d0 0cbe a17b c7bd
00000330: 55c6 9b3d 519d a83d 1f41 8bbd 17ef acbc
00000340: 16a7 25be 625d e6bd 83de 7cbe 5aeb c1bd
00000350: f227 ee3d 3d60 db3c ca51 59be 8577 33bd
00000360: 2782 2a3d 7417 233e c36e c9bd 999a bd3b
00000370: 0ca4 b53d 8102 a3bd 875c b03d b2c0 1dbe
00000380: 8087 afbd cceb 443e a902 60bc c659 d13d
00000390: c623 383e b758 d4bd eaab c53d 938d 14bd
000003a0: 0bf3 d9bd bfa3 9a3d b066 373c 9325 143d
000003b0: fe49 333e 618d 6bbd d3ab 053c 373b d9bc
000003c0: 1447 d33d cf94 04be acf3 4c3e 1c5d a7bd
000003d0: 2691 333e 3220 16be b226 4b3e a888 30be
000003e0: 6f04 a93d 5bf4 95ba bf25 083e 515f 483e
000003f0: ebea d43d e41e 1f3c 9b17 5abd ea46 7e3d
-0.037843075 0.098515674 -0.16510557 0.007815279 0.069064006 0.12712792 0.18527001 0.026952185
-0.15196761 0.18936677 0.011305048 -0.14742924 0.06961858 0.10686124 -0.096107855 0.1016267
0.14798519 -0.13486704 0.11750234 -0.12739454 0.027404487 0.030991822 0.08591502 0.06806275
0.06930737 0.17608361 -0.12607867 -0.099473484 -0.11464569 0.037322097 -0.1595885 0.0029092599
-0.036207896 -0.08590004 -0.051972423 0.08786662 -0.07849163 -0.06682329 -0.1344358 -0.19998655
-0.18797444 -0.16177475 0.14785013 0.117881946 0.06961899 0.094724655 0.13105041 -0.03754892
0.076773115 0.08264545 0.06444258 -0.17083812 -0.2051325 -0.11486703 -0.21940136 0.13506804
-0.047591906 -0.0039861267 0.06352906 -0.17086795 -0.020802611 -0.20061949 -0.21337672 0.05766445
-0.2479088 0.12838936 0.08649908 -0.0131385345 -0.16367179 -0.15054101 -0.0089094145 0.042052038
-0.18106239 -0.08093323 -0.13833658 0.005607059 0.07128304 -0.17351066 0.09029276 0.12220786
-0.014185051 0.048053198 0.16147727 0.08180536 0.10199997 -0.15605342 0.19089465 -0.0040573394
-0.025407104 0.1667247 -0.07607214 0.053091455 0.045045055 -0.07649325 0.1497615 -0.0032953008
0.120779574 0.08481533 0.18264277 -0.14296103 -0.1402984 0.004740747 0.20711231 0.12312838
0.15955108 -0.12896164 0.08793949 0.03631836 0.13162395 -0.03978601 0.1803981 0.11822898
0.026225824 0.16633987 0.19755924 -0.12416244 -0.117399044 0.12540136 0.054662213 -0.131778
0.095708475 -0.098287776 0.034451347 0.038406517 0.1534783 -0.1033577 0.03562112 0.115253314
0.053159274 0.02442842 -0.16852888 -0.011162984 0.14710578 0.089696154 -0.08262889 0.08922205
0.031175554 0.11633939 0.08728979 0.1438077 0.25901863 0.2027718 0.058095105 0.0020901791
-0.13813941 0.025580853 -0.15435003 0.15070781 0.14587192 -0.117487065 0.17070459 -0.047197293
-0.10061738 0.08487423 0.13849922 0.17298982 -0.14398839 -0.012405268 0.03816249 -0.12287404
-0.08340687 0.092742234 -0.1286436 -0.010099423 -0.083334856 -0.014221118 0.09640749 0.025838064
0.04185501 0.11873925 -0.18782686 -0.16636088 0.043802265 0.0068212305 0.125455 -0.2308735
-0.10557637 -0.12293805 -0.12650062 -0.06252778 -0.02675451 0.067154184 -0.0032665741 -0.13534833
-0.24825616 -0.104233675 0.023790287 -0.15191656 -0.09336542 -0.2360563 -0.040532317 -0.23624529
-0.04551493 -0.15349203 -0.22507127 -0.0028310455 0.11169361 0.0057798936 0.08009012 -0.20763825
0.02448833 0.12038132 -0.13751414 -0.09740377 0.07606188 0.08233131 -0.0679953 -0.0211101
-0.1617702 -0.1124828 -0.24694256 -0.09468718 0.11628713 0.026779288 -0.21222606 -0.043815155
0.04162803 0.15926915 -0.09835579 0.0057862517 0.0886918 -0.07959462 0.08611398 -0.15405539
-0.085707664 0.19230574 -0.013672509 0.10222201 0.17982396 -0.103684835 0.09651931 -0.03626783
-0.1064206 0.07550763 0.011193916 0.036168646 0.17508695 -0.057507876 0.008158642 -0.026517494
0.103162915 -0.12947391 0.20014828 -0.08172056 0.17535838 -0.14660719 0.1983898 -0.1723963
0.08252799 -0.0011440621 0.13295649 0.1956761 0.103963695 0.009711955 -0.05324517 0.062079348

conv1.0.bias f4 [16]
00000000: 0e73 623d 6fbf 0fbd 4be5 ae3d 3522 25be
00000010: e228 13be 1176 7a3a 64b8 9ebe 3cb3 1c3e
00000020: ac1c c43d c90a 1dbe 8920 0dbe 9ffc d23d
00000030: b844 f9bd 4fb4 293e 8b74 32bd 3519 be3c
0.055285506 -0.035094675 0.08539828 -0.1612633 -0.14371064 0.00095543364 -0.31000054 0.15302747
0.09575781 -0.15336145 -0.13781942 0.1030209 -0.1217131 0.16572689 -0.043568175 0.023205379

conv1.2.weight f4 [16]
00000000: 005d 7c3f 727d 7b3f 0cdd 813f aac8 7f3f
00000010: ab1a 773f 8c1d 793f 2ccf 843f b251 803f
00000020: 730b 813f 1bac 7d3f 83cb 7f3f 250a 7e3f
00000030: 6fb9 823f 584c 7f3f 1403 843f 927e 7e3f
0.98579407 0.9823829 1.0145583 0.99915564 0.9652507 0.9731071 1.0375724 1.0024931
1.0081619 0.9909074 0.9991991 0.9923423 1.021284 0.99725866 1.0313439 0.9941188

conv1.2.bias f4 [16]
00000000: fb67 6f3c 2098 e93b 4907 973c f670 edbc
00000010: 6451 e3bb ad37 d2bc 7421 2ebd e45a a23c
00000020: c858 303c d112 afbc eca0 c4bc 7103 8abc
00000030: 7b3b 7bbc 0e3b 223c c44e 643b 5cdd ea3b
0.014612193 0.0071287304 0.018436091 -0.028984528 -0.0069371928 -0.025661314 -0.042512372 0.01981873
0.010763355 -0.021371277 -0.024002515 -0.016847344 -0.0153340055 0.009901775 0.0034836987 0.0071675014

conv1.2.running_mean f4 [16]
00000000: 9263 ad3e c5f0 4a35 b622 983b b710 b83e
00000010: 4b6e 7d3e ab35 ec3e 0400 0000 030b 393c
00000020: dd8e b13e 1516 413e 4c35 4531 a51c e03e
00000030: 3182 212f a1d5 033f 6d8e 403a dd10 a83e
0.3386503 7.560123e-07 0.0046428097 0.35950252 0.24749105 0.46134695 6e-45 0.011294129
0.3467931 0.1885608 2.8697569e-09 0.43771854 1.4689118e-10 0.51497847 0.0007345442 0.32825366

conv1.2.running_var f4 [16]
00000000: 14d1 533d 8b87 1133 4c50 7b39 7e05 dc3d
00000010: 51b0 643d 4c3a cc3d 0400 0000 9384 853a
00000020: 0e07 163d 8c5a 1d3d bb5f d22d cf29 553d
00000030: ed21 b62b 77ea 903d 0f7b 6c38 ea64 3b3d
0.051713064 3.388372e-08 0.00023967138 0.10743235 0.05583221 0.09972057 6e-45 0.0010186605
0.03662782 0.03841643 2.3916749e-11 0.052041825 1.2941294e-12 0.070759706 5.6381392e-05 0.045750536

conv2.0.weight f4 [32, 16, 3, 3]
00000000: a0f1 823d 7f80 fd3c f35f 323d 8993 dd3c
00000010: 99e3 5fbd 2b71 76bc 325f dcbc 8f0d e23b
00000020: c25b 1fbd e1f8 4abd 6aeb 21bd ca7c c03c
00000030: e36b a8bd e0f6 3d3c 0e8c 863c 2c4a 003d
00000040: 92b5 47bd b8c0 303d 5afb 39bd 8064 79bc
00000050: 8d45 9e3c 848e 703d 72f0 2bbc 8646 a3bc
00000060: a976 9cbd 2790 0c3d 158c 4ebb 6156 393d
00000070: 3ae9 e73c 8bed 793c 1c08 cfbc 6256 913d
00000080: 8823 f53b 6fa6 aa3d 2d55 2bbc 3ec1 debc
00000090: d19e d23d 4336 83bd 7be8 5f3d 5eaf 50bc
000000a0: 091a 5b3b 78f8 3fbd 8ff5 713b 1049 0b3c
000000b0: 6c90 93bd 8875 08bd 3cc8 933c 1b39 74bb
000000c0: 4b16 90bc bf08 47bc 12bb c03a 8671 94bd
000000d0: b579 94bd 489d 513d e66a 663d da29 91bd
000000e0: ce13 c5bb 418a 58bd f979 0f3d 2c00 cebc
000000f0: 1f95 43bd a284 b03c a945 b6bd ea12 7ebd
00000100: 89e4 b7bd 1da1 f6bb f88b 833c 2721 e53c
00000110: c464 533d 0fb8 a1bd 2783 3bbd b8f7 50bd
00000120: 9d3d f93c 6426 79bd 05af 53bb 9502 bfbd
00000130: ca91 7dbc 9747 0a3d 5f60 b63c f1ce 5ebd
00000140: a11d 623d 0408 f7bc 20dd 213d 9f0f 333d
00000150: 622a 4fbd 714b 303d d3b9 d93d 0e56 bbbc
00000160: 2f2e 49bd ca54 253d b6da a6bd dbde f63c
00000170: 838e 93bd 9a8c 47bd f89e 50bd 2843 11bd
00000180: 624c 01bd b0cb 49bd b334 68bb 2b99 103d
00000190: 2ef4 90bd 9f87 7b3c f60f c83c 55a2 a8bd
000001a0: 76de 073d d95b 0e3c 9be1 cb3c 7d91 1d3d
000001b0: 3359 123d 6e3b bb3d 387d 8d3d 096c a93c
000001c0: f619 84bd db88 9fba 31a9 083c a948 cbbc
000001d0: feff cabc 2a49 f6bc 228e 6bbc c55b 83bd
000001e0: c352 8c3d c88a 77bc 6916 99bc 59ba 20bd
000001f0: a570 b4bb 1851 29bd 764e afbc 6184 4e3c
00000200: 9a19 bb3c 9cf0 12bd a462 6e3c c228 773d
00000210: 0a62 383d d5ef 80bc 2108 a93d e047 513c
00000220: 7c28 a73d 4e20 2dbd 2eaa 3dbd 72b1 123d
00000230: ed0c c6bb 739f 03bd 296d 29bd 3073 513d
00000240: 621a 22bc 9d96 16bd 24b4 bdbd 7e56 383d
00000250: d2f3 0f3d ef01 cfbc 9c51 8dbb c3e3 6e3d
00000260: d29e 84bd 786f 933d 3627 6dbd fa3e 923d
00000270: cfb4 8ebd 0b1b 2cbd 5dd0 803d cf26 ac3c
00000280: e126 7a3d 9474 49bd be1a 77bd a855 babd
00000290: 928b edbc d2f8 7dbd b920 f43b db99 743d
000002a0: 2f97 86bd c9d6 933d 3be4 873d a37f 7cbc
000002b0: a77b cabc ee38 423c f884 113d 1733 b13d
000002c0: d01f 90bd 4a47 303d 3766 65bd a7c5 963d
000002d0: 40c4 1b3d a977 3f3d db47 f3bc c611 803d
000002e0: 5594 553d ce2b 193d 3fcb 03bd f12a 653d
000002f0: 48c0 31bd d119 753d e713 c7bc 09fd 88bd
00000300: b1d5 9bbd 8d9f 893d bae7 9cbd 3b47 e73c
00000310: a31e a63c 2bc0 ee3c d9d8 09bd 9ae2 9e3d
00000320: c796 30bc 835d 6bbd 269f 6a3c b49d cc3c
00000330: 6e08 b1bd dff3 5cbd a69c a3bc e819 a5bd
00000340: 6653 04bd eae6 a8bd bc6e 3dbb a6ff 8bbd
00000350: c7fd b6bd 7ff1 b9bd a4f0 a0bc 62fc c3bb
00000360: 4177 5a3d b7ec 54bd c601 653c 8925 87bd
00000370: dc56 573c 1253 6c3d 3c60 7a3d a8a3 5a3d
00000380: 5d9a c23d 3447 223c 249d cebc a9b9 17bd
00000390: ddea 02bc ea34 d43d 78df 0a3d 0a68 7fbc
000003a0: e4f1 cb3d 6b87 dc3d c901 913d a08f 91bc
000003b0: 5806 5dbb 32f1 723d 7443 b93c e146 cd3c
000003c0: 5ff9 61bd dd51 d8bc 41dc 343d 83cf c3bd
000003d0: b1de 7b3c b7b3 c5bd 271d 69bd 43f8 9bbc
000003e0: d496 383d d439 993c 5c3b e8bc 8676 2f3d
000003f0: a76d 38bd f45f c93d 4e07 2c3d 316a 6dbd
0.063937426 0.03094506 0.043548536 0.02704789 -0.054660413 -0.01504163 -0.026900861 0.006898589
-0.038905866 -0.049553756 -0.03953115 0.023497004 -0.08223703 0.011594504 0.016424205 0.031320736
-0.048757143 0.04315254 -0.045405723 -0.015221715 0.019320274 0.058729663 -0.010494338 -0.01993109
-0.0763982 0.034317162 -0.00315166 0.045248393 0.028309453 0.015254389 -0.025272422 0.07096554
0.0074810423 0.08332526 -0.010457319 -0.027191754 0.10284198 -0.06406834 0.05466507 -0.012737123
0.0033432266 -0.046867818 0.0036920046 0.008501306 -0.07205281 -0.03331521 0.018039815 -0.0037265483
-0.017588755 -0.012148081 0.0014704189 -0.072482154 -0.07249776 0.051175386 0.05625429 -0.07088061
-0.006014324 -0.052866224 0.03502843 -0.025146566 -0.047749635 0.02154762 -0.08900005 -0.062029757
-0.089791365 -0.0075265304 0.016057953 0.02796991 0.05160977 -0.078964345 -0.045779373 -0.051017493
0.030424887 -0.060827628 -0.0032300365 -0.09326664 -0.015476653 0.03375968 0.02226275 -0.054396573
0.055204038 -0.03015519 0.03951752 0.04371607 -0.05057753 0.043040697 0.10631146 -0.022868183
-0.04911631 0.040364064 -0.081471846 0.030135563 -0.07204916 -0.048718072 -0.050932854 -0.035464436
-0.031566985 -0.049266517 -0.0035431802 0.035302322 -0.070778236 0.015352159 0.024421673 -0.082340874
0.03317114 0.00868889 0.02488785 0.038468827 0.0357296 0.09142195 0.06908649 0.020681398
-0.06450264 -0.0012171523 0.00834112 -0.02481492 -0.02478027 -0.030064184 -0.014377149 -0.06413988
0.06851723 -0.015108772 -0.018687444 -0.039240215 -0.0055065923 -0.041337103 -0.021399718 0.012604804
0.022839356 -0.035873994 0.014549885 0.060341604 0.045015372 -0.01573936 0.082535036 0.012773484
0.08162019 -0.042267136 -0.046304874 0.035813756 -0.0060440213 -0.032134484 -0.04136387 0.051135242
-0.009893985 -0.03676473 -0.09262875 0.04500436 0.035144635 -0.025269477 -0.004312707 0.05832268
-0.06475605 0.07198995 -0.057898723 0.07140918 -0.0696808 -0.042017978 0.06289742 0.0210146
0.061072234 -0.049183443 -0.060328238 -0.09098369 -0.028997216 -0.06200487 0.00745019 0.05971704
-0.06571805 0.072187014 0.066353284 -0.01541129 -0.024717165 0.011854393 0.0355272 0.08652323
-0.07037318 0.043036737 -0.056005683 0.07361918 0.038028955 0.046744976 -0.02969735 0.0625339
0.052143414 0.03739529 -0.032176252 0.055949155 -0.043396264 0.059839074 -0.024301482 -0.066888876
-0.07609118 0.06719885 -0.07661386 0.028232208 0.02027828 0.029144367 -0.033654068 0.077580646
-0.010778136 -0.057462227 0.0143201705 0.024977542 -0.08644186 -0.05394351 -0.019972157 -0.08061582
-0.032306097 -0.08247168 -0.0028905114 -0.068358704 -0.08935123 -0.09079265 -0.019645996 -0.005981014
0.053336386 -0.05198356 0.013977474 -0.06598956 0.0131432675 0.05769641 0.061126933 0.05337873
0.09502099 0.009904671 -0.025221415 -0.037042294 -0.007990566 0.10361655 0.033904523 -0.01558877
0.09958246 0.107680164 0.070804186 -0.017768681 -0.0033725705 0.059312053 0.022615172 0.025058212
-0.05516946 -0.026406223 0.044155363 -0.09561064 0.015372918 -0.096534185 -0.056912567 -0.019039279
0.045065716 0.018704332 -0.028348617 0.042837642 -0.045026448 0.09832755 0.041999154 -0.0579626

conv2.0.bias f4 [32]
00000000: c2a4 813c dde0 953d c1a2 76bc d245 ec3c
00000010: dfca 8dbd 3905 0d3d 57f2 3f3b 7a7b 5abd
00000020: 0330 103d b518 1d3d ff15 3f3d ed76 a8bd
00000030: 0567 17bc 361e 743c 8e82 923d a2e3 6c3d
00000040: 667a aebc c117 d1bc 27f0 de3c 1b48 443c
00000050: c304 ad3b 71c4 1abd 9b30 433d 64fe 07bd
00000060: c1c9 b43c 7021 3abc 6e4a 59bd a068 d5bb
00000070: 81a8 49bd 8dba 9e3c 8d17 a7bd 97bb a4bd
0.015825633 0.0731828 -0.015053452 0.028841887 -0.0692346 0.03442881 0.0029288733 -0.053340413
0.035202038 0.03835364 0.046651836 -0.08225808 -0.00924087 0.014899781 0.071538076 0.057834275
-0.021298598 -0.025524022 0.027214123 0.011980082 0.0052801087 -0.037784997 0.047653776 -0.03320159
0.02206886 -0.011360511 -0.053049497 -0.0065127164 -0.049232963 0.019376064 -0.08158789 -0.080435924

conv2.2.weight f4 [32]
00000000: a38d 803f 48a7 7c3f 10c4 7e3f 944b 803f
00000010: f99c 803f d938 803f 5031 7f3f fa7d 7d3f
00000020: af8d 7e3f 16df 7b3f 9a6c 7f3f 211e 803f
00000030: 1fed 7f3f d6fc 803f 5252 7f3f 3f83 803f
00000040: 77b2 7d3f b590 813f 79c0 7f3f 523c 803f
00000050: 3a1a 7d3f 2189 823f 5777 7c3f 5db6 803f
00000060: b83c 7c3f 9513 7c3f 099b 7f3f fdbd 803f
00000070: c915 813f c500 823f cc99 813f 3ce8 813f
1.0043224 0.9869275 0.9951792 1.0023065 1.0047904 1.0017349 0.9968462 0.9902035
0.9943494 0.9838728 0.9977509 1.0009195 0.99971193 1.007716 0.99734986 1.0040053
0.9910044 1.0122286 0.99903065 1.0018408 0.98868144 1.0198098 0.986196 1.0055653
0.9853015 0.9846738 0.9984594 1.005798 1.0084773 1.0156485 1.012506 1.0148997

conv2.2.bias f4 [32]
00000000: cff8 733a ce58 3dbc 5ab8 b43b 6005 06bc
00000010: 8000 4bbc 92f8 b83a 293c d1bb da9a cebb
00000020: 0b56 78bb 0acf 3f3b 01b4 80bb 55f4 0fbc
00000030: 779b ccbb b21d 20bc a05f 2abc c238 aebb
00000040: 91c8 c7ba b32a 0d3b 3b7b 70bc d45e 6dba
00000050: 56c2 0f3c f715 6bbc 54d7 57bc 32ee 6bbb
00000060: 2ebe 28bb a7aa 3aba bd3a f2ba d7a0 1bbb
00000070: 4ec9 19bc 7aae 05bc 3824 223b 685f bdbc
0.000930679 -0.011556817 0.0055151405 -0.008179992 -0.012390256 0.0014112166 -0.0063853455 -0.006305081
-0.0037893082 0.0029267692 -0.003927708 -0.008786281 -0.006244119 -0.009772705 -0.010398775 -0.0053168247
-0.0015242269 0.0021540343 -0.014677818 -0.0009054963 0.008774361 -0.014348499 -0.013173897 -0.003600013
-0.0025748122 -0.0007120766 -0.001848064 -0.002374699 -0.009386374 -0.008159274 0.0024740826 -0.023116782

conv2.2.running_mean f4 [32]
00000000: 688c 113e e1c2 123f 7854 c43e 720d a43e
00000010: d4a7 b73e bd37 833e 8a60 d03e 3c87 243e
00000020: e808 533e 0342 073f 7fb3 bf3e 1e79 023e
00000030: 478b 783e b85a 223e ad4d 553e 7442 d73e
00000040: ab55 ee3e 964a 083f 4bc1 6b3e cf0a 3f3e
00000050: 6c25 2d3f f874 4e3e c0a2 a23e 8ea6 143e
00000060: 5074 093f 86c0 e33e ced9 5b3e b3fd 8f3e
00000070: 9394 3b3e 4106 333e 9743 0d3f d197 f63e
0.14213717 0.5732861 0.38345695 0.32041508 0.3587023 0.25628462 0.40698653 0.16067213
0.20608866 0.528351 0.37441632 0.12741515 0.2427188 0.15854919 0.20830412 0.42042887
0.46549734 0.5323881 0.23022954 0.18656467 0.67635226 0.20161808 0.31764793 0.1451666
0.53693104 0.4448282 0.21469805 0.28123245 0.18318395 0.17482854 0.5518126 0.48162702

conv2.2.running_var f4 [32]
00000000: 374b 833d 4616 ec3e d159 4c3e 30e4 523e
00000010: be4d 6f3e a989 ef3d 2375 cb3e c260 1d3e
00000020: 41c7 133e 23c5 d53e 490a 9c3e 013e ff3d
00000030: 69ee ee3d 388b a83d 8648 d13d 67fe fa3e
00000040: 2203 fe3e 2b0a e33e afc0 cb3d d688 d93d
00000050: 772a 343f ba92 ec3d 7a70 293e dbe4 e43d
00000060: 1f45 e13e 3c89 a03e af30 003e fedb 0c3e
00000070: 0790 e73d a402 a93d 375f 0b3f 70bc f13e
0.064108305 0.46110743 0.19956137 0.20594859 0.233695 0.116961785 0.39737806 0.15368941
0.14431478 0.41751966 0.30476597 0.12462998 0.11666567 0.08229679 0.10218911 0.4902222
0.49611765 0.44343695 0.09948861 0.106218025 0.70377296 0.11551423 0.16546813 0.11176463
0.43998048 0.31354702 0.12518571 0.13755795 0.11306768 0.08252457 0.5444216 0.4721408

conv3.0.weight f4 [64, 32, 3, 3]
00000000: 6401 e83c 3bf8 453c 8911 80bd 1549 2bbc
00000010: 745c 44bd cd59 493d a2cb 1c3d ae60 383d
00000020: 994f 273d 0902 8bbb 8f7a 3cbd 3592 15bd
00000030: 1a38 0abc f01b 53bd f378 0dbd 132a 423c
00000040: 5f36 2fbc 6b32 6f3c 2cce f4ba 289e 37bd
00000050: 06a6 263d f944 d03b c58a d9bb c242 9f3c
00000060: 8867 ff3b 4e78 cc3b 834e ec3a 52e8 033d
00000070: 3dd0 15ba 51b0 d33c c9f6 f33c 5d45 0bbd
00000080: e167 553d 869d 2a3d c083 11bd 8660 4fbc
00000090: bc73 443d 8fae c2bc 2864 51bd c7e5 503d
000000a0: 89b9 e23c b712 903c 5d16 edbb 1ff8 57bc
000000b0: aff9 42bd 3512 e5bc 9b74 963c 7c60 17bd
000000c0: bd86 21bd c382 a03c c7b8 323d 5249 07bb
000000d0: 81bf 9fbc 6dce 3c3d b0a8 203d c5e3 cdbb
000000e0: fa2b c0bc 46ef 8dbc 7b83 33bd c60d bdbc
000000f0: 864e 3ebd 6cac cdb9 86d7 483d 3c22 203c
00000100: d8cc ea3c 6f35 80bc 70d2 373d 4ae8 a3bb
00000110: 307a 2b3d 1161 193d b54d 4abd 4f00 d9bb
00000120: d37d 103d ae71 503b 4918 33bd 5ae5 2cbd
00000130: 1b15 86bc c4f6 08bd c5f6 4d3d 9983 a8bc
00000140: f250 093d b78c c23c 78f7 a33c 4301 cebb
00000150: cc02 483d aa00 2a3d 331f 063c d86a 8fbc
00000160: 2fad 6ebd 176f b43c 3af9 bbba 65bb 6fbc
00000170: c18c 273d 4562 c93a c9ed 3e3a 4d12 f43c
00000180: d1ce c5bc 5d14 6d3b a539 b83c 2412 10ba
00000190: e432 3bbd 4769 53bd e281 4a3d 3adb 4d3d
000001a0: c1a3 39bd ead9 fa3c ea57 47bd 7829 4d3c
000001b0: 4a99 55bd e026 51bd 7af9 09bd 0c3d 5ebd
000001c0: f3d0 7ebb 70c0 5c3d 3aeb f4bc 83a9 d73c
000001d0: dff6 d53b 0b3c 543b b90c 683d 1630 28bc
000001e0: f3d1 e73c 58a5 ad3b a468 35bd 3629 ef3c
000001f0: ff5e 203c fc1a 303d a712 7a3c 7894 f33c
00000200: 30bc 6a3d 5247 0cbd 0c8e 213d 024f a8bc
00000210: f9a8 1c3c 9134 16bd f7d9 36bb 1d91 96bb
00000220: cbce a4bc 3aec 903c f094 79bd 36cc fc3c
00000230: ffa1 22bd 271d 113d db64 a23c 52b6 2abc
00000240: 2077 f2bc 1b57 303b 353c 5abc 2285 1f3c
00000250: 712e 273d cced 753b b540 0f3d 997c 88bc
00000260: 0a85 2f3d 6392 20bd 1e9d 2cbd c2c0 243d
00000270: 5837 75bd 4f8b 113d 46bc 01bd ed87 473d
00000280: f449 0a3b 356a 6f3d 0409 29bb f1fe d6bc
00000290: 5bee f73c d15d d83b 68cd 2fbd ce89 da3c
000002a0: 3a6d 5abd 7733 debc 9d59 103c 0822 07bd
000002b0: 27b9 c03c 8386 bc3b 26a5 443d a140 453d
000002c0: 98fb 613d 661b 03bd 6570 4fbd a324 c9bb
000002d0: b300 773c 4506 c9bb f5bd 82bd 7842 00bd
000002e0: a889 1abd e605 e8bc 0486 04bd d8d9 c93c
000002f0: 69f4 f2bb 5e23 20bc 01ce cdbc 9523 3abb
00000300: d97b 623c a2ef babc b5eb c63c 8c37 273c
00000310: 783e cdbc 538c 36bc afcd 42bd 1015 ad3c
00000320: 723a 9dbc e153 48bd d1ab 4fbd 72de 4ebc
00000330: 36ff a4bc 2c87 263c 1d8b 7ebd 98fb 903c
00000340: e2af 3c3c 1e6e 51bd 2a70 273d d10c 76bd
00000350: 0b82 963b ef99 71bd 535c c93c 9d12 4b3d
00000360: 5fa5 bcbc eb07 47bc 4dac 883a ac84 d43c
00000370: 1f36 673c 0e59 073d 9d79 723c dbed 14bd
00000380: 878f 893c 4b99 0f3d 7072 b43c d26b 363d
00000390: 8c84 9c3a 6408 483d f986 92bb 071a 7cbd
000003a0: de23 683c 668d 3a3c 6a14 073c df48 04bd
000003b0: 9434 bb3c 341f 063d 2eb0 73bc 7bde 803b
000003c0: 6396 ef3b 6616 ac3c 6aef 263d 8180 4b3c
000003d0: 18be 4e3d ed1b 13bd 802a 68bd 7cb2 63bd
000003e0: 5b5c 56bd b6e9 d7b9 fa15 91bc 1c4f 0f3d
000003f0: 909d 553c e97f 54bd 284f b33c 7dc5 5ebd
0.028320976 0.012083109 -0.062533446 -0.010454436 -0.047939733 0.049157906 0.038280137 0.045014076
0.040847395 -0.004242186 -0.04601532 -0.036516387 -0.008436227 -0.051540315 -0.034539174 0.011850852
-0.010694115 0.014599423 -0.0018677167 -0.044828564 0.040685676 0.0063558784 -0.006638857 0.019441012
0.0077943243 0.0062399274 0.0018028769 0.03220398 -0.0005714929 0.02584091 0.029780762 -0.034001697
0.05210102 0.041654132 -0.035526037 -0.01265729 0.047961935 -0.023764877 -0.051120907 0.051000383
0.02767636 0.017587049 -0.007235332 -0.013181715 -0.047601398 -0.027962783 0.018366149 -0.03695725
-0.039435137 0.019593602 0.04363325 -0.0020643068 -0.019500496 0.0460953 0.039223373 -0.0062832558
-0.02345847 -0.017326009 -0.04382656 -0.023077857 -0.046461605 -0.0003922911 0.049033664 0.009773787
0.02866213 -0.01565048 0.044878423 -0.0050020562 0.041864574 0.037446085 -0.049390513 -0.0066223512
0.035276245 0.003180604 -0.043724332 -0.042210914 -0.016367486 -0.03343846 0.050284166 -0.020570563
0.03352446 0.023748739 0.020015463 -0.0062867715 0.048830792 0.04150454 0.008186149 -0.017507002
-0.05827063 0.022025628 -0.0014341243 -0.014632081 0.040905718 0.001536437 0.00072833576 0.029793883
-0.02414647 0.0036175468 0.022488425 -0.0005495867 -0.04570283 -0.051614072 0.049440272 0.0502579
-0.045322184 0.030621488 -0.048667826 0.012522094 -0.05214814 -0.051062465 -0.033685185 -0.054257438
-0.0038881868 0.05389446 -0.029897321 0.026325947 0.0065296735 0.0032384421 0.05665276 -0.010265371
0.028298354 0.0052992515 -0.044289246 0.029194456 0.009788274 0.042994484 0.015263236 0.029733881
0.057308376 -0.034247704 0.039442107 -0.020545486 0.009561771 -0.036671225 -0.0027900913 -0.0045949356
-0.020118138 0.017690767 -0.060933053 0.030859094 -0.039705273 0.035428192 0.019823482 -0.010419445
-0.029597819 0.0026907388 -0.013320019 0.009736331 0.040815774 0.0037525771 0.03497382 -0.016660975
0.042851485 -0.039202105 -0.042142026 0.04022289 -0.059867233 0.035533246 -0.031673692 0.048713613
0.0021101208 0.058450896 -0.0025792727 -0.026244612 0.030265024 0.0066029807 -0.0429205 0.026677039
-0.053326823 -0.02712415 0.008810428 -0.03299144 0.023525788 0.0057533397 0.04800906 0.048157338
0.05517158 -0.03200855 -0.050644297 -0.0061384006 0.01507585 -0.0061347806 -0.06383888 -0.03131339
-0.037728935 -0.028323125 -0.03235437 0.024640009 -0.00741439 -0.009774057 -0.025122644 -0.0028402556
0.013823473 -0.022819344 0.024282316 0.0102061145 -0.025054201 -0.011141854 -0.047559436 0.021128207
-0.019192908 -0.04890812 -0.050700966 -0.012626277 -0.020141225 0.010164063 -0.062144388 0.017698094
0.011516543 -0.051130407 0.040878452 -0.060070816 0.004593139 -0.058984693 0.024580156 0.049578298
-0.023028074 -0.012147884 0.0010427326 0.02594217 0.014112025 0.033043914 0.014799503 -0.03635965
0.016792072 0.0350583 0.022027224 0.04453642 0.0011941358 0.048836127 -0.0044716564 -0.06154826
0.014168708 0.011386251 0.008244613 -0.032296058 0.02285222 0.0327446 -0.0148735475 0.0039327717
0.0073116287 0.021006774 0.040755667 0.012420774 0.050474256 -0.035915304 -0.056681156 -0.055590138
-0.05233417 -0.00041182124 -0.017710675 0.034987554 0.013038054 -0.051879797 0.02188833 -0.05438756

conv3.0.bias f4 [64]
00000000: fc66 3e3b ec07 753c 104d 083a d2b3 473c
00000010: 2f87 613d 6d3d 393d d345 38bd a500 623d
00000020: 633b bdbc 3669 973c d867 6cbb 10d4 0a3d
00000030: 6ff1 4cbc 9457 e6bb c6e7 93bb f1e9 20bd
00000040: 8a6d 10bc c91b 1cbd 060d 0dbc 1e2b 4c3d
00000050: f0b1 46bd c4c6 dabb a2e0 6a3d da40 e7bc
00000060: 7259 123c a76d 4d3d 6690 d23b d9aa 34bc
00000070: 941b 463d e057 15bd 14f4 433d 5275 dabc
00000080: 548a 853d 6d6b 043d 53e9 30ba 2723 0f3d
00000090: f439 c33c bd61 ffbc 62ce 22bd 138a 4fbb
000000a0: acf9 4c3c 9352 b9bb 52cc 32bd 4a80 eebb
000000b0: 9b6c 2abd 4390 eebc 56ba eb3b 6e28 cb3c
000000c0: fad0 36bd 4701 7f3d d29b bf3a 7b93 0cbd
000000d0: 0f9e 9cbc 2c71 d63a 1712 5a3b fb34 c93b
000000e0: 6b71 f13c 9263 053d 172d 3dbd 6e46 c93c
000000f0: a9ac f5bc 4ee6 713d 7444 43bd b9a3 73bd
0.0029053083 0.014955502 0.00051994715 0.012188869 0.05506056 0.045224596 -0.044988465 0.055176396
-0.023099607 0.018482786 -0.0036072638 0.033893645 -0.012508734 -0.007029483 -0.0045137135 -0.039285604
-0.008815179 -0.038112435 -0.008609062 0.049845807 -0.04850954 -0.0066765267 0.057343133 -0.028229166
0.008932458 0.0501534 0.006425905 -0.011027061 0.048366144 -0.036460757 0.047840193 -0.02666727
0.065205246 0.03232901 -0.0006748635 0.034945633 0.023831345 -0.031174535 -0.039747603 -0.0031667992
0.012510698 -0.0056555956 -0.043651886 -0.007278477 -0.04160748 -0.029121524 0.007193844 0.024799552
-0.04463289 0.062257078 0.0014618582 -0.034320336 -0.019118337 0.0016360632 0.0033274943 0.006140349
0.029473027 0.03256566 -0.04618558 0.024569716 -0.029989557 0.059057526 -0.047672704 -0.05948231

conv3.2.weight f4 [64]
00000000: 9016 7f3f 63d4 7e3f 223a 7f3f 3e79 7d3f
00000010: 8463 803f 664e 803f 20ed 803f 38e7 7f3f
00000020: 36fa 7d3f 0e49 7d3f e340 7f3f b2c6 7e3f
00000030: ef38 813f 681e 803f d0c6 803f 4394 7f3f
00000040: f1c9 7e3f f40a 803f 09b8 7d3f 1554 823f
00000050: d8ad 7f3f a732 803f fe4d 7f3f 2dc6 803f
00000060: 2256 813f 55bf 803f 9d21 803f 3113 803f
00000070: 9572 813f 1129 803f 386f 7f3f 46c6 7d3f
00000080: 3a2c 823f f5fc 7f3f 46ea 7f3f b350 813f
00000090: 61d9 7e3f 34c7 7f3f b65b 7f3f 779a 7f3f
000000a0: 3a6d 7f3f 63f0 803f ef74 803f 673e 7f3f
000000b0: cb51 7f3f 851e 7f3f 83b8 7f3f 5f3a 7e3f
000000c0: 751c 7d3f 5257 803f 6645 7f3f e17e 7f3f
000000d0: e8cd 7e3f d80b 803f 67c1 803f 1a01 813f
000000e0: d054 7d3f 72e2 7e3f 3cf5 803f 3e0b 803f
000000f0: 222f 7d3f 44e9 7d3f 222b 7f3f 5804 803f
0.996438 0.99542826 0.9969808 0.99013126 1.003037 1.0023925 1.0072365 0.99962187
0.99209917 0.989396 0.99708384 0.99521935 1.00955 1.0009279 1.0060673 0.99835604
0.9952689 1.0003343 0.9910894 1.018191 0.9987464 1.0015458 0.9972838 1.0060478
1.0104411 1.005839 1.0010258 1.0005857 1.0113093 1.0012532 0.9977908 0.99130666
1.0169747 0.99995357 0.9996685 1.0102752 0.99550444 0.99913335 0.99749315 0.9984507
0.9977604 1.007336 1.0035685 0.99704593 0.9973418 0.99655944 0.9989092 0.9930782
0.98871547 1.0026648 0.9971527 0.99802977 0.9953294 1.0003614 1.0059022 1.0078461
0.9895754 0.9956428 1.007484 1.0003431 0.98900044 0.9918406 0.9967519 1.0001326

conv3.2.bias f4 [64]
00000000: 7cb6 8e3c 4a34 2bbc 7f77 82bc c543 1bbc
00000010: 0698 cd3c c763 483c f3cc a43c f711 c83c
00000020: dea1 1abc e10d c5bb 8322 dc3c 6694 a43c
00000030: 3375 723c fedb d03c 3c0d 193d 90e0 113d
00000040: 0a69 43bc 0b33 db3c ad4f 233b 5850 593d
00000050: 23df 84bc 5da7 f0bb 0e0c 8f3c 98ab 203d
00000060: bb48 0d3d 4263 043d 4470 133c 7cd5 b93c
00000070: 2b14 253d 46de 543c f551 9f3c af3d 17bc
00000080: 1a03 dd3c 8d24 663c 48e9 683b d18e 073d
00000090: 743a 483a d757 cd3c 6d7e a0bc 8ddc bb3b
000000a0: b873 503b 96e5 0b3d aa72 d93c 30e3 6538
000000b0: d2e7 83bb 924c b03c fb75 793c c743 de3c
000000c0: 6295 313c 2392 d53c cbf4 613c 73ac 39bc
000000d0: ba2f a03c 10a7 5436 ea26 8d3c 5413 4d3c
000000e0: f1df 2039 3e0f ddbb 30f9 db3c 5001 283d
000000f0: f121 213c 71f5 063c 2156 b73c e0ed 7a3b
0.017421 -0.010449478 -0.01592612 -0.009476607 0.025096904 0.01223082 0.020117259 0.024422629
-0.009438006 -0.0060136174 0.026871925 0.020090293 0.01479845 0.025495525 0.037366137 0.03561455
-0.011926899 0.026757738 0.0024919317 0.053055137 -0.016219681 -0.00734417 0.017461803 0.039226145
0.03449319 0.032321222 0.008998934 0.022684805 0.040302437 0.012992447 0.01944826 -0.009231015
0.026979018 0.0140468 0.0035539437 0.033095185 0.0007638105 0.0250663 -0.019591535 0.005733079
0.0031807255 0.034154497 0.026543934 5.480944e-05 -0.004025438 0.021520887 0.015225883 0.027131928
0.010838838 0.02607066 0.013791273 -0.011332619 0.019554008 3.1687705e-06 0.01723047 0.012516815
0.00015342214 -0.006746202 0.02685222 0.041016877 0.009834752 0.008237229 0.022379937 0.0038288757

conv3.2.running_mean f4 [64]
00000000: 76d4 ea3e fe37 1d3f 4e45 413f 5f77 113f
00000010: ad9e 343f 4289 123f 8183 823e efa0 a73e
00000020: 6e9e 3b3f f05f e53e 79dd 823e 1722 cb3e
00000030: bb7e 333e 369d 013e 1a2c 3b3e f951 d83e
00000040: bd7f fe3e abaf 7f3e 876b f33e 91e7 aa3e
00000050: 43de e73e 0412 fe3e 5f21 283f 62a8 0a3f
00000060: c6b1 ac3e 0be7 b03e 12f4 953e 96d6 d13e
00000070: a6c9 d33e d406 9a3e e420 6a3e d5a1 e93e
00000080: 4830 c73e b441 8c3f 3319 153f 7b4f 3f3f
00000090: c254 1f3f cc16 8f3e 294f f53e 7102 0a3f
000000a0: 65ab 123f c564 833f 2573 273e fe2f 133f
000000b0: 7c22 433f cca6 de3d b296 733e 3654 423e
000000c0: f8a3 f93e fdc9 5b3e 0199 ce3e d0e4 e33e
000000d0: c983 d23e d4c9 dd3e 905d 0d3f 6007 bf3e
000000e0: b27c ca3e be23 c93e c984 d03d ea1a 123f
000000f0: c674 af3e ba3e fc3e bcf9 5c3e cadc 903e
0.4586522 0.6141356 0.75496376 0.5682277 0.7055462 0.5724069 0.25490955 0.3273997
0.7328862 0.44799757 0.25559595 0.39674446 0.17528813 0.12657627 0.18278542 0.4225004
0.49706832 0.24969356 0.47542974 0.33379796 0.4528676 0.4962312 0.6567592 0.5416318
0.3372938 0.34551272 0.29287773 0.4098403 0.41364783 0.30083334 0.2286411 0.4563128
0.38904023 1.0957551 0.58241576 0.7473065 0.62238705 0.2794708 0.47911957 0.53909975
0.5729278 1.0265127 0.16352518 0.57495105 0.76224494 0.10871658 0.23787954 0.18977436
0.4875791 0.21463771 0.40351108 0.44510508 0.4111617 0.43318045 0.5522089 0.37310314
0.3954826 0.39285082 0.10181577 0.5707232 0.3426878 0.49266607 0.21579641 0.2829345

conv3.2.running_var f4 [64]
00000000: 7e43 be3e b408 3b3f 9eec 763f d191 053f
00000010: da7c 3a3f 0934 1e3f 2606 d93d 2840 4c3e
00000020: bfd1 773f 1fc3 ac3e 8425 3a3e 01cb fd3e
00000030: cab7 333e 4adc 803d c932 3b3e 5e55 b23e
00000040: 8ada 003f ad77 153e 5fd9 2c3f af11 403e
00000050: 2745 083f 1f47 d03e 56b6 123f a1f9 013f
00000060: ef0a 4c3e 71cc 363e aea6 183e 9db6 ae3e
00000070: 3ef9 923e 604f 443e 2418 d73d c814 d53e
00000080: 332a 4c3f d123 e13f 921d 1a3f a6ea 723f
00000090: d11d 383f dd68 813e f10e 033f db3e d83e
000000a0: 0347 ff3e b399 d53f 0e82 093e b568 013f
000000b0: d3fe 8e3f 30eb 2e3d cedf 143e 5624 d83d
000000c0: 2c5a f33e 8dd4 fe3d be2e ac3e 5250 ec3e
000000d0: 85ae eb3e 58d6 d73e f15f f93e 58ce 103f
000000e0: f6fe ad3e 88c6 a33e 1650 443d d24d 103f
000000f0: bc18 9b3e 31d5 4f3f b5f4 533e 1a63 2b3e
0.37160867 0.73060155 0.964548 0.52175623 0.7284676 0.6179815 0.10596876 0.19946349
0.9680442 0.33742616 0.18178374 0.49568942 0.17550579 0.06292017 0.18281092 0.34830755
0.50333464 0.14596434 0.6751918 0.18756746 0.5323052 0.4067926 0.5730947 0.5077153
0.19926046 0.17851426 0.14907333 0.34123698 0.28705782 0.19170904 0.10502651 0.41617417
0.7975189 1.7589055 0.6020137 0.94889295 0.71920496 0.25275317 0.51194674 0.42235455
0.49858865 1.668753 0.13428518 0.50550395 1.1171516 0.04270476 0.145385 0.105538055
0.47529733 0.124428846 0.3362941 0.4615503 0.46031585 0.4215572 0.4870601 0.56564856
0.33983582 0.31987405 0.04792794 0.56368744 0.30292308 0.8118468 0.20698817 0.16737023

ln1.weight f4 [16, 2304]
00000000: 0815 4f3c 9e38 caba d204 0b3c ef6d 53bc
00000010: e41c c5bc de0f a2bc d0a1 b83c 9b13 993b
00000020: e4e0 dc3b 360e 4a3c bbd9 e9ba c5b4 963b
00000030: f877 a43c 3abb f63b fcea 013c 7018 bfbc
00000040: b0e0 34ba 44d8 353c e8b2 bcbc 0019 093c
00000050: ffc8 a7bc 6003 10bd 082c 8c3b cbda 92bc
00000060: d467 8b3c 041d 5c3c 0d31 d23b 5a8b 1e3c
00000070: e73e bfbc c057 9d3c 0ec9 013c 1cf3 d63c
00000080: 1106 54bc e9d5 63bc 3615 bb3c 56a4 d53a
00000090: 6ec6 9a3c d3d2 77bc 0c45 08bc 6614 a83b
000000a0: 7d0a ee3b 2f8e 95bc 2cdd 27bc 4af5 ce3b
000000b0: 8dea d3ba 0963 6638 0848 023c f5f3 f03b
000000c0: 7c3a 32bb e8ea 30bb c083 e23c 01d3 103b
000000d0: 84da e4bc 8fa8 cfbb 200f 533a eb7a a1bc
000000e0: 6b20 0b3c f7e7 9abc 78bc d8bc f756 a2bc
000000f0: 9927 b8bb d884 51bc dfaa 35bc 66c0 6bbc
00000100: fb47 6cbc dcb7 a83b aab4 9d3c 097a a7bb
00000110: 468a 5bbc 56b9 613c 3320 42bc 320b 7cbc
00000120: 2825 70bc 5600 b4bc 9648 003c 7270 82bc
00000130: 69cf b338 4a93 aebc 56b8 0ebc a62d 9bbc
00000140: a5f7 82bc 2709 d2bc 7052 b9bb 12a4 86bc
00000150: e73a f0bc 3a97 9fbc 7d38 09bd cc90 bebc
00000160: c22f 01bd 7468 20bd 83e6 b6bc c9fd 16bd
00000170: 3e46 cebb 10cf 0abc f0cb 04bd e503 0abc
00000180: ce3c 40bc 0789 eabc 3a6f c9bc ca1f f6bb
00000190: 45bb b6bc 1856 12bc bb3a 93bc 80fa 12bd
000001a0: 1a78 f9bc 285c 0ebc b194 2dbd e41a 19bc
000001b0: 7d11 41bc ff0c 113c 781b 013d 86d3 843b
000001c0: 9bb3 05bc 7c2b b7bc efce 58bb 4f90 503c
000001d0: c68d dd3c 765b 37bc 5236 9d3b 2bb3 47bc
000001e0: a549 273a de71 cdbb 382c df3c 256d 74bb
000001f0: 1f9a 023c a254 4d3c 23ed b2bc 38a5 28bc
00000200: efb2 423c ab78 00bc 6eca c7bc 3288 b93b
00000210: ae8a 00bb 005b 843c 26ad 72bc 2a7b 953b
00000220: 639f 5d3b 7a6e b43c a124 afbb 7382 cf3c
00000230: 7a74 803c 471c 8d3b 76b1 123c 5fa9 8e3c
00000240: 9efb c1bb dfdb 49bc 5553 a73b 4f14 b0ba
00000250: f718 cdbc 3789 56bb 4292 273c 8b28 78bc
00000260: 0c36 04bd 823c e7bc 1c3a 85bc 5057 9fbc
00000270: 428a bdbc 86ca cc3b bb80 893b 7312 173c
00000280: 0483 7dbc 4684 213c 0f08 93bc 20c5 77bc
00000290: e9c9 ee3b 0b33 87bc a67a 5e3c e532 103c
000002a0: 47c9 cebc c28d 373b 2458 8cbb b88f d4bc
000002b0: a11b 1c3b 79ff 80bc 062a ae38 c1a4 7dbc
000002c0: 9a91 eabb 6c91 65bb 4499 a0bb 22da 88bb
000002d0: 8d55 123c 6244 953b 5094 a73c 643d cebc
000002e0: 75d5 4abc ebbc eebc af66 883c 286c 3abb
000002f0: 895a aa3c d209 f3bc 686d dfbc ccbe 23bc
00000300: 8f1b 393c babc b43c 7ff9 17bc 0fd8 433b
00000310: b2a2 073b 77cd dcbb 3785 8dbb 5870 9cbc
00000320: 4a21 813c ace9 fabc 890e fd3b cc0f 8abc
00000330: b9d7 cebb c0eb bfbc 7a1b afbb 4257 fdbc
00000340: 6886 4fbc eb16 81bc 74a3 303c f27e cfbb
00000350: 0597 303b 3306 033d fec3 0cbc b24d f8bb
00000360: e35c 77bb 6bdd 8fbb b67f d5bb 885d 02bc
00000370: d3b7 3bbc 28b4 7fbc d33d 01bc dede cfbc
00000380: c2ae 5ebc 0849 20bb f682 bebc 5c23 83bc
00000390: ba9f 60bc 973b a53a d214 cd3b 9ffe d73b
000003a0: 3724 2d3c d137 583c e693 033c a35b 25bc
000003b0: 7419 813c cb8d fcbb 46f3 233c 8b59 86bc
000003c0: 8e80 8bbc d030 7fbb 7207 42bc fb45 8bbc
000003d0: 5175 90bc 2e8a acbc 4135 a3bc 9fc5 7fbc
000003e0: ef96 4abc 7199 2ebc f95e 08bd e53c 5abc
000003f0: 2ace 69bc 653c 06bd 4916 27bc fe9b 2abd
0.012639292 -0.001542825 0.008485036 -0.012904628 -0.024061628 -0.019782957 0.022538096 0.0046715266
0.0067406762 0.01233249 -0.0017841378 0.004599186 0.020076737 0.0075296434 0.00792956 -0.023327082
-0.0006899936 0.011098925 -0.023034528 0.008367777 -0.020481585 -0.03515947 0.00427771 -0.017926594
0.017017283 0.013434652 0.0064145387 0.009676779 -0.023345424 0.019206882 0.00792147 0.02623897
-0.0129408995 -0.013905981 0.022837263 0.0016299586 0.018893447 -0.015125948 -0.008317243 0.005129385
0.007264434 -0.018256275 -0.010245603 0.006315862 -0.0016167924 5.4928507e-05 0.007951744 0.0073533007
-0.0027195504 -0.0026995484 0.027650714 0.0022098424 -0.027936228 -0.0063372324 0.0008051265 -0.019711932
0.008491616 -0.018909438 -0.026457056 -0.019816859 -0.005619955 -0.01278802 -0.011088102 -0.014389133
-0.014421458 0.005148871 0.019251186 -0.0051109833 -0.013399666 0.013777098 -0.011848497 -0.015383529
-0.014657296 -0.021972816 0.007829806 -0.015922759 8.574018e-05 -0.021310467 -0.008710941 -0.018942665
-0.015987227 -0.02563913 -0.0056555793 -0.016435657 -0.029324962 -0.01948129 -0.033501137 -0.023262404
-0.031539686 -0.039162114 -0.022326713 -0.036863122 -0.0062949946 -0.008472219 -0.032421052 -0.00842378
-0.011733247 -0.028629793 -0.02458917 -0.007511114 -0.022306094 -0.008931659 -0.01797234 -0.035883427
-0.030452777 -0.008688964 -0.04237813 -0.00934479 -0.011783955 0.008853196 0.031520337 0.004053536
-0.008160497 -0.022359602 -0.0033082326 0.012729718 0.027045142 -0.01119124 0.0047977353 -0.012188713
0.00063815183 -0.0062696775 0.027242765 -0.00372965 0.007971316 0.012532385 -0.021841591 -0.0102932975
0.011883481 -0.0078412695 -0.024388518 0.0056619877 -0.001961391 0.016156673 -0.01481179 0.0045618014
0.0033816926 0.022025336 -0.0053449427 0.025330758 0.01568054 0.0043063494 0.008953443 0.017414747
-0.0059198877 -0.012320488 0.0051063695 -0.0013433787 -0.025036318 -0.0032735595 0.010227742 -0.015146385
-0.032278106 -0.028227095 -0.01626306 -0.019450814 -0.023137216 0.0062497286 0.004196254 0.009220707
-0.015473131 0.009858197 -0.017948179 -0.015122682 0.007287253 -0.016503831 0.013579046 0.008801197
-0.02524246 0.0028008078 -0.004282968 -0.025947437 0.002382018 -0.015746819 8.304794e-05 -0.015481175
-0.0071584703 -0.0035029305 -0.004901083 -0.004176394 0.00893153 0.004555271 0.020456463 -0.025175758
-0.012379994 -0.029142817 0.016650526 -0.0028445814 0.020795124 -0.029667769 -0.027273849 -0.00999422
0.011298074 0.022062648 -0.009275793 0.002988342 0.002069634 -0.0067383605 -0.004318859 -0.019096538
0.015762944 -0.030629002 0.00772268 -0.016853236 -0.0063123372 -0.023427844 -0.0053438516 -0.030925397
-0.012666322 -0.015757998 0.010781158 -0.0063322717 0.0026945483 0.031988334 -0.00859165 -0.0075776214
-0.0037744574 -0.0043904088 -0.0065154685 -0.00795687 -0.011457401 -0.015606917 -0.007888275 -0.025374826
-0.01359147 -0.0024457593 -0.023255806 -0.016008072 -0.013709957 0.001260626 0.0062585855 0.0065916325
0.010567716 0.013196901 0.008030867 -0.010092649 0.015759207 -0.0077073327 0.010006731 -0.01640012
-0.017029073 -0.0038939007 -0.011842595 -0.017001143 -0.017634066 -0.021061983 -0.019922854 -0.015611081
-0.012365087 -0.0106567005 -0.033293698 -0.013320182 -0.014270345 -0.03277244 -0.010198184 -0.041652672

ln1.bias f4 [16]
00000000: 8f71 753b 41a6 673c 9d8c 60bc dce3 0bbc
00000010: ffa8 933b 448e 60bc 78ca 1a3d 2a5f 02bd
00000020: 63c3 3ebc 71c9 00bd e1a1 c8bc 26e4 f7bc
00000030: 7da6 ea3c 176d cbbb c3fe 9e3c 73be bdbc
0.003745172 0.014138759 -0.0137054 -0.008538213 0.00450623 -0.013705794 0.037790745 -0.031829037
-0.0116432635 -0.03144211 -0.024491252 -0.030260157 0.02864384 -0.006208073 0.01940859 -0.023162102

batchnorm.weight f4 [16]
00000000: 2af9 783f b2f9 713f d867 673f 5e54 893f
00000010: c222 7c3f 1b5e 773f 7d79 723f a832 813f
00000020: 4cb8 783f 1b23 6d3f fac2 793f eed4 853f
00000030: bb20 673f 9cbf 7c3f a27e 6c3f 3c46 783f
0.97255194 0.9452163 0.9039283 1.0728872 0.98490536 0.9662797 0.94716626 1.0093584
0.97156215 0.9263169 0.97563136 1.0455606 0.9028432 0.9872987 0.92380726 0.9698217

batchnorm.bias f4 [16]
00000000: 0394 6cbc 71e4 133e e489 9fbe 3d66 89bb
00000010: 5c86 d53d 0d98 f9bd c6ca 043e 3820 08be
00000020: 5861 143e bf01 19bd fb9e 06bd f09a 30ba
00000030: 4074 893e 1bcf 3abe e66d 02be dd45 98bd
-0.014439586 0.14442612 -0.3115989 -0.004193096 0.10426018 -0.121872045 0.12967977 -0.1329354
0.14490259 -0.03735518 -0.03286646 -0.00067369547 0.26846504 -0.18243067 -0.12737235 -0.074352

batchnorm.running_mean f4 [16]
00000000: 8db2 b43f f257 3040 517f 9740 0400 0000
00000010: f1fc c33f fecd 523f 3e20 e53f 0400 0000
00000020: 037b 0040 7fa3 c53f c2d5 173f 0400 0000
00000030: 504b de3f 0400 0000 7002 1e41 fc68 633f
1.4116989 2.7553678 4.7342916 6e-45 1.5311567 0.8234557 1.7900465 6e-45
2.007508 1.544052 0.59310544 6e-45 1.7366734 6e-45 9.875595 0.8883207

batchnorm.running_var f4 [16]
00000000: e5f7 9b40 5a2e 9940 3ef9 0142 0400 0000
00000010: 4e92 4140 0c4f 5540 9f90 3140 0400 0000
00000020: 3801 2f40 5e92 2e41 0ed1 0240 0400 0000
00000030: 5db6 0240 0400 0000 2a0d aa42 29a6 3540
4.8740106 4.786908 32.4934 6e-45 3.0245547 3.3329496 2.774452 6e-45
2.7344494 10.910734 2.0440097 6e-45 2.0423806 6e-45 85.02571 2.8382666

ln2.weight f4 [5, 16]
00000000: e157 9bbd 21f8 96bd 153d 2ebd 1334 923e
00000010: 98e6 743c 5a93 743e b7dc 5b3c 492a 963e
00000020: 9c71 a43d 6c3c 3d3e c7a4 47bc 099e fb3d
00000030: 7e81 cb3d 0c80 7bbe da3b 003e 426f 083d
00000040: 986d 7e3d 3cd8 d83d f4d5 8c3d b76d 98be
00000050: c67c c0bd 20a2 82bd ecb9 ba3d 2cac d3bd
00000060: 85ac 11be be5b c9bd f132 85bd b80c 65be
00000070: 4abe 08be f140 b33d d29a 51bd 7b8c 10bd
00000080: f4db 2b3d 3649 0abd 67b2 823c cd25 7ebe
00000090: 2782 143c a522 273d 8f78 d43c 19be a93d
000000a0: af9e af3d c6bc 81bd af36 a73d 1030 8c3e
000000b0: 1770 b3bc 5e5c 683d 1aac 95bc fba1 533e
000000c0: a9cd 97ba 06d9 793d 0af5 113b 5415 81be
000000d0: 7def c03d e562 00bd aa62 dabd 4b62 babd
000000e0: aec6 873d d805 063e ddee 0d3e 5e09 873d
000000f0: cc2a 083e f836 73bd ec16 ab3d 254d 763d
00000100: 3f7f 8cbc 91ec 75bd 5254 44bd 8e3f d73d
00000110: 3f66 583d d32a 11be b669 b2bd 4d58 18be
00000120: 2cd0 dd3c 86ff 94bd 2bdf e438 9d1c e2bd
00000130: 6a2c be3c 196c e53d 0bd8 94bd e394 c6bd
-0.07585121 -0.073715456 -0.04253872 0.28555354 0.014947556 0.23884335 0.013419322 0.29329136
0.08029482 0.1848008 -0.012185282 0.12286002 0.09936808 -0.24560565 0.12522832 0.03330923
0.062116235 0.105881184 0.06876746 -0.29771206 -0.09398799 -0.06378579 0.09117493 -0.103355736
-0.14225967 -0.098319516 -0.06503857 -0.22368133 -0.1335384 0.08752621 -0.05117304 -0.035290223
0.04195781 -0.033761226 0.01595421 -0.24819107 0.009064234 0.040804524 0.025936393 0.082882114
0.08575188 -0.06334834 0.08164727 0.2738042 -0.021904035 0.056728713 -0.018270541 0.2066726
-0.0011581677 0.060997985 0.0022271299 -0.25211585 0.09420679 -0.031344313 -0.1066335 -0.09100779
0.06629692 0.13088167 0.1386065 0.065935835 0.13297576 -0.059378594 0.083539814 0.060132165
-0.01715052 -0.06004006 -0.047931977 0.10510169 0.052831884 -0.14176492 -0.08711569 -0.14877434
0.027076803 -0.072753 0.000109134555 -0.11040614 0.023214538 0.112022586 -0.072677694 -0.09696367

ln2.bias f4 [5]
00000000: c5a5 883f 5040 ae3f 1b27 1b3f fa34 143f
00000010: 6db3 aa3f
1.0675589 1.3613377 0.60606545 0.57893336 1.3336006

ln4.weight f4 [10, 49]
00000000: ec58 cebb 46c2 b0bd 35c1 d83d 0053 a2bc
00000010: 9f74 093e 33be adbc 2059 8ebd 010b f2bc
00000020: e90c e3bc bdd5 3dbd 1336 b63d 89fc e8bd
00000030: ebea 3f3d 5ad0 b63d a82f 093d 4321 a43d
00000040: 073b afbd 358f 853d 144a 373d d4e4 e83c
00000050: 378d ed3d 1757 f13d 09dc af3d 86f5 a0bc
00000060: a0c1 053e 704e c3bd be54 9fbb 975f d8bb
00000070: 0041 a33d 6d65 e4bd f266 d4bd 5c36 b4bd
00000080: 30f9 533a e8fa 9ebd 3860 edbd 85f0 80bd
00000090: fb9b 11be b2ab d6bd f9be 07be 6c8c 9fbd
000000a0: 39b8 8d3d 305e b83d 15a7 8d3d 1e6b 04be
000000b0: 1e94 f43d 1f93 ecbd 6eb1 713d c3be e43d
000000c0: 72b4 93bd c421 183e 9e3d e63d 0981 adbd
000000d0: cec4 983d 1a27 a23d c158 c03c 61af f03d
000000e0: ceb3 a0bd 9b27 febd cc46 a43d b02a abbc
000000f0: 8eba fabd 317e 093e 9d3e 9e3d e28b ef3d
00000100: 541f 9ebc 43b6 3bbd 91af 053b 8e84 b73d
00000110: e54b bc3d e12b ec3d 941d a1bd 734f cf3d
00000120: f376 c53d a8b2 19bd 2a3d f4bd 4425 3e3b
00000130: 2a7b eabd 2ed4 2abd b90c a3bc c744 81bd
00000140: a9d4 823d 1162 8bbd 55cb e53d 1d74 333d
00000150: a80d c53d a888 62bb 2ca5 923d 65ca 1fbb
00000160: d948 ca3d c626 49bd 2693 a13d 4a50 38bb
00000170: 5237 973c d041 d13d c1d9 20bd 3e39 88bd
00000180: 8cc4 bbbb 1d2b 58bd 594c da3c 92a3 c13d
00000190: 8d72 05be a9e6 8ab9 3793 143d 6023 33bd
000001a0: 22b1 5fbd dc6f cebd 4b74 143d 1e2a c6bd
000001b0: 3a84 e6bd a742 a1bc e9ed b13d fc6b 183d
000001c0: 455f 4abd aa16 363d 5391 01be 4a20 c53c
000001d0: 9718 ae3c 2768 9b3b 0998 68bd 1306 893d
000001e0: a76d 95bd 714c 5cbd 0199 af3d 0e41 b9bc
000001f0: 69d6 00bd 65dc 53bd 323f 5dbd ae54 d7bd
00000200: f984 4f3d 5c85 84bd 182b 3abd 39a8 ef3d
00000210: 10bd b03d 5fe9 8dbb 01ce 083e ee8d 303d
00000220: b94f acbd 757a fabd cfc5 0c3e 2fe9 d33d
00000230: 3d85 463d 279d 9f3d 0044 aabd 33fd c2bd
00000240: 63dc af3d b996 8e3d 6132 fabd bfc9 edbd
00000250: a18d d93c 8e0b e6bc 0dce 073e c0a2 8a3d
00000260: 55a3 ecbd 24d2 ec3d b412 f83d 3c43 2c3e
00000270: 62a5 a33c 5fc3 a2bd e1ab 20bd 2f62 01bd
00000280: a5f9 463e 5e23 90bd 6dbf 413e 0a35 b63c
00000290: 1d1d 03bd 914c 1cbc 26e6 a23d b0aa 40bd
000002a0: d093 0f3e 031e bbbc 6e8c 51bc 7e27 0fbd
000002b0: 177d c3bd 7a94 fcbc da65 833c 206c 95bd
000002c0: 23f4 453d c202 dc3c aeac ab3d 6eca d33d
000002d0: 0a99 9f3d 0288 2bbd c87a 5f3d 61f3 f73b
000002e0: 04f0 84bd 598d 0dbe 2829 a8bd 7a77 86bd
000002f0: 00cb bfbd c1e9 bd3d be50 00be 6820 103d
00000300: 89ec e63c 45ee cebd 376c b53b 97b2 043d
00000310: 3a6f a03c 4476 a5bc 409e 023e b39f c13d
00000320: dc22 d0bd b947 823d adfd 843d 81d4 143d
00000330: fa11 4c3c f6b6 b9bd 596a b23d b1e3 a03d
00000340: 9ce0 043e 31a6 643d dd13 7abd 8134 cebd
00000350: 9276 debc c321 0cbe 1913 7fbd 5163 c43d
00000360: 2626 82bd 9dc6 61bc 656d 89bd b570 0f3e
00000370: 73b0 98bd 9552 c53d fa8b e73d 8ec3 ebbd
00000380: 413e debd e0a2 823d 1e69 483c fd50 d1bd
00000390: cd27 dabd 266b ccbd ee57 48bd 38ab 9c3d
000003a0: e99e a43d bb01 8e3d cfb4 983d 6dcc 2abd
000003b0: e06e d9bd 7e07 65bc 85ba 613d ed12 93bd
000003c0: 50d8 c5bc c4b5 eabc 59b3 bbbd d64e 0ebe
000003d0: 9338 83bd a63b 033e 2102 b7bd c59a c73d
000003e0: fa6e 8ebd 47a8 acbd 2065 05bd 1c14 843c
000003f0: 5c12 36bd 7300 edbd 6d18 193c c0f4 c0bd
-0.0062972214 -0.08630805 0.10583726 -0.019814968 0.13423394 -0.021208858 -0.06950593 -0.029546263
-0.027716117 -0.046346415 0.088970326 -0.11376292 0.046854895 0.08926459 0.033492714 0.08014157
-0.085561804 0.06521455 0.04474838 0.028429426 0.115992 0.11784189 0.0858689 -0.019648325
0.13062143 -0.09536445 -0.004862397 -0.006603192 0.07971382 -0.11152158 -0.10371198 -0.08799431
0.0008086143 -0.077627 -0.11590618 -0.062958755 -0.14219658 -0.10481967 -0.13256444 -0.07790455
0.06919903 0.0900234 0.06916634 -0.12931487 0.119423136 -0.115514986 0.0590071 0.111691974
-0.072121516 0.1485663 0.11242221 -0.08471877 0.074594125 0.07917614 0.023479821 0.11752201
-0.07846795 -0.12409898 0.08021316 -0.020894378 -0.12242614 0.13427044 0.07726786 0.116966024
-0.019302048 -0.045828115 0.0020398835 0.0896083 0.09194163 0.11531807 -0.0786697 0.101225756
0.096418284 -0.037523896 -0.119257286 0.0029013911 -0.11449273 -0.041706257 -0.019903528 -0.06311946
0.06388218 -0.06805814 0.11220423 0.043811906 0.09621745 -0.0034566317 0.0716041 -0.002438211
0.09877176 -0.049109243 0.078893945 -0.0028124028 0.018458996 0.10217631 -0.039270166 -0.06651543
-0.0057302173 -0.05277549 0.026647734 0.09455027 -0.13031979 -0.00026493266 0.036273208 -0.043734908
-0.054612286 -0.10079929 0.036243718 -0.09676002 -0.11255689 -0.019685103 0.08687956 0.037212357
-0.049407262 0.044455208 -0.12653093 0.024063248 0.02125196 0.0047426405 -0.056785617 0.06690612
-0.07296305 -0.053783838 0.08574105 -0.022614028 -0.031454477 -0.051723856 -0.054015346 -0.10514198
0.050663922 -0.06470749 -0.045451254 0.11702008 0.08629811 -0.0043307985 0.13359834 0.043104105
-0.084136434 -0.12230388 0.13747333 0.103472106 0.04846691 0.07793646 -0.08313751 -0.0952095
0.08586957 0.06962342 -0.1221664 -0.11610746 0.026556792 -0.028081682 0.13262196 0.06769323
-0.115545906 0.11563519 0.12112942 0.16822523 0.019976322 -0.0794742 -0.039226416 -0.031587776
0.1943117 -0.07037996 0.1892068 0.022242088 -0.032010186 -0.009539739 0.079540536 -0.04703778
0.1402123 -0.02284146 -0.012789829 -0.034949772 -0.09545343 -0.030832518 0.016039778 -0.07296014
0.04832853 0.026856784 0.083825454 0.10341345 0.07792862 -0.041877754 0.054560453 0.007566855
-0.06491092 -0.13823451 -0.08210975 -0.06565757 -0.09364891 0.09273101 -0.125308 0.035187155
0.02818896 -0.1010404 0.005536582 0.03239688 0.019584287 -0.020197995 0.1275568 0.09454288
-0.10162899 0.06361336 0.06493697 0.036335472 0.012455458 -0.090681 0.087116905 0.07855929
0.12976307 0.055822555 -0.0610541 -0.10068608 -0.027156148 -0.13684754 -0.062274072 0.095892556
-0.063549325 -0.013780263 -0.067103185 0.14007838 -0.0745553 0.09634892 0.11305995 -0.115119085
-0.10851718 0.06378722 0.012232093 -0.102205254 -0.10652123 -0.099813744 -0.04891198 0.07649845
0.08038122 0.06933924 0.074563615 -0.041698862 -0.10616851 -0.013978837 0.05510952 -0.07181344
-0.024150997 -0.028651126 -0.09165067 -0.13897261 -0.06407275 0.12815723 -0.08935953 0.09746317
-0.06954761 -0.08430534 -0.032567143 0.01612287 -0.044451103 -0.11572351 0.0093442025 -0.09421682

ln4.bias f4 [10]
00000000: 4256 9bbd 2fad 9abc d273 a0bd 02d9 ecbc
00000010: e9a8 06bd 8bf7 f6bd 309b 1a3e 60e8 973d
00000020: 516d a9bd 2783 e23d
-0.07584812 -0.018881408 -0.07834591 -0.028912071 -0.03287593 -0.12058934 0.15098262 0.07417369
-0.082728036 0.110601716
