DL_experiments/models_chp/model_1_900epoch.pth (torch, 257487 bytes, 31 tensors)

conv1.0.weight f4 [16, 3, 3, 3]
00000000: e45b aabd c905 c4bd 0d0e 0ebd ea75 1ebe
00000010: da70 023e 16bb 583e 2610 4dbd 9cc4 cb3b
00000020: c78d 233e 2cef 3ebe 70e2 183e 2359 d83d
00000030: 0550 333e ca0c fa3d d40f a1bd 3869 78bd
00000040: e73f 1bbe 23a6 dd3d 2a19 45be 412c 96bd
00000050: bbf0 e43d d010 d83c f32c 283e 241f 873d
00000060: d31c 6cbd b14e 013e c195 37be f21f 5abd
00000070: 9485 8abd 89d3 8cbd a20d 34bd 2796 c63d
00000080: fc23 39be 93cd c03d 5f79 6fbd 8f18 783b
00000090: 8756 3dbe 5c6e 47be f78c 003e f036 aa3d
000000a0: a21a 64bd 5ec4 d2bd d566 f93d 79ab 103e
000000b0: e74e a6bd e7b6 18be bae7 27be ca1e fcbd
000000c0: fb25 383e 5587 053e 9229 09be 9dd7 82bb
000000d0: f556 8d3d 33fe f03d 6193 023d 1e4c 0a3e
000000e0: 4bbe 3b3e f835 acbd 8915 7abd 89a3 93bd
000000f0: 0be4 473e 44be 063e fa1d c7bd 80f0 37bd
00000100: c34c a7bc c632 3f3e 321a 533d 3a4f ee3d
00000110: 7a42 863d 2960 d33d 20c8 213e eed8 d8bd
00000120: 1e06 063d f9ef 283d 1580 90bd 70fd 1d3e
00000130: c996 84bd 7db9 16bd bfbf 383e 394a a1bd
00000140: 7b31 9fbc bd49 d03c b4a5 d13c ca0d 733d
00000150: fc5e 8cbd 8722 483e d63f f1bd bd5d fd3d
00000160: 9355 5ebc eaa1 333e bc2e 813b 1bc7 43bd
00000170: fa9f 1ebe d1ec 473e eb30 213d 4685 ba3d
00000180: 5ff1 f1bc 41ce 073e e42b 343d 03c0 17be
00000190: 7526 1f3e f8bd 023e 11e1 23bd c457 0a3e
000001a0: 34a5 933d 0f40 3f3e 8314 c83c 58f7 5fbd
000001b0: 368a a2bd 2834 08be 0d5a ebbc 26b9 c43d
000001c0: 8331 af3c faf8 fbbd 8faf 103e 2c22 cb3d
000001d0: c920 5f3d cb52 0f3e 187d 19be 7b14 26be
000001e0: f505 923d 0cb1 7f3d 65b8 22be 0204 f3bd
000001f0: 5062 593d efb6 21be 4f52 163e 6153 17be
00000200: 4592 9b3d e14b 34be dc6c a6bd e6a8 d63d
00000210: fd17 19be 7346 21be 7a98 19be 8064 1c3d
00000220: bdc6 3c3d acfa 0d3c c0dd 8f3d 0182 bdbd
00000230: cc6a 3a3e ec25 8e3d fce4 143e 018a 4bbc
00000240: a5e2 893c 9605 243e 9f80 b83d eff9 1c3d
00000250: b0fd 2e3e 5780 8d3d 302a 913c 711a f6bd
00000260: 3a68 18be b524 2b3d f6ce 24be 43bd 023e
00000270: c849 5b3d 9318 f7bc bdac d13d ee8b a13d
00000280: 6b0f 563e a849 d93d 24bb 3abe b982 223e
00000290: 74e4 bbbc 9ca1 d23d f182 05bc eac0 9bbd
000002a0: 0eae 4a3d 6841 0dbe 72f3 403c 69f7 81bd
000002b0: 3056 e0bd 8337 313e 10b8 c03d 8311 21be
000002c0: cf2a 7d3c 4082 c03c 2b3d 2cbd 77aa 48bd
000002d0: 0df8 9c3d f3a1 993d 6d96 103d a432 823d
000002e0: ea92 3abe 9660 37be 6b45 02bd d987 1fbe
000002f0: 52b1 52be 0a3a 51be 56ee 96bd 8dcf 66bd
00000300: 89d3 d73c ac50 1dbe c282 dcbd a6d3 f5bc
00000310: 4c45 e13d 40eb c6bc ae5f 31be a23f 97bd
00000320: 851b a73c bd3a a23d 0a8b d73d cb91 49bd
00000330: b0ed f73d dde3 36be 067a 483d 101b 043e
00000340: 7e91 83bd 69de 3bbe f7a7 1a3e 16df 10be
00000350: ecce 473e a3da 39bd 4c8c db3d 2df2 82bd
00000360: f4f4 29be 58ee 093e d19e 1d3d ea0f dc3d
00000370: d235 043e bb60 49be 9913 34be ce5e 62be
00000380: b220 4bbe a719 42be c100 f4bd 521a 3abd
00000390: b832 133e 0678 a6bc d3e5 39bd fcbd 54bd
000003a0: 50ed 2dbc 21ca 4c3d 8ff0 82bd cbf6 323e
000003b0: b368 233e ae64 46bd 3e53 853d ae37 083e
000003c0: 8283 13be 1036 c63d 8823 1cbe 7d2e dcb9
000003d0: b29e a83c bfd6 613d 4c1f f4bd 1884 333e
000003e0: fe22 cabd 088e 18be 817c 18bd b7f0 57bc
000003f0: 90e6 1d3e 2ce8 423e d282 54bc 3a8f 183e
-0.08318308 -0.09571416 -0.03468137 -0.15474668 0.12738362 0.21165118 -0.05006423 0.006218506
0.15972053 -0.18645924 0.14930129 0.105638765 0.17510994 0.122094706 -0.07864347 -0.06064722
-0.15161096 0.10822704 -0.1924788 -0.073326595 0.11178728 0.026375204 0.16423397 0.065977365
-0.057644676 0.12627675 -0.1792822 -0.05325312 -0.06763759 -0.06876285 -0.043958314 0.09696608
-0.18080133 0.0941421 -0.058465358 0.0037856435 -0.18490039 -0.19475693 0.12553774 0.0831126
-0.05568946 -0.1029136 0.12177817 0.14127912 -0.08120518 -0.14913522 -0.1639699 -0.1231056
0.17983238 0.13039906 -0.13394764 -0.0039929883 0.06901351 0.11767235 0.031878833 0.13505599
0.1833431 -0.08408731 -0.061055694 -0.07208926 0.19520585 0.13158518 -0.097225145 -0.044907093
-0.020422345 0.18671712 0.051538654 0.11636205 0.06555648 0.103210755 0.15798998 -0.10588251
0.032720678 0.04124448 -0.0705568 0.1542871 -0.064740725 -0.03679799 0.18041895 -0.07875485
-0.019432774 0.025425786 0.025591709 0.059339322 -0.06854054 0.19544421 -0.11779754 0.12371395
-0.013570207 0.17542234 0.0039423387 -0.047797304 -0.15490714 0.19523932 0.039353292 0.09107451
-0.02953404 0.13262273 0.04398717 -0.1481934 0.15542014 0.1276778 -0.040009562 0.13510042
0.07209244 0.1867678 0.024423843 -0.054679245 -0.07936518 -0.13301146 -0.028729463 0.09605627
0.021385914 -0.12303348 0.1412947 0.09918627 0.054474626 0.13996427 -0.14989126 -0.1621875
0.071300425 0.062424704 -0.15890653 -0.11865999 0.053072274 -0.1579244 0.14679836 -0.147779
0.07596258 -0.1760707 -0.08126232 0.104814336 -0.14950557 -0.1574953 -0.14999571 0.03818178
0.04608797 0.008665722 0.07024717 -0.09253312 0.18204802 0.06940827 0.14540476 -0.012423039
0.016831705 0.16017756 0.090089075 0.038324293 0.17088962 0.069092445 0.017720312 -0.12016762
-0.1488351 0.041783053 -0.16094574 0.1276751 0.05353716 -0.030163085 0.10238025 0.078880176
0.20904319 0.10609752 -0.18235451 0.15870179 -0.022936083 0.10284731 -0.008148895 -0.07605155
0.049482398 -0.13794482 0.011776792 -0.06346018 -0.10953939 0.17306332 0.09410107 -0.15729336
0.015452101 0.023499608 -0.04205052 -0.048990693 0.076644994 0.075015925 0.035299707 0.06357315
-0.18220106 -0.17907938 -0.031804483 -0.15579166 -0.20575455 -0.20432296 -0.07369678 -0.05635028
0.026345985 -0.15362805 -0.107671276 -0.030008148 0.109995455 -0.024282098 -0.17321655 -0.07385184
0.020398865 0.0792136 0.105245665 -0.049211305 0.12105882 -0.1786036 0.048944496 0.12900949
-0.06424235 -0.18346561 0.15103136 -0.141476 0.19512528 -0.045374524 0.10720119 -0.063938476
-0.16597348 0.13469827 0.038481537 0.10745223 0.12911156 -0.19665806 -0.17585601 -0.22106478
-0.19836691 -0.18955098 -0.11914206 -0.045435257 0.14374816 -0.020320904 -0.045385193 -0.051938996
-0.010615662 0.049997453 -0.06393539 0.17476957 0.15957908 -0.04843586 0.06510018 0.1330249
-0.14405635 0.0967828 -0.15247929 -0.00041996306 0.020583484 0.05513644 -0.11920032 0.17530859
-0.098699555 -0.1489793 -0.03722811 -0.0131799495 0.15419984 0.19033879 -0.012970643 0.14898387

conv1.0.bias f4 [16]
00000000: 865f f3bd 52a1 123e 75d3 fe3d b5f7 d1bb
00000010: e4ad 023e 8e1b efbc eee8 0b3e c117 153e
00000020: e519 0c3e a3af f13d 2c28 953d 2d44 c03d
00000030: 6b94 20be f627 1c3d e867 9d3d 7e7e a2bd
-0.11883454 0.14319351 0.12442676 -0.006407703 0.12761647 -0.029187944 0.13663074 0.14559843
0.13681753 0.11801078 0.07283053 0.093880035 -0.15681617 0.038124047 0.07685834 -0.07934283

conv1.2.weight f4 [16]
00000000: 2ca2 783f ecb9 7f3f 76a2 7d3f e952 803f
00000010: 65fa 7f3f e159 813f b7d6 7d3f a605 813f
00000020: 7bf3 803f 2e0c 813f 23a3 783f 1f73 7f3f
00000030: e2ff 7f3f e819 803f b9fc 7e3f 6a12 853f
0.97122455 0.9989307 0.9907602 1.0025302 0.99991447 1.0105554 0.99155754 1.0079849
1.0074304 1.0081842 0.97123927 0.99785036 0.9999982 1.0007906 0.99604374 1.0396245

conv1.2.bias f4 [16]
00000000: fb01 00bc 0be1 483c ba86 993b a320 443a
00000010: 798e 27bc 3249 0dbd b92e 8fbc 21e3 823b
00000020: d77c 1a3b 418b cdbb b3bd 86bc 0a90 1cbc
00000030: 1877 5d3c 0520 273a dd99 4dbb c488 9bbc
-0.007812972 0.012260686 0.00468525 0.000748167 -0.010226839 -0.034493633 -0.017478334 0.003994361
0.0023572946 -0.006272704 -0.016447878 -0.009555826 0.013517164 0.0006375316 -0.0031372227 -0.018986113

conv1.2.running_mean f4 [16]
00000000: 14da 533d 7ac6 163d 06b4 133f 5f6c fc3e
00000010: f590 8b3c ed56 083f 36cd c03c 9e81 f53c
00000020: 5244 c93c 28cf 093d 4550 e13e d0db c23c
00000030: 6863 572d 8bc1 fb3e 9c10 483b 47c7 fb3e
0.051721647 0.036810376 0.5769657 0.4930143 0.017036894 0.5325764 0.023535352 0.029969033
0.02456871 0.033644825 0.44006553 0.023786455 1.2243408e-11 0.491711 0.0030527478 0.49175474

conv1.2.running_var f4 [16]
00000000: 76a4 ca3b 8f62 863b 20b3 aa3d 6819 ce3d
00000010: 4b2d b33a b8c9 f83d 8e1c fd3a de57 223b
00000020: 06d5 0b3b 0429 423b 9232 613d d0f2 043b
00000030: 9a98 1729 9373 b23d ccf9 2139 b54e ef3d
0.006184156 0.0041011046 0.08334947 0.100634396 0.0013670115 0.1214785 0.0019310878 0.0024771611
0.0021336689 0.0029626498 0.05497987 0.002028633 3.3661096e-14 0.0871345 0.00015447213 0.11684934

conv2.0.weight f4 [32, 16, 3, 3]
00000000: 94b1 df3c 4d8d 80bd c385 1abd 5101 82bc
00000010: 3c58 823b 31a6 62bd 2153 9e3d c9db 75bb
00000020: c72e 88bd 7b0c 063d 9ca2 803d 18d0 90bd
00000030: 9d68 243d 669e 03bd f92c bfbc d3fd 153d
00000040: 2844 a7bd d6c3 8f3c 0fcb 8abd e187 503c
00000050: 9b3d 80bd 8cd3 913c e6a8 18bd c9a0 3d3d
00000060: f88c 523d ac71 733d 9ffd 29bc e1b2 b1bd
00000070: d4c0 0e3c 2741 06bd 426e 273c 093c 77bd
00000080: cfe1 d1bc e50d db3c 6536 f1bc 7de5 eebc
00000090: 5301 72bd 236c bebc 6c30 36bd ed02 ba3c
000000a0: 36b7 773d 679e 3f3d 794e 0a3c cf7e 3c3d
000000b0: 4498 3c3d ff98 853c e276 cebb ea68 3d3d
000000c0: 0310 b0bd c3b3 afbd b925 07bd 803b bcbd
000000d0: 12f6 433d f9d4 94bc 5109 00bd 365f e7bc
000000e0: 75b7 03bc c210 853d 2a2b 343d 1030 a4bc
000000f0: 819a 193d 2d99 19bd 2788 c13d 41b7 ae3d
00000100: 565c 963d 299d d0bc dbe4 18bd c46f 043d
00000110: 36eb 503d 37bb e43b f5b2 123d b7c2 07bd
00000120: ea18 bf3c e775 a83d 7a7e 193c bc27 7fbd
00000130: 2cbb 513d 32f2 f33b a17b b13d 48f8 6cbd
00000140: 7903 a33d b667 25bd 31e7 a33d f2ba 863d
00000150: 3dbe 433d d3fc 843c 2be9 a4bc a134 cebc
00000160: 7f6c 32bd db8d 863d eebf 9fbc 3f13 b9bd
00000170: 6e4a 6c3d f45c f73c 690d 1e3d 4c59 f1ba
00000180: b655 a5bd 7966 d1bd 8863 9cbd 3ce4 393d
00000190: 7a98 12bd 030d 863b 3ae7 3d3d 1211 d3bc
000001a0: a549 a63d ef27 b73a 5bed 27bc 446f c23c
000001b0: 848b 4b3d 9cc3 8d3d 709b 173d 7b14 3cbc
000001c0: 6ead 9e3d 74ac 603c ea92 99bb 782e 8b3d
000001d0: 2e98 5dbc f31d 5bbd ebde 9cbc f58e 36bd
000001e0: 5bf7 6bbc 7b8d 93bd 4fdd 6f3c 8d28 f6bc
000001f0: 260f a3bd 00f8 40bd fc1a a4bb 5454 7a3d
00000200: d470 d23b cf9d bebc 3b7b a0bc b8ca 58bc
00000210: 64f0 c5bb 1cf6 a63c 6088 a33c 778c aebd
00000220: e243 d1bd ef60 b2bd 5ee2 283d 91ad f93c
00000230: 615b b23b b384 d83c 3fbd acbd ecad 223d
00000240: 55a8 583d 7493 98bd 4416 f73c ba07 903d
00000250: 730f 353d fb04 d53c 00fa 7bbd 3227 cbbc
00000260: bfb0 8e3c 2316 b53d 02ed 073c 94be 983c
00000270: 9488 38bd a59f 813d 5e22 2dbd 66cf 0e3c
00000280: ba26 15bc 8e88 b23c b88e dc3b d71a 99bd
00000290: 10ac 44bc b0f0 9d3d 8911 7ebd 6ac6 933b
000002a0: 131b 45bd 1446 5fbd aba0 2fbd fc89 b4bd
000002b0: a962 8bbd ce00 2dbd 7938 8c3d d500 823d
000002c0: d59b 783d 5512 63bd 199b 833d 747e bc3c
000002d0: ab66 bebc f14b b8bd cb05 d4bd 575c 273c
000002e0: e763 c8bd ac48 023d 48ce 1fbd a1ab a63b
000002f0: ff38 07be d895 a63c bd45 70bd 2f31 2abc
00000300: 943f 85bd c030 4dbd 69dd 57bd 769b 353c
00000310: 34bf aa3b 2f4a a7bd 66db 633d 5c9a 7b3d
00000320: 58e0 ac3d c8c4 3bbd d08c 9e3c f091 7c3d
00000330: 9fbd e93b 7167 92bc 609f 9cbc b9d1 403d
00000340: 59f6 013c ebc2 903c 9997 c93c 41db 28bd
00000350: 57e7 b23d 99e0 e9bc b32c b53d 90d4 cf3d
00000360: 9e44 3c3d 2b58 31bd 58fe 133c c697 3cbc
00000370: 4365 9fbc 55b2 27bd 3ba1 52bd 9fc7 24bc
00000380: 543b 663d 53d6 ed3c b9e8 523d 98ba 2cbd
00000390: b9d6 b1bd d742 faba 1e9e cebc ddc1 4b3d
000003a0: 0b48 37bd 347d a13d 1952 72bd 3241 7bbd
000003b0: d95b 42bd e6af a4bd 4f83 293c 9d75 dd3b
000003c0: 5f2d c3bd 9a32 b83c 34c3 fdbd 6a68 b93b
000003d0: e6f9 273b e7bd 823d 0c73 e93c 77b8 d9bb
000003e0: 059e 3ebc 8e61 72bd 27b5 013d 4980 44bb
000003f0: 42ef ac3c 5b56 91bd 4f38 2b3c 038f 3f3d
0.027306356 -0.06276951 -0.03772522 -0.015869768 0.0039778035 -0.055334274 0.07730699 -0.0037515035
-0.06649547 0.032726746 0.06281015 -0.07070941 0.04013883 -0.032133482 -0.023336874 0.03661902
-0.08167297 0.017549437 -0.067770116 0.012727709 -0.0626175 0.017801069 -0.03727045 0.046295915
0.05140397 0.059434578 -0.010375409 -0.086766966 0.008712966 -0.032776978 0.010219159 -0.06035999
-0.02562037 0.026740024 -0.029444883 -0.029162163 -0.059083294 -0.023244923 -0.044479772 0.022706473
0.060477458 0.046781924 0.008441561 0.04601937 0.04604365 0.016308306 -0.006300793 0.046242632
-0.08596804 -0.08579209 -0.03299496 -0.09191036 0.047842093 -0.01816796 -0.031258885 -0.028243642
-0.008039345 0.06497337 0.043986477 -0.02004245 0.037500862 -0.037499595 0.09449797 0.08531047
0.073418304 -0.025465565 -0.03732763 0.03233315 0.051005565 0.0069803256 0.035815198 -0.03314468
0.02332731 0.08225613 0.009368533 -0.062293753 0.05120389 0.0074446434 0.086661585 -0.057853967
0.07959647 -0.04038211 0.08003081 0.06578626 0.047788847 0.016233837 -0.020130714 -0.02517158
-0.0435605 0.065700255 -0.019500699 -0.09036874 0.05768817 0.03019569 0.038587008 -0.0018413453
-0.08072989 -0.10224623 -0.076361716 0.045383677 -0.035789944 0.0040909066 0.046363093 -0.025764976
0.08119515 0.0013973693 -0.010249461 0.023734696 0.0496936 0.06922075 0.03701347 -0.011479492
0.07747923 0.013712991 -0.004686703 0.067959726 -0.013525052 -0.05349536 -0.019149264 -0.04456993
-0.014402236 -0.0720472 0.014640166 -0.030048633 -0.07961874 -0.04711151 -0.0050080996 0.061115578
0.0064221416 -0.023268608 -0.01959001 -0.013231926 -0.0060406197 0.020381026 0.01996249 -0.08522885
-0.10218026 -0.08709895 0.041231506 0.03047827 0.005443022 0.026430463 -0.08434533 0.039716646
0.05289491 -0.074499995 0.030161984 0.07032724 0.044204187 0.026003351 -0.061517715 -0.024798963
0.017418263 0.08842113 0.008296253 0.018645562 -0.045052126 0.06329278 -0.042269103 0.00871644
-0.009103471 0.02179363 0.0067308806 -0.074758224 -0.0120039135 0.07711923 -0.06202844 0.004509737
-0.048121523 -0.05451019 -0.042877834 -0.08815381 -0.06805927 -0.042237096 0.06846709 0.06347815
0.060695488 -0.055437405 0.06426067 0.023009516 -0.023242315 -0.0899886 -0.103526674 0.010214887
-0.0978468 0.031807587 -0.039015085 0.0050863777 -0.13205336 0.020335123 -0.058660258 -0.010387703
-0.06506267 -0.05009532 -0.052701388 0.011084428 0.0052107815 -0.08168446 0.055629157 0.061426505
0.08441228 -0.045841962 0.019354254 0.061662614 0.0071332003 -0.01787159 -0.019118965 0.047075007
0.007932269 0.01767107 0.02460842 -0.04122472 0.08735531 -0.02854948 0.08846416 0.10147965
0.045963876 -0.043296974 0.009032808 -0.011510795 -0.019457465 -0.040941555 -0.051423293 -0.010057359
0.056208923 0.029032862 0.051491473 -0.042170137 -0.08683533 -0.0019093406 -0.02522188 0.04974543
-0.04474644 0.07885209 -0.059160326 -0.061341472 -0.047450874 -0.080413625 0.010346248 0.0067584054
-0.09530138 0.022485066 -0.12390748 0.005658199 0.0025631129 0.06383877 0.028497241 -0.0066443044
-0.0116343545 -0.059175067 0.0316669 -0.002998369 0.02111018 -0.07096549 0.010450437 0.046767246

conv2.0.bias f4 [32]
00000000: 8c1c 2e3d 4eeb 3a3d 0099 12bd e61a d03d
00000010: 9b06 22bd 49c9 9fbd 4059 823d f104 63bb
00000020: 0691 463c 6cf4 1a3c 2453 6b3d 743d 413b
00000030: 8b72 a43c 23bc 06bd 064c eabb 899e 3bbd
00000040: ad3c 65bd cbd3 723c 473a 97bc bc9a 183b
00000050: 1b25 d23c ba72 ba3d 5832 0c3d 526f 263c
00000060: 4c46 d23c 042e 973d 1764 6bbc d8b8 7dbc
00000070: 7c63 a93c 14a6 34bc c1b9 37bd 325a a33d
0.042507693 0.04563456 -0.035790443 0.101613805 -0.03955708 -0.07802064 0.06364679 -0.0034640396
0.012119537 0.009457689 0.057452336 0.0029486092 0.02007415 -0.032894265 -0.007150176 -0.045805488
-0.055966068 0.014821003 -0.018460406 0.0023285588 0.025652459 0.091039136 0.0342277 0.010158377
0.025668286 0.07381824 -0.014367125 -0.015485965 0.02067732 -0.011025924 -0.044854883 0.07976188

conv2.2.weight f4 [32]
00000000: 0781 803f 08a3 813f acec 803f 233e 7e3f
00000010: c755 7c3f 1b69 7e3f 3254 803f 9824 7f3f
00000020: 097c 803f 29d6 7e3f 68a9 7e3f 5eb4 7f3f
00000030: 447f 7d3f 4dbd 7a3f 5af8 803f 8d87 7f3f
00000040: ab44 803f 07f2 7f3f 3ba6 7d3f b695 813f
00000050: 9374 7e3f 85b9 7f3f 7644 813f 7cb4 823f
00000060: cb65 813f ff90 803f 88cb 7d3f 3196 7e3f
00000070: 6cf9 813f ff6f 7f3f b07a 7e3f 6432 7e3f
1.0039376 1.0127878 1.0072227 0.99313563 0.98568386 0.9937913 1.0025694 0.9966521
1.0037853 0.9954553 0.99477243 0.99884593 0.99022317 0.979451 1.0075791 0.9981621
1.0020956 0.9997868 0.9908177 1.0123813 0.9939663 0.99892455 1.0099018 1.021133
1.010919 1.0044249 0.9913869 0.99447924 1.0154243 0.9978027 0.99405956 0.9929564

conv2.2.bias f4 [32]
00000000: 8ea3 b3ba 7a1c 1ebc e2dd 92ba 935d e73b
00000010: 29e8 aebc 8e7e 02bc 71d2 bcbc 7e6e 123c
00000020: 6158 36bc fba9 b9bc 09eb b2ba 37ef 3ebc
00000030: ce50 50bb 6d67 093c 3b9e 5e3b f857 b2bb
00000040: 5757 e7bb ba4e 44bc 2c37 73bc 7402 9cbb
00000050: a349 b03b 9e0a 0e3c d754 0bbc befa 20bc
00000060: eea4 21bc 7b86 1ebc c9a1 00bc 7d31 ccbb
00000070: 525a e73a cf51 7f3a 300a 0c3b fb6c 25bb
-0.0013705359 -0.009650344 -0.0011205042 0.0070607155 -0.021350937 -0.007964743 -0.023049565 0.008937476
-0.01112947 -0.02266406 -0.0013650368 -0.011653713 -0.0031786445 0.008386475 0.0033968824 -0.0054426156
-0.0070599723 -0.0119816605 -0.014844697 -0.0047610346 0.005379872 0.0086695235 -0.008504114 -0.009825407
-0.009865982 -0.009675617 -0.007851073 -0.0062314854 0.0017650819 0.00097396685 0.0021368377 -0.002524196

conv2.2.running_mean f4 [32]
00000000: 2ab5 493f 828d 123f 981d 043f a9e8 353f
00000010: 3b52 033f 948b 523e 926a c53e 6255 8a3e
00000020: be8c 093f 1af4 0e3f f148 4a3e 46b1 253f
00000030: 8129 233e efad 803e f0ca d73e 7e94 ac3e
00000040: 8b3b 743e d0cc 153f 4959 213f 7fea 7e3e
00000050: e44c ba3e 400c 363f bc1b d43e 7010 6a3e
00000060: 7392 183f 1a28 1a3f d13b e13e 95c3 af3e
00000070: 0a5a 133e 5897 043f bb82 5b3e 1baf c43e
0.7879206 0.57247174 0.51607656 0.71058136 0.5129735 0.20561057 0.3855787 0.27018267
0.5373038 0.5584122 0.19754387 0.6472362 0.15933801 0.251327 0.42147017 0.3370704
0.23850839 0.58515644 0.63026863 0.2489414 0.36386788 0.7111244 0.4142741 0.22857833
0.59598464 0.6021744 0.4399095 0.34328905 0.14389816 0.5179343 0.21436588 0.38414845

conv2.2.running_var f4 [32]
00000000: 9b65 af3f 9146 333f f596 123f ae3d 903f
00000010: e29c bc3e 779d 2b3e 0e19 a53e b989 0c3e
00000020: 2f72 283f 0b24 a83e cf87 c23d 5449 0d3f
00000030: f393 cb3d 4c75 1b3e 7f40 d13e 17ad 923e
00000040: 011a be3d afe6 323f c97d 4e3f 9d6a 263e
00000050: 6fa5 af3e e982 833f 927b cf3e 6630 0e3e
00000060: 4da4 323f aa89 ef3e 9bd9 803e e2e4 853e
00000070: a961 853d d190 093f 4d3d 1c3e 478d 383e
1.3702883 0.7002955 0.5726159 1.1268823 0.36838442 0.16759287 0.32245678 0.13724412
0.6579923 0.3284 0.0949856 0.55190015 0.099403284 0.15181464 0.4086952 0.28647682
0.092823036 0.69883245 0.8066068 0.16251607 0.34305903 1.0274326 0.40523964 0.1388565
0.69781953 0.46784717 0.2516602 0.26151186 0.06512768 0.537366 0.1525776 0.18022643

conv3.0.weight f4 [64, 32, 3, 3]
00000000: 5023 b1bc 327e 70bb 8cc3 b93c 60eb 02bd
00000010: 9082 a4bc 02f4 04bd 10e7 2a39 ecc0 24bd
00000020: 8717 fabc 940f 42bd 0be5 3abc bbb5 073d
00000030: ae22 6f3c 136e bb3c 54d4 403d 90f0 7fbd
00000040: 597d d5bc 193d 313b df15 833d f0f0 08bd
00000050: 04a3 c93c 82f8 603d 3b6f bbbc f972 a4bc
00000060: 2a28 53bb a85f 073d 8e62 6b3d 1fed fd3c
00000070: 0413 23bc b52e bdbb 699f 0abd 72ec 733b
00000080: 6409 15bd 9c8c b2bc c00e a13b f71d b6bc
00000090: c633 763c 6222 4cbd 3aae 12bd 827a 4c3d
000000a0: 16c1 203c 361a f13a 23c0 5abc d0b3 353d
000000b0: 5443 8ebc c15c 333c af5a 4abc 76be 173d
000000c0: 162d 4e3d 0f11 a53c 8092 f33b aa8e c93c
000000d0: 55b6 693c 6697 16bc 27ae 05bd 1f66 c6bb
000000e0: bd87 543c 9ac0 3a3c 4b2c f13c 245b e03c
000000f0: 7b73 4bbb 6643 07bc 937c 87bd d356 4c3d
00000100: 5cfe 5b3d c107 00bd e84f 1dbd 1afd c5bc
00000110: c1f9 623d 128f da3c 5929 13bd 9296 7aba
00000120: c820 c6bc d5ee 483d 1a90 523d 2603 04bc
00000130: 5de8 3b3d 710d 4fbd b125 393d c7ae 10bd
00000140: 8acd 87bc b527 1bbd 1562 2bbd 63bb 42bd
00000150: 0dbd 81bc ac95 06bd e272 663d bbad 3b3d
00000160: a207 cbbc 04d9 293d 533b a03c 7580 30bc
00000170: 6106 493d cb75 1cbd e260 14bd 6163 4e3d
00000180: 77c8 3a3d e6f7 1e3d 7ede acbc 0c26 c7bc
00000190: cac2 30bd ad1d 853c 155d 63bd e43a cfbc
000001a0: 4af3 043c 8fb6 78bd 4432 a73c 7adf ccbc
000001b0: ab58 2c3d b4f4 9abc ca33 033c 4698 743d
000001c0: 253b 473d fa93 dcbc bdfb 4d3d caf1 7bbb
000001d0: f168 da3c 44a8 663d 4eb1 683d f03d 603d
000001e0: 3d2c a83b ce9d 0bbd 9430 d3bc 3b7e f1bc
000001f0: d364 22bd a8d8 3bbd 35e0 dd3b f205 0b3d
00000200: 7c31 47bd 9932 36bd 117c 5fbd e6b6 553c
00000210: 74ff 393d 0c66 d7bc 456f 363d 854f b6bc
00000220: a46d eabc 8364 37bd e54e 3f3c c3e5 793d
00000230: 264b aa3c 7318 b9bc dd74 f4bc e9a0 dbbb
00000240: 3afd 2e3d cdac b0bc 4739 83bc e443 3c3d
00000250: 7cb4 24bc 9abf f8bc 5c0e 573c fe73 e43b
00000260: b288 14bd 559d a03c c07b 47bd c85d dabb
00000270: 365a b0bc 7f15 9fbc 41ab c0bc 4ca8 a4bc
00000280: dc1b 0abb 6d7c b23c 9654 50bc ae5a 1c3d
00000290: ed21 16bc 46fb 9a3c fa90 2b3d c289 453d
000002a0: 2ba3 783b fe36 53bd e834 50bd da95 5cbd
000002b0: f18a 6e3d 7345 b5bb f82c 2e3d 7a4f b33c
000002c0: 1bff 5cbd d0de c0bc 844b 633d aa80 3e3d
000002d0: b4d0 303d 2cec 38bc f741 a43c 1fb5 4ebd
000002e0: fcba 8dbb 56c3 4d3c 9884 3abd 7ff8 cfbc
000002f0: 76c3 703d b80d 00bc a953 47bb 1397 1c3c
00000300: 26ca 073d 073d a8bc dcc7 2fbd ffb5 1f3d
00000310: f04a aa3c e6d7 06bd 652b c23c 33cd 21bd
00000320: edd5 dabc 4fa1 31bd b459 703d e47a 01bd
00000330: 6eac fd3c 927d 65bc 66ed 0dbc c8c6 60bd
00000340: 560e 8e3b ca49 eebc ff85 313d 9827 673c
00000350: 265a 3e3d 128f 8e3c cd63 823c b34e 5bbd
00000360: 5467 3dbd 5961 3f3d 41f7 30bd 6668 87bc
00000370: 8654 91bc a210 a3bc d410 65bd 1a79 783a
00000380: 4c35 65bc 6b5b 4abd 87d4 c3bc 32ba 5ebd
00000390: fd42 68bd 92e0 313d d394 16bd dd0e 31bb
000003a0: f945 81bb a256 22bd 4cd9 143d 6552 273c
000003b0: bbfd 393d 9471 94bb c409 243c 9477 86bc
000003c0: aee4 7e3c 3d85 33bc e1fb 5bbd 727f 0e3d
000003d0: c10c 7bbd d308 523d ba02 34bd 2b0c 20bd
000003e0: a145 823b a9b6 363d c76e df3c 4ee0 3ebd
000003f0: 6a27 c3bc 853c 4fbd 6d03 a93a 67f6 8fbc
-0.021623284 -0.0036696312 0.022676252 -0.031962752 -0.020081788 -0.032459266 0.00016298541 -0.040223047
-0.030528797 -0.047378138 -0.011407147 0.033132296 0.014595671 0.022879636 0.047077492 -0.062485278
-0.026060747 0.0027044474 0.06400656 -0.0334329 0.024613865 0.054924496 -0.022880187 -0.020074354
-0.0032219985 0.03305021 0.057467036 0.030996857 -0.009953264 -0.00577339 -0.03384343 0.003721979
-0.03638591 -0.021795563 0.0049150884 -0.022231085 0.015026992 -0.049837478 -0.035810687 0.04992152
0.00981166 0.0018394652 -0.013351473 0.044360936 -0.017366089 0.010947407 -0.012350722 0.037046872
0.050335966 0.020149736 0.0074332356 0.02460416 0.014264663 -0.00919137 -0.032636788 -0.0060546543
0.012971816 0.011398459 0.029440066 0.02738721 -0.0031044174 -0.008255815 -0.066155575 0.04988749
0.053709373 -0.031257395 -0.038406283 -0.02416854 0.055413965 0.02667955 -0.035928104 -0.000955918
-0.024185553 0.049055893 0.051406957 -0.008057391 0.045875896 -0.050549928 0.04520196 -0.03532293
-0.0165775 -0.037879664 -0.041841585 -0.047541987 -0.015837217 -0.032857582 0.056261905 0.04581998
-0.024783913 0.041466728 0.019559538 -0.010772814 0.04907835 -0.038198274 -0.036225207 0.050387744
0.045601334 0.038810633 -0.021102186 -0.024310134 -0.043154515 0.016249502 -0.05550869 -0.025296636
0.008114645 -0.060720976 0.02040971 -0.025008906 0.042076748 -0.018915512 0.008007953 0.05971553
0.04864039 -0.02692603 0.050288904 -0.0038443678 0.026661368 0.056312814 0.056809716 0.05474657
0.0051322267 -0.03408604 -0.02578 -0.029479137 -0.039646935 -0.045860916 0.0067711123 0.033941217
-0.048631176 -0.044481847 -0.05456168 0.013044095 0.045409635 -0.026293777 0.04453971 -0.022254715
-0.028616734 -0.04477359 0.011676525 0.061010133 0.020787787 -0.022594666 -0.029840881 -0.0067025316
0.042721964 -0.021566773 -0.016018523 0.045963183 -0.010052796 -0.0303648 0.013125982 0.006971835
-0.036263175 0.019606272 -0.048702 -0.0066640116 -0.02152739 -0.01941943 -0.02351916 -0.020099781
-0.0021073734 0.021787846 -0.012715479 0.038172416 -0.009163362 0.018918645 0.041886307 0.04822708
0.0037939053 -0.051566117 -0.050831705 -0.053853847 0.058237974 -0.0055319606 0.042523354 0.021888483
-0.053954225 -0.023543745 0.05549194 0.046509422 0.043167785 -0.0112867765 0.020050986 -0.0504657
-0.004325269 0.012558779 -0.045536608 -0.025387047 0.058780156 -0.007815771 -0.0030414856 0.009557503
0.03315177 -0.020536913 -0.04291521 0.038991924 0.020787686 -0.03292074 0.023702333 -0.039502334
-0.026713336 -0.043366726 0.058679298 -0.03161134 0.03096601 -0.014006989 -0.008662557 -0.054877073
0.004335205 -0.02908792 0.04334068 0.014108561 0.04647269 0.017402206 0.01591673 -0.05354185
-0.04624112 0.046723697 -0.04320455 -0.016529273 -0.0177405 -0.019905392 -0.05592425 0.0009478495
-0.013989758 -0.04940359 -0.023905052 -0.05437679 -0.05670451 0.043427058 -0.036763024 -0.0027016916
-0.003945109 -0.0396334 0.036340043 0.0102125155 0.04540799 -0.004530141 0.010012094 -0.016414441
0.015557451 -0.010957059 -0.053707007 0.03478951 -0.06129146 0.051277947 -0.043947913 -0.039074104
0.0039755856 0.044607792 0.027274502 -0.046600632 -0.023822505 -0.050594825 0.0012894698 -0.017573548

conv3.0.bias f4 [64]
00000000: 86f6 e83c c587 f3bc 0772 603b 7be0 453d
00000010: 9e58 343d 6a32 ffbc 1645 803d 8e94 473c
00000020: c99a ee3c 54aa 83bc d9af 1dbd 04e0 f2bc
00000030: ed71 1ebc 6236 443d b59b 813c 37b8 e93c
00000040: 9d5b cebc 4047 8a3c 4a5b a73c 42cb da3c
00000050: f6e7 23bb 1ae4 dfbb ca3a 90ba 1483 1d3d
00000060: fe54 263d 8569 613c 12e0 d8bc 9a6f 3abd
00000070: c9ee 8d3d 18ce febc 6fb0 543d 8c6d 0fbd
00000080: 1a7d a53c 109f 3f3d 191a 413d e760 223c
00000090: 8ed8 8d3d 2980 763d 8923 e63c 8513 39bd
000000a0: 3e0a c43c f696 20bd b1f6 05bd 0dbd 09bc
000000b0: 1e59 0a3d 76b7 c0bb 684a 813b 15f1 023d
000000c0: f901 6b3d 6d7e b13c 0194 e3bc 500d a33c
000000d0: 4457 77bc a817 2abd fe3d 14bd 6a9c 3dbd
000000e0: d6a4 f63b 1e2a f0bb 92ea 6d3d 5216 c5bc
000000f0: 1f07 1c3d 724f 253d eb21 8c3d 855a 943b
0.028437864 -0.029727826 0.0034247653 0.048309784 0.044029824 -0.031151969 0.06263177 0.012181414
0.029126542 -0.01607243 -0.03849778 -0.029647835 -0.009670717 0.047903426 0.015821317 0.028530223
-0.025190169 0.016879678 0.020429272 0.026708249 -0.0025010086 -0.0068326117 -0.0011003849 0.038455084
0.0406084 0.013758068 -0.026474033 -0.045516588 0.0693031 -0.031104133 0.051926073 -0.03501658
0.020201255 0.046782553 0.04714403 0.009910799 0.0692607 0.060180817 0.028093116 -0.04518463
0.023930665 -0.039206468 -0.032705966 -0.00840689 0.033776395 -0.0058812452 0.0039456375 0.031968195
0.05737493 0.02166673 -0.027780535 0.019903809 -0.015096489 -0.041526467 -0.036191933 -0.046291746
0.007526974 -0.0073292395 0.05808503 -0.024058495 0.03809273 0.040358968 0.06842407 0.0045273923

conv3.2.weight f4 [64]
00000000: 20b6 7d3f 7539 7f3f c766 823f 1132 803f
00000010: 58a2 7e3f 3a82 7f3f c083 7f3f b27d 7f3f
00000020: 8813 803f 90d5 7e3f 61c2 7e3f cd80 7f3f
00000030: 10eb 7d3f f4f5 7d3f 062e 803f c8b6 7f3f
00000040: d3f5 7f3f 8a51 7e3f bead 7f3f 5ac0 7d3f
00000050: 23e1 7e3f a793 7f3f a3cc 7f3f 84c8 7e3f
00000060: 8ed2 7f3f da23 833f 7ab6 7d3f 4f64 813f
00000070: f75e 803f 512d 813f 9539 813f 8534 803f
00000080: 822e 7f3f 4507 803f 645e 803f e1ca 803f
00000090: 5a93 7f3f 2377 7e3f 782e 813f 1462 7e3f
000000a0: d3d8 803f 02fb 7f3f da9d 803f 83de 7f3f
000000b0: 0626 803f 1002 803f 1734 7f3f 41ea 7f3f
000000c0: 9131 813f 4a8e 7e3f 8d21 813f f30b 813f
000000d0: 05d2 7f3f d7a8 7d3f 07c2 7e3f 991f 7f3f
000000e0: 001f 7f3f 4eee 7f3f be4c 7e3f 8bd6 7f3f
000000f0: cc28 803f 8de3 7f3f 0cf0 7e3f 9e10 803f
0.99106026 0.9969705 1.0187615 1.0015279 0.99466467 0.99808085 0.9981041 0.9980117
1.000596 0.9954462 0.9951535 0.9980591 0.991868 0.9920342 1.0014045 0.9988828
0.99984473 0.9934317 0.99874485 0.9912163 0.9956228 0.99834675 0.99921626 0.9952471
0.99930656 1.0245316 0.9910656 1.0108737 1.0028981 1.0091954 1.0095698 1.0016028
0.9968034 1.0002218 1.0028806 1.0061914 0.99834216 0.9940054 1.0092306 0.99368405
1.006617 0.9999238 1.0048172 0.999489 1.0011604 1.000063 0.9968886 0.9996682
1.0093251 0.99435866 1.0088364 1.0081772 0.9992984 0.99085754 0.9951481 0.9965759
0.9965668 0.99973 0.9933585 0.9993674 1.001245 0.9995659 0.9958503 1.0005071

conv3.2.bias f4 [64]
00000000: 5db9 403b dfee 9b3b f993 da3c 5c9f c13b
00000010: 1225 b03c 79a2 293c b825 cbba 17c9 32ba
00000020: 3747 1fbb 0110 003d 4d8c a03c d623 6d3a
00000030: ac20 f63b e3ce fb3b e376 9c3b 1775 e1bb
00000040: 2324 6cbc 3a46 183c e508 c83b 8c6a f93b
00000050: ea09 143d 5bdb 2a3b 7120 dd3a f8de a23b
00000060: a96f c73c 3127 463b 2434 f73c ccfd 333c
00000070: a00d eb3c 5517 6e3c 0a8d d63c 37af 00bc
00000080: 8407 da3b fd8a bc3b afcb 0b3d e09f 4fbc
00000090: 6371 bd3c 8059 3f3c 1c79 1f3d 54e7 a53c
000000a0: 990e 49bb fabb b6bb f9f7 c6bb 83a7 0bbc
000000b0: b913 0cbb be8a 80bb 9901 7cbb d3dd 71bb
000000c0: 79a7 d03c d91e f63c f69f ab3c 18c2 1d3d
000000d0: 8f34 6f3c 7cde 593c 24f5 9d3c 93e1 de3b
000000e0: f958 e839 2ddc b3bb 909f 0a3b 4947 a83c
000000f0: b5f4 913b 2948 8a3c f207 8c3c 5c87 8b3c
0.002940736 0.0047587003 0.026681887 0.0059088897 0.021502052 0.010353678 -0.0015498912 -0.0006820126
-0.0024303922 0.031265263 0.01959815 0.00090461725 0.007511219 0.007684575 0.0047749146 -0.0068804133
-0.014412913 0.009294087 0.006104576 0.0076115783 0.036142267 0.0026070687 0.001687063 0.0049704276
0.024345236 0.0030235762 0.03017623 0.010985803 0.02869302 0.01453193 0.0261903 -0.0078542745
0.006653728 0.0057538734 0.034129795 -0.0126723945 0.023125356 0.011679053 0.03893386 0.020251907
-0.0030678867 -0.005576608 -0.006072041 -0.008523825 -0.002137406 -0.0039227894 -0.00384531 -0.00369059
0.025470482 0.030044006 0.020950299 0.03851518 0.014599933 0.013297673 0.019281931 0.006801793
0.00044316778 -0.0054888935 0.0021152236 0.020541804 0.00445422 0.016880112 0.017093632 0.017032318

conv3.2.running_mean f4 [64]
00000000: d256 883e 022c 453f 7c7b cb3e 35a0 1b3f
00000010: 7029 ce3e f522 bb3e 4a3c 033f f9df 443f
00000020: 7e55 d53e 1d02 b53e a982 703e 752a d23e
00000030: ee5c e23e b4c9 033f 00e7 1a3f 92cd 353f
00000040: 2f0f 2d3f dc1a bc3e c8cb 8f3e 090a 463e
00000050: 6f8e 9a3e e96d e93e 1a0d 343f 23a2 b23e
00000060: ced0 ce3e 2083 823e e85c f53e 6f5b 9e3e
00000070: d8ea ce3e dd8d f83e 07e4 b93e 8854 143f
00000080: d896 0d3f f8ba 023f 158c eb3e 3414 393f
00000090: 2265 d33e 3d59 923e fe6d 873e 508a 253e
000000a0: 567b 233f 42b7 b63e 5bc0 3d3f 2b68 563f
000000b0: 9b3b d13e 8319 2a3f f760 e73e 231c 2d3f
000000c0: ac9d f13e 24c0 383e ccf6 c83e cfa0 283f
000000d0: 60e1 923e df49 793e 3ddd d83e ac97 e43e
000000e0: a6d9 573f d048 0b3f e3df 983e 0062 b63e
000000f0: aa2f 343f 9ecf ab3e 8496 c23e 2a25 3a3f
0.2662874 0.77020276 0.3974265 0.6079133 0.4026599 0.36550108 0.5126387 0.76904255
0.41666788 0.35353175 0.23487343 0.41048017 0.44211525 0.5147965 0.6050873 0.710168
0.67601293 0.36739242 0.2808516 0.19339766 0.30186793 0.45591667 0.7033249 0.34889325
0.4039368 0.25490665 0.47922444 0.30929133 0.40413547 0.48545733 0.36306784 0.57941484
0.55308294 0.5106654 0.46005312 0.7229645 0.41288096 0.28583708 0.26451105 0.16166043
0.6386007 0.3568669 0.74121636 0.837527 0.40865788 0.6644518 0.45191166 0.6762106
0.47190607 0.18042046 0.3925079 0.65870374 0.28687572 0.24344586 0.4235629 0.44646966
0.8431648 0.5440798 0.29858312 0.35621643 0.7038523 0.33556837 0.3800546 0.7271296

conv3.2.running_var f4 [64]
00000000: f4eb 183e 91ac 613f 7622 913e 4a8e 1a3f
00000010: f256 923e 4306 bf3e 5f6a 113f 0bd6 8a3f
00000020: 9c1b ee3e 920f 3b3e 16de f53d 7a33 e03e
00000030: cc0e 783e dc96 ff3e 799a 323f 0bf2 853f
00000040: 42f2 6e3f 6230 653e 596a 553e b457 9f3d
00000050: 99cb 533e fada d73e 1c33 5b3f 087b 543e
00000060: 3215 8e3e 2230 1d3e 7e61 fe3e 666a 2b3e
00000070: ddfa 9e3e 9b34 d93e b4f0 623e b0ef 053f
00000080: 30a9 2b3f d44c 063f d830 c83e f977 803f
00000090: 8171 8c3e 5508 463e 5294 343e 1efd 553d
000000a0: 18bf 473f e474 b93e 966a 843f 1e18 9d3f
000000b0: d151 f13e c3d0 423f bc78 eb3e a9c7 393f
000000c0: c8d0 cf3e 4bd0 c73d 71e4 6a3e b845 4f3f
000000d0: ef35 1f3e 8200 1b3e 29ee e63e 3c48 e03e
000000e0: 567a 9c3f 273f 103f f0ce 4e3e f0b4 8c3e
000000f0: a4be 673f 3a0f 3f3e a0de 953e d1c3 913f
0.14933759 0.8815394 0.28346604 0.60373366 0.2858196 0.37309465 0.56802934 1.0846571
0.4650544 0.18267658 0.1200525 0.43789274 0.24224395 0.49919784 0.69766957 1.0464491
0.93338406 0.22381738 0.2084135 0.077804 0.20683135 0.42159253 0.8562486 0.20750058
0.27750546 0.15350392 0.49683756 0.16739807 0.31050768 0.42422947 0.22162133 0.5231886
0.67055035 0.5246098 0.39099765 1.0036613 0.27430347 0.19339116 0.17634705 0.052243344
0.7802596 0.36221993 1.0345027 1.2272985 0.47132733 0.76099795 0.4599055 0.7257028
0.40588975 0.097565256 0.22938706 0.8096576 0.15547918 0.15136912 0.45103577 0.4380511
1.2224834 0.5634636 0.20196128 0.27481794 0.9052527 0.18658152 0.29271412 1.1387883

ln1.weight f4 [16, 2304]
00000000: d376 303b 63b2 533c 2bbd 133c 98ec 223c
00000010: c267 5a3c 2da9 663c b424 d4bb 2e2a 8a3c
00000020: cb61 593c 8e8a 953c 4f39 693b 9790 693c
00000030: 7484 a33b d4fd f4bb f0c8 b53a 0c57 bbbc
00000040: 1dcf e439 efef f6bb b35d 853c da9e 83bb
00000050: 69be 51bc 4b3d 193c c4d6 6abc 699b 85bb
00000060: 4657 9d3c 8820 07bc e9d6 653c 554b eebb
00000070: 9882 c63b e6cc 14bc a300 2cbb f483 e33b
00000080: 132f 55bb 4c20 9ebc 45f6 253c 332a 32ba
00000090: cbcf 05bc 7e4a 633c 6d97 f93b 9cb3 1c3b
000000a0: df33 363c 2537 293c 4e9e 843c 318f 02bc
000000b0: ca79 0f3c ccb5 8b3c c363 be3a a0ca 953b
000000c0: f7f7 3e3c 6894 a23c c678 18bb f0e9 8b3c
000000d0: 1974 983c 7d73 ed3b a8d8 d6bb 44b7 0abc
000000e0: 13e9 23ba a8e2 46bc baa5 953c c13d d2ba
000000f0: 517b 063d 7204 b33c 03b3 b33c bf71 303b
00000100: f064 643b 8d0e b23c b241 423c 76cd fcbb
00000110: 1f4f 16bb 4ba7 f639 3939 3ebc 28c1 b53c
00000120: 6eb5 50bc 64ea 01bc bd3f 92bc a8e6 00bc
00000130: ec1f c7bc 0656 8f39 447d b8bc d73d a5bc
00000140: 065a aebb ecec 9ebc 44c8 af3b a498 71bc
00000150: 01d0 90bc bc44 b33b 240d 5d3c ed70 99bc
00000160: 92c3 4bbc cd43 78bc 8dbc 97bc 0603 48bc
00000170: 6cb4 7c3b c976 9ebc c4a9 eeba e710 9dbc
00000180: 68e5 95bc 9926 67bc 4ab8 a13a 499e 10bc
00000190: 3db0 9cbb 0a08 e1bc 5666 05bc 6e59 013b
000001a0: 02e0 40bc 28ed d43b b401 fe3b 05f4 08bc
000001b0: 129d 963c cac0 a43c 8838 823c 2387 df3b
000001c0: a1b3 ab3c 6041 9a3c d9e8 ab3b 5de8 91bc
000001d0: 4607 943b c4d5 25bc 0d32 9a3c 10f1 8e3c
000001e0: e551 8a3c 7001 623c 8dcc f93b 1026 2cbc
000001f0: f304 503c be53 ca3c 358c 1b3c d1f6 763c
00000200: 3e47 d9bb 8631 2c3c 9b82 0ebc a6cb 8d3c
00000210: 1e46 a3bb 9a39 c43a 4fc1 edbb 8039 4b3c
00000220: ad95 ec3a 829d f13b 4bf8 443c 30b4 483c
00000230: 18fd b13c 3ca2 0fbc 513f 863c 81eb ab3c
00000240: 2aac 323c b6b2 e9bb 7044 29bb 5bb1 183c
00000250: de8c c63c 0080 aa3b 0c11 563b ed8d ac3a
00000260: 42b9 22bc d297 e2b8 98ce c13b deb4 813c
00000270: 0779 853a b0b8 e9bb 4e2c 6dbb 64b4 40bc
00000280: 60b4 333c 06f3 7bbb b743 48bc 4fc2 9e3c
00000290: 1cf9 4c3c 48a7 deba 3729 793b 7db7 bf3a
000002a0: a8f4 d8ba bd84 9c3c f989 343b 5e94 89ba
000002b0: b410 f43c d712 60bc 37d4 ab3b e001 7dbc
000002c0: 93f8 493c 0988 84bb 2508 7aba ced0 de3b
000002d0: bcaf 9f3c e9c2 b23c 1099 323b 3e9d dc3b
000002e0: e6b5 06bb b53d fcbb 836f e83c d6ed 703c
000002f0: 90b8 043c cecf 6f3b a0ce 8a3c fc6e 103c
00000300: d666 183c 0740 4f3c 50e1 523c 33f9 5c3c
00000310: 3c77 0639 d536 65bc cdb5 663c 41b5 013d
00000320: 2d50 103c c173 3e3c 2518 5dbb e80d b03c
00000330: 3923 933c 7f11 873c 4f62 ef3c ae68 9e3c
00000340: 1a31 033d d3f3 eebb 3cda 5d3c 2653 b43a
00000350: 1c6c a73c d6e7 8e3c 6777 ad3c 53ec bb3a
00000360: 5794 cb39 c5bb 97bb 024f 013d d670 76ba
00000370: 8e33 823c 9ba7 183c 36c7 883c 3907 2f3c
00000380: 3553 a9bb 2ea1 ad3b 31cb a23c 86d1 3e3b
00000390: 6d4f c83c d7c3 4d3b 7fc0 063b 9fa4 c7bb
000003a0: 33af 543c e050 813c 3ba7 2a39 b03f 12bc
000003b0: 112d d23c 3f31 ec3c 41ec e4bb 6273 973c
000003c0: c65a 9fba 5e08 a83c bf49 613c 29c0 053d
000003d0: 6fe1 473c 7016 97bb 1880 a83b dd5c 313c
000003e0: 908b 18bc f3fb 833b d1bd ba3c 01ce a13c
000003f0: b061 b63b 706c 32bc 630c d03c 77ef 1b3c
0.0026926294 0.012920949 0.009017269 0.009944104 0.013330402 0.014078421 -0.006474102 0.016865816
0.013267945 0.018254545 0.0035587137 0.014255664 0.004990155 -0.0074765477 0.0013869088 -0.022868656
0.0004364186 -0.0075359265 0.01628003 -0.0040167393 -0.012801745 0.009352992 -0.014333431 -0.004077364
0.019206654 -0.008247502 0.014028289 -0.007272164 0.0060580485 -0.009082055 -0.0026245497 0.0069432203
-0.003252928 -0.01930251 0.010129516 -0.00067964493 -0.0081672175 0.013872741 0.0076169283 0.0023910766
0.0111207655 0.010328089 0.016188767 -0.00796871 0.008757064 0.017054461 0.0014525581 0.004571274
0.011655799 0.019846156 -0.0023265346 0.017079324 0.018610047 0.0072464333 -0.006556589 -0.0084665455
-0.00062526873 -0.012139 0.018267501 -0.0016040133 0.032832447 0.021852706 0.021935945 0.0026923267
0.0034850203 0.021735454 0.011856483 -0.0077149225 -0.0022935343 0.0004704542 -0.011610323 0.02218683
-0.012738569 -0.007929418 -0.017852658 -0.007867493 -0.024307214 0.00027339178 -0.022520669 -0.02017109
-0.00532079 -0.019400083 0.0053644497 -0.014745865 -0.017677309 0.0054708403 0.0134919025 -0.018730605
-0.012436764 -0.015152884 -0.018522525 -0.012207752 0.0038559688 -0.01934375 -0.0018208553 -0.019173099
-0.018297866 -0.0141083235 0.0012338248 -0.008826801 -0.0047817514 -0.027469654 -0.008142075 0.0019737142
-0.011772158 0.006497998 0.007751668 -0.00835896 0.018385444 0.02011146 0.015896097 0.0068215295
0.020959677 0.018830001 0.0052462635 -0.017810995 0.0045174686 -0.0101217665 0.018822694 0.017448932
0.016884753 0.013794288 0.0076232613 -0.010507122 0.0126964925 0.024698135 0.009493877 0.015073494
-0.006630807 0.010509854 -0.008698131 0.017309021 -0.004982724 0.001497078 -0.00725571 0.012403846
0.0018049978 0.0073735127 0.012022088 0.012249991 0.02172713 -0.008766707 0.016387613 0.02098632
0.010905305 -0.0071318997 -0.0025828145 0.009319629 0.024237093 0.005203247 0.003266397 0.0013164856
-0.009931864 -0.000108047985 0.0059145205 0.015833315 0.0010183164 -0.007132612 -0.0036189738 -0.0117617585
0.010968298 -0.0038444414 -0.012223176 0.019379763 0.012510564 -0.001698711 0.003801895 0.0014626827
-0.0016552405 0.019106263 0.0027548058 -0.0010496487 0.02979312 -0.013676367 0.005243804 -0.015442342
0.012327331 -0.004044537 -0.0009537957 0.006799794 0.019492976 0.021821456 0.0027251877 0.006732612
-0.0020555197 -0.0076977857 0.028373485 0.014705142 0.008100644 0.0036592367 0.01694423 0.008815523
0.009301862 0.012649543 0.0128711015 0.013487148 0.00012823654 -0.013990124 0.014081431 0.031666998
0.008808178 0.011624278 -0.0033736315 0.021491006 0.017961131 0.016487835 0.029221682 0.019337025
0.03202925 -0.0072922497 0.013540801 0.001375769 0.020437293 0.017444532 0.0211751 0.0014337398
0.000388297 -0.004630538 0.03156949 -0.0009400969 0.015893724 0.009317304 0.016696554 0.010682874
-0.0051673898 0.005298755 0.01987228 0.0029116585 0.024451936 0.0031397247 0.0020561514 -0.0060926224
0.012981224 0.015785635 0.00016274762 -0.008926317 0.025656255 0.028832076 -0.0069861715 0.018487636
-0.001215779 0.020511802 0.013750493 0.03265396 0.012199744 -0.004610829 0.005142223 0.010825363
-0.009310618 0.0040278374 0.02279559 0.01975155 0.0055658445 -0.010890111 0.025396531 0.009517542

ln1.bias f4 [16]
00000000: 95d3 023b 0bfa 323c 429d eeb8 9ad4 123c
00000010: 8c78 813c 574f 963b 50ac 453c a30d 973b
00000020: a3f9 bb3c a374 0abd 910b 1dbc 726d 163c
00000030: e141 a3ba f6bd cfbb afdd 883a 3c67 bebc
0.0019962538 0.010923873 -0.00011378016 0.008961821 0.015804552 0.0045870948 0.012065008 0.00460978
0.022946185 -0.03380264 -0.009585277 0.009181367 -0.0012455547 -0.006339784 0.0010442043 -0.023242585

batchnorm.weight f4 [16]
00000000: e41f 7b3f 4787 803f cf41 7f3f 9aee 833f
00000010: 45a5 8b3f 5729 813f 9e7f 833f fc93 713f
00000020: b3a7 803f 0ab1 6f3f 7e23 813f 2fca 793f
00000030: a812 8d3f b211 803f 792b 803f f0b7 753f
0.98095536 1.0041283 0.9970979 1.030719 1.0909811 1.0090741 1.0273321 0.9436643
1.0051178 0.93629515 1.0088956 0.9757413 1.1021318 1.00054 1.0013267 0.9598379

batchnorm.bias f4 [16]
00000000: 37ed bbbe 4cc2 0fbe 4830 f83c d9b9 65bd
00000010: 420f bd3e a4ba 01bc 8913 acbe 8e3f cbbe
00000020: 45ff 2ebe 05f5 e1be 5d7d 863d 036b d83e
00000030: 95a8 333e ab9f 173e 63eb bfbb 6f12 92be
-0.36704418 -0.14038962 0.03029646 -0.05608544 0.36925703 -0.007918034 -0.33608654 -0.39696926
-0.17089565 -0.44132248 0.0656688 0.42269143 0.17544778 0.14807002 -0.0058569177 -0.2852969

batchnorm.running_mean f4 [16]
00000000: f656 8740 0891 c23f 592f ea3f 348d 013e
00000010: c98e 9c40 cd8b 0540 9d90 8c40 cc17 9a40
00000020: 9360 5840 a79a e740 ef6f 1e40 3c06 8d40
00000030: 1304 6540 bdcb 3540 8bf8 d33f 6b9a ab40
4.2293653 1.520051 1.8295699 0.12651521 4.89243 2.0866578 4.392653 4.815405
3.3808944 7.2376285 2.475582 4.407011 3.5783737 2.8405602 1.6560224 5.3626

batchnorm.running_var f4 [16]
00000000: ea28 f741 fcd4 d53f 917f d340 d389 b93d
00000010: 3004 2942 03a7 1441 fb68 ca41 615c 3d42
00000020: 8381 6e41 3ff3 e042 e550 4541 f449 c341
00000030: 5066 9241 80cc 8941 3a76 a740 b8b8 6542
30.894978 1.6705623 6.609322 0.09059491 42.25409 9.290774 25.30126 47.340214
14.906619 112.47509 12.33225 24.41111 18.299957 17.224854 5.233182 57.43039

ln2.weight f4 [5, 16]
00000000: 997c 673b 5c9f 433e 6c8d 3f3e ad86 41be
00000010: 4634 d33d 7d94 2abd 096c db3d b20a 34be
00000020: 7fe4 c4bd 8cb9 da3c 9a61 353e 8ad1 de3c
00000030: 5150 20bd d749 1dbe 1ab2 2fbe 3598 463e
00000040: 59e2 a6bc 0710 863e 2cc1 203e b5ab 653e
00000050: 8d8d 41be b721 803e 11ca f2be d1af a8be
00000060: 46f7 6cbe 5443 563c 541c b9bc 5be2 f23e
00000070: a16c f43e 1aee 763e 140d 63bc ed8c 81bc
00000080: 48b1 c53d 013a 45be fc81 44bd ef74 74bd
00000090: 5eea 163e d6da eabd cb59 4bbe 9275 64be
000000a0: e82a 8abc 36c1 df3d e302 02be 9bf5 05be
000000b0: 8697 8b3d 5a08 383e aebe 253e 472c 11be
000000c0: 5607 cbbe 35ba 79be 0cad a3bd 1c26 26be
000000d0: d01e 1a3f 635e fcbd 672c 80bc 8682 13bd
000000e0: 6b5d 5b3d c8b6 abbe 33ad 403e 5bf6 ac3d
000000f0: 1172 6bbe 2219 f03c ef09 623d 50ee a8bd
00000100: cdff bbbd f0e8 213d d19d 873d c559 f1bd
00000110: b8c1 653e 1594 b13d 1859 29bc 7e6e 413e
00000120: dcc1 2fbe e684 13be 36d1 dd3d f591 eebd
00000130: cbe8 8abd 0b0b a9bd 1178 423d 2e68 82be
0.0035322069 0.1910376 0.18706292 -0.18899031 0.10312705 -0.041645516 0.107139654 -0.17582205
-0.09613895 0.026699804 0.17713013 0.027199525 -0.039139096 -0.15360199 -0.17157784 0.19394
-0.020371603 0.26184103 0.15698689 0.22428782 -0.18901654 0.25025722 -0.4741979 -0.32946637
-0.23141202 0.013077576 -0.022596516 0.4743832 0.47739127 0.24114266 -0.013858099 -0.015814269
0.09652954 -0.19260408 -0.047975525 -0.05968183 0.14737841 -0.11467521 -0.19858472 -0.22310475
-0.016866162 0.10925524 -0.12696414 -0.13081972 0.0681601 0.17971936 0.1618602 -0.14177047
-0.39654034 -0.24387439 -0.079919904 -0.16225475 0.60203266 -0.1232269 -0.015646173 -0.03601315
0.053555887 -0.3353789 0.1881607 0.08445426 -0.22992732 0.02930886 0.055185255 -0.082485795
-0.091796495 0.039528787 0.06621898 -0.117847 0.22437179 0.086708225 -0.010336183 0.18889806
-0.17163795 -0.14406165 0.108309194 -0.11648933 -0.06782683 -0.082540594 0.047477785 -0.25470108

ln2.bias f4 [5]
00000000: 1d9c 82bd 46b1 3e3f 7329 27be f68b 923f
00000010: 2656 9d3e
-0.063774325 0.7448925 -0.16324405 1.1448963 0.3072979

ln4.weight f4 [10, 49]
00000000: e8c9 553d c457 00be 794d d73a 137d 8ebd
00000010: 8ec3 2fbd dc0f bd3d c900 05be 7079 10be
00000020: 28f2 d13d 9b6a 7a3d a0b5 e0bd 876f 1b3d
00000030: 5b9c 42bd 8cd9 b23d 2e48 92bd 0a27 a03d
00000040: aebc 1fbd 57d7 353b 3da7 b93c cc5d f93d
00000050: 7623 d7bd b507 333d 3158 d9bd 2720 ca3d
00000060: 5469 9b3d 59ba 793c 41d2 8d3c 6b7e 103e
00000070: 5eb4 723c eaa5 ee3c 1212 fe3b 7e2e 243e
00000080: 3ca1 bf3c 5e43 b7bd a68d 063d 6a87 03bd
00000090: 4faf 03be 0c54 cabc b3d4 66bd cc4b 4b3d
000000a0: c9bd 513d f7ca 46bd cf56 0e3e c7e4 093c
000000b0: 689f 6f3d 50ca 19bd d12a f63d e058 ccbc
000000c0: bc50 473d 5f80 e63d 9d7c 70bd 47b3 9c3d
000000d0: 7e4b b33d 70cf 0b3e 97de 7dbd 1157 973d
000000e0: 6a94 b3bd eda8 37bd 52dc 87bd 4ea9 3d3c
000000f0: 2b80 b73d 36e7 8b3d 0ea1 eabc 5ff3 ce3d
00000100: e1b3 dd3c 7a1b 2f3d fe26 c13d 9e95 8fbc
00000110: c2c8 f2bd 19ae 163e 2fb4 763d 3b64 0abe
00000120: 70da 01be ddbb 803d 1f97 953d 5f94 a63d
00000130: b0e9 cbbd 310e 37bd 7665 903d 47cc bc3d
00000140: 2122 903c 139c 023e 7919 923c 7bab 023c
00000150: f49d e4bd fb76 9abd 153e 32bb e70e 103d
00000160: cf0d 953d 8a6c d33d b88c d3bd bdb1 ad3d
00000170: 3314 f23d a6c5 80bd adf3 0bbe f376 91bd
00000180: 65c4 7abc 5c7b 27bd 1cf9 093e 2133 95bd
00000190: 53fa fc3d 58a3 923d 4070 00be a608 0a3c
000001a0: 03b6 a53a 2f23 e23d d11f 82bd db48 d83d
000001b0: 0124 d6bd 812e 1cbe 57e4 0b3e bcc5 f03b
000001c0: 86e8 3dbd ba40 883c 2ddd 9bbb 89db b5bd
000001d0: bd8c 43bd 050e edbd 9c0f 7bbc c2ba 49bc
000001e0: cec0 a33d c439 25bd 68cb dd3d 0fad 223d
000001f0: df72 2c3d 84b7 103d ba55 edbd 2552 d83d
00000200: 3d82 83bd 672c 283d 492c 783d 4e7b 683d
00000210: e0fc 23bc 879d a9bd 94e1 e73d 11f6 f3bc
00000220: afb8 a53d 05fd f3bc 5a3d a53d 94a9 323d
00000230: cbb6 a13b 448e bcbd f368 a3bc f4ee efbd
00000240: c7f8 b7bd 8c5a e93d 9e15 d8bd d28f ddbd
00000250: 5b43 003e 7028 0d3b dadc a3bd ca4a 5a3c
00000260: 407e 9e3d 018c 4b3d ea3a bbbc 828e a7bd
00000270: 6882 c7bc 9520 95bd efa9 303d 6f61 2cbd
00000280: f46b e3ba af99 af3d 6227 44bd 9702 b73d
00000290: 76ac e83c 57a0 b93c 4432 a63d 8ace 8ebd
000002a0: 24d4 d73d f26d 843d 7199 c7bd 10b9 873d
000002b0: 3587 503d 0360 033e be5b ae3d 8e25 2ebd
000002c0: 3e22 98bd cc1d c7bd 739b c0bd d84c 38bd
000002d0: 847c e83c fe4c 0e3d 65d3 0fbd c506 083d
000002e0: b053 dcbd 0378 a33d 7d65 0bbd 2bbd a73d
000002f0: bd2e 77bd 4f1c a63d 281a 28bd 02cc fc3d
00000300: f776 fa3d 7730 ff3c f8fd b13d 1fdc ee3d
00000310: 0138 893d d48f a1bd 5a8a d2bd 4e95 7cbd
00000320: 5791 b4bd ee43 bc3c 6b1c d9bb da64 423c
00000330: 151b d6bc 0309 fd3d 8ef3 21bc 6d62 c4bc
00000340: a5cb fc3c a8ec 0dbd fa8d f5bd 7012 313d
00000350: 6586 d4bd ae55 ca3d d6f9 5ebc c771 8cbd
00000360: c1a5 09bd 57e4 82bd fc28 ca3d a545 8c3d
00000370: 0b68 b83c 210c 073d f7ae bfbd e913 e6bc
00000380: b63e 903d 7648 4dbb a2fc 133d c3a2 4a3e
00000390: 0d95 ea3d 8258 01bc 2723 4cbd 61dd 36bc
000003a0: c17c f33d a1cb db3d e6be 133d 519d 6bbd
000003b0: 1a52 4c3d f0bb e03c ba4f 3fbb fe71 e53c
000003c0: 2af4 823a 5657 e2bc d828 993d ef54 503d
000003d0: 5d2d 6dbd 161a 3fbd 6770 003e b701 4abb
000003e0: d198 593c 6ecb 36bd bf9e f1bd d2b2 64bd
000003f0: bd7c af3c 0e20 c23d 39e0 26bd 3fc0 4fbd
0.052194506 -0.1253348 0.0016426287 -0.0695745 -0.042911105 0.092315406 -0.12988581 -0.14108825
0.10251266 0.061136823 -0.10972142 0.037948158 -0.047512393 0.087329 -0.071426734 0.07819946
-0.0389983 0.002774676 0.022662753 0.121760935 -0.105048105 0.043708522 -0.10612524 0.09869414
0.07588449 0.015242183 0.017312171 0.14110725 0.014813511 0.029131848 0.007753619 0.1603336
0.023392312 -0.08948396 0.03284993 -0.032111563 -0.12859844 -0.02469828 -0.05635519 0.049632832
0.051206384 -0.048533406 0.13900302 0.008416361 0.05850163 -0.037546456 0.12019885 -0.024944723
0.04866098 0.112549536 -0.05871259 0.07651382 0.08754633 0.1365335 -0.061979856 0.073896535
-0.08768542 -0.044838835 -0.0663382 0.01157601 0.08959993 0.06831209 -0.02864125 0.10105013
0.027063312 0.042750813 0.09431265 -0.017527398 -0.11854698 0.1471485 0.06023043 -0.13514797
-0.12680984 0.06285832 0.07304215 0.08133768 -0.09956682 -0.04469127 0.07050602 0.0921865
0.017594399 0.1275485 0.017834412 0.007975454 -0.1116294 -0.07542225 -0.0027197648 0.035170462
0.072780244 0.103234366 -0.10329574 0.084811665 0.11820259 -0.062876984 -0.13667174 -0.07102766
-0.015305613 -0.04088913 0.13473934 -0.07285143 0.12352433 0.071600616 -0.1254282 0.0084249135
0.0012642745 0.11041867 -0.06353725 0.10560771 -0.10456086 -0.15252115 0.13661323 0.0073477905
-0.04636433 0.016632427 -0.004756591 -0.08879764 -0.04774164 -0.1157494 -0.015323546 -0.012312593
0.07995759 -0.040338293 0.10829812 0.039715823 0.042101737 0.035331264 -0.11588617 0.10562543
-0.06421325 0.04105797 0.06058911 0.056758218 -0.010009021 -0.08281999 0.113223225 -0.02978042
0.08091866 -0.029783735 0.080683425 0.043618754 0.0049351207 -0.092068225 -0.019947505 -0.117154986
-0.089829974 0.113942236 -0.10550998 -0.10818447 0.12525694 0.0021538995 -0.080011085 0.013323495
0.07738924 0.049694065 -0.02285524 -0.08181478 -0.024354175 -0.07281605 0.04313081 -0.042085107
-0.0017350898 0.08574235 -0.04788912 0.08936041 0.028402548 0.022659464 0.08115056 -0.06972988
0.105385095 0.06466283 -0.097460635 0.06627095 0.050910193 0.12829594 0.08513592 -0.042516284
-0.07428406 -0.0972248 -0.094046496 -0.04499516 0.028379686 0.034741394 -0.03511371 0.03320958
-0.107581496 0.07981875 -0.034032334 0.08190378 -0.060347307 0.08110868 -0.04104057 0.12343599
0.12229722 0.03115104 0.08691019 0.116630785 0.06700135 -0.07888761 -0.10280295 -0.061665826
-0.08816784 0.02298161 -0.006625702 0.011864865 -0.02613596 0.123552345 -0.009884728 -0.023972714
0.030858824 -0.03464952 -0.119899705 0.043230474 -0.10377196 0.09879623 -0.01360937 -0.06857639
-0.03360534 -0.063912086 0.098710984 0.06849221 0.022510549 0.03297055 -0.09359544 -0.028085666
0.07043211 -0.0031323708 0.0361296 0.19788651 0.114542104 -0.007894637 -0.04983821 -0.011161179
0.11889029 0.107321985 0.036070727 -0.057523075 0.049882986 0.027433366 -0.0029191808 0.028008457
0.000999098 -0.027629536 0.074784935 0.05086225 -0.05790459 -0.046655737 0.12542878 -0.0030823776
0.013281063 -0.0446276 -0.117978565 -0.0558346 0.021421785 0.0947877 -0.04074118 -0.05072045

ln4.bias f4 [10]
00000000: f951 71bd 281c 363e dd2e 83bd 4442 d33e
00000010: 0116 033f e0e9 a83d d74e b8bd cb4d 4e3e
00000020: e89d eb3d 75db 833e
-0.058916066 0.17784178 -0.06405423 0.41261494 0.5120545 0.08247733 -0.089994125 0.20146863
0.115047276 0.2575337
