DL_experiments/models_chp/checkpoint_ptl_model.ckpt/lightning_logs/version_0/checkpoints/epoch=899-step=224999.ckpt (torch, 770969 bytes, 83 tensors)

conv1.0.weight f4 [16, 3, 3, 3]
000000 ec fd 4f 3d 69 46 db be 7b 77 3d bf 9d 69 71 3e
       0.05077927 -0.42827156 -0.7401044 0.23575445
000010 a1 6b 65 3e aa 7f bc be 91 e7 08 3f 4f c1 09 3f
       0.22404338 -0.3681615 0.5347834 0.5381059
000020 92 30 74 3d 6b 08 a1 bc 74 71 94 bd 1d c9 60 be
       0.059616633 -0.019657334 -0.07248202 -0.21951719
000030 c9 0a 2e 3f 27 29 04 3f 0d ee ee 3d 61 0f 56 3f
       0.67985207 0.51625293 0.11666498 0.83617216
000040 c8 11 1c 3f 99 94 b2 3e d1 4a d7 be 1e f5 b6 be
       0.6096463 0.34878996 -0.42049268 -0.35733885
000050 aa a7 63 bf 05 8e e9 3d 7e 96 97 be 4c 79 0b bf
       -0.8892771 0.11404041 -0.29607004 -0.5448196
000060 4a b0 f4 3e 85 1e 66 bd ba 96 3c be 76 f3 5b bf
       0.47790748 -0.05618145 -0.18416873 -0.85918367
000070 d4 1f e7 be de 69 37 bd 7d 4a 5c bf a3 2b 3a be
       -0.4514147 -0.044778697 -0.8605116 -0.18180709
000080 e4 01 e3 3e d9 a4 a1 bf a3 5b a8 3b ec 5c 74 3d
       0.4433738 -1.2628433 0.005137877 0.05965893
000090 0f e2 c0 3c ef 6f 41 be fb 98 e9 3e 77 7c 44 be
       0.023545293 -0.18890356 0.45624527 -0.19188105
0000a0 51 fc 27 be ac b4 91 3e 9d 81 69 bf a9 3a 05 3e
       -0.16404845 0.28458154 -0.912134 0.13010658
0000b0 1f d5 01 bc 6c b3 05 bf 46 94 ef be 4e c7 9d 3e
       -0.007924347 -0.522269 -0.4679281 0.3081612
0000c0 78 e3 77 bf 37 b7 69 3d c9 4e 2c 3f 63 be d7 bf
       -0.96831465 0.057059493 0.67307717 -1.6854976
0000d0 29 36 a8 3d 55 e2 09 be 1e 22 0d bf 98 f2 14 bf
       0.08213455 -0.13465245 -0.55130184 -0.5818267
0000e0 f7 98 d4 be 65 7a f5 be 73 88 85 be 30 21 09 bd
       -0.41522953 -0.47944942 -0.26080665 -0.033478916
0000f0 36 da 5e be fc 2a 9a bd 2d ee a7 be 30 a4 86 be
       -0.21762928 -0.0752773 -0.327989 -0.2629714
000100 a8 2a de be 56 11 78 bd 97 30 b1 3e 77 db 51 be
       -0.4339192 -0.060563408 0.34607384 -0.20493875
000110 9d bd f3 bd 01 3d 12 3f fa fb 0f 3e 83 e3 66 be
       -0.119014 0.57124335 0.14060965 -0.22547726
000120 76 9b 0b 3f ec e4 99 3e 39 ca ea 3e 4c 82 3e 3f
       0.5453409 0.30057466 0.4585741 0.7441757
000130 a3 ea 22 3f 10 7c 44 3f c9 05 84 3f 89 90 7d 3f
       0.6363928 0.76751804 1.0314265 0.9904867
000140 56 b3 17 3f f6 43 66 be de a0 08 3e aa a2 cf bd
       0.5925802 -0.22486863 0.13342616 -0.101384476
000150 b7 23 45 be 30 6d 06 bd 5a 9d fb 3d af ed d7 bd
       -0.19251905 -0.032818973 0.12285872 -0.105433814
000160 d5 88 2f 3d 33 fc 57 be af 41 82 be a8 f4 a5 bd
       0.042855103 -0.210923 -0.25440738 -0.08103305
000170 2c 45 9d 3c 6f 58 13 be 7c 21 8c 3d 44 0e 3b be
       0.019198023 -0.14389203 0.06842324 -0.1826716
000180 af 11 4d bd 11 24 15 bd 22 e5 dd 3d b8 d4 45 be
       -0.050065693 -0.03641135 0.10834719 -0.19319427
000190 82 09 a9 3c 9f db f2 bd a3 b4 41 be ef 10 a2 bc
       0.020634416 -0.11858296 -0.18916564 -0.019783465
0001a0 ea fc 1d bd 18 b1 c4 bd b1 42 b6 3d db 85 9a 3d
       -0.038571276 -0.096040905 0.08899439 0.07545062
0001b0 ac f9 4b bf ca 9d b3 3d 86 9f 86 be bf bd a5 3e
       -0.79677844 0.0877033 -0.26293582 0.32371327
0001c0 11 1d 0b 3f 00 c3 8b 3e f7 7d c5 bc 4c 9d 93 be
       0.54341227 0.2729721 -0.024107916 -0.28830945
0001d0 05 15 16 be 91 dd 57 bf 9f 9a 9c 3d 5f ac 07 be
       -0.14656456 -0.8432246 0.07646679 -0.13249348
0001e0 ac 84 aa 3e aa d8 b7 3e 3c a2 94 3e 81 30 21 be
       0.33304346 0.3590749 0.29030025 -0.15741159
0001f0 51 b7 26 bf 48 5c 30 bf cf bc 52 bf 72 26 22 3b
       -0.6512347 -0.6889081 -0.8231935 0.0024742153
000200 2a 29 bc be 7a cb 02 3f 99 2f 30 3f 0f 39 aa 3e
       -0.36750156 0.5109173 0.6882263 0.33246657
000210 ce 97 82 be 2d 8d 42 bf d3 06 06 bf 09 86 c8 be
       -0.25506443 -0.7599667 -0.5235416 -0.3916476
000220 bc f2 39 be f6 53 fa be 73 92 a9 bd 5f f0 10 3f
       -0.18159002 -0.48892182 -0.08279886 0.5661678
000230 a0 6f 99 be f8 bc 18 3c 9a 30 32 3e 89 81 0f be
       -0.29967976 0.009322397 0.17401353 -0.14014257
000240 1e 7b 1f 3e fe 38 30 3f 0a d4 33 be 5d cb 0a 3f
       0.15574309 0.68836963 -0.17561355 0.5421656
000250 1d 5b bf 3f cb 98 60 3e a7 13 9d be 5b b1 ff 3e
       1.494968 0.21933286 -0.30679056 0.4994
000260 a6 36 18 be d5 44 8c bd d6 bd 38 3e 7b ea 33 be
       -0.14864597 -0.06849066 0.18041167 -0.17569916
000270 50 d9 e3 3e 75 ff fd 3f 9a 4f 1b be ad a0 9b bd
       0.44501734 1.9843584 -0.15167084 -0.07599006
000280 b6 ea 1c 3f 8b e5 e0 be 6c f0 f6 be 5a 17 66 bc
       0.6129564 -0.43925127 -0.48230302 -0.014043653
000290 2a e9 74 be 75 1e b5 be 83 96 7e bd 2e 8b 5c 3e
       -0.2391707 -0.353748 -0.062155258 0.21537468
0002a0 1c a4 8c be 86 a5 c8 3d 4b bb 17 be 59 54 40 bd
       -0.27468956 0.09797196 -0.1481754 -0.04695544
0002b0 5b 71 ff 3e c9 17 4e 3f aa d4 b4 3d 1d b6 45 3f
       0.4989117 0.80505043 0.08829625 0.7723101
0002c0 f5 6a 99 3f f6 98 71 be 3d 74 b2 3e 72 74 14 3f
       1.1985766 -0.23593506 0.34854308 0.5799018
0002d0 91 c6 52 3c 8c c7 95 3e 99 72 49 3f 0a 66 e2 be
       0.012864725 0.29253805 0.7869049 -0.44218475
0002e0 42 8b 26 3f f8 97 61 3f 81 fe b1 be f5 e9 dc 3c
       0.6505624 0.8812251 -0.34764484 0.026967028
0002f0 b7 d4 02 3e 3b 94 3b 3f 24 ed 1a 3f 4e 42 d0 be
       0.12776457 0.73273057 0.605181 -0.40675586
000300 bf cd f5 3d fa 83 a0 bd 3b 35 14 bf a8 00 60 3e
       0.120021336 -0.078376725 -0.57893723 0.2187525
000310 f9 e3 18 bf f5 5d 2a bf f7 e5 46 3f 08 66 11 3f
       -0.5972286 -0.6654962 0.7769465 0.5679631
000320 b0 c7 cc be 2e 41 a4 be 1e 39 c7 be ea 40 09 bf
       -0.399961 -0.32080978 -0.38910764 -0.53614676
000330 f2 25 83 bd 5e 65 1e be ea 59 85 3c 70 cd 33 3f
       -0.06403722 -0.15468356 0.016278226 0.7023535
000340 c4 e6 2d 3f 54 02 2c bd d9 81 4e be ee 95 63 bd
       0.67930245 -0.041994408 -0.2016672 -0.055562906
000350 05 c1 b8 be 16 bc 46 3e 1b cc e2 bd 68 ca 4c bd
       -0.36084762 0.19407687 -0.11074086 -0.049997717
000360 24 be 38 bf c4 c5 ef be 16 f2 1b bf 5c 27 74 be
       -0.7216513 -0.4683057 -0.6091627 -0.2384314
000370 f3 86 bb 3e 3c fa dd bd 28 ee f1 3d c4 1f 34 3e
       0.36626396 -0.10838744 0.11813003 0.17590243
000380 44 38 d1 bd 49 92 14 be 3c 63 51 3f e4 30 00 3f
       -0.1021581 -0.14508928 0.81792045 0.500746
000390 2b 57 2d 3e 02 24 bc 3f 66 50 1a 3f c2 f1 8b be
       0.16927783 1.4698489 0.6027893 -0.27332884
0003a0 4c 8a 40 3f 01 99 25 be ce ac 27 bf d3 93 78 3e
       0.75211024 -0.16171648 -0.65498054 0.2427514
0003b0 1e e0 07 be 11 36 e4 be 51 13 18 3f 76 23 0c 3d
       -0.13269088 -0.445725 0.59404474 0.034213506
0003c0 57 0d cd be c2 f4 82 3e 28 e6 f8 bd 53 c9 64 bf
       -0.4004924 0.2557736 -0.12153274 -0.89369696
0003d0 99 5d ab be 4c 8e 68 bf 45 7e 70 be d5 ea 0e bf
       -0.33469847 -0.9084213 -0.23485668 -0.55827075
0003e0 21 05 bb 3e ce b2 41 be ce 3e 8f bf 21 2b 93 bd
       0.3652735 -0.18915865 -1.1191041 -0.071859606
0003f0 a8 47 25 bf 3c 68 7d bd 79 3f 3d bf 18 f8 79 bc
       -0.64562464 -0.061866984 -0.73924977 -0.015256904

conv1.0.bias f4 [16]
000000 2c 8b 39 3f ce f2 95 3e d7 c4 e9 bc f9 80 04 be
       0.72477984 0.29286808 -0.028536243 -0.12939824
000010 b9 d4 a9 3e db 4d bd be 9a b3 38 bf 1d 17 5e 3f
       0.33170107 -0.36973462 -0.7214905 0.8675402
000020 90 40 99 3e 40 cb 27 be 87 26 50 be 65 00 9c 3d
       0.2993207 -0.16386127 -0.20327197 0.07617263
000030 b3 35 41 3f 9c db be 3e ef 9c a3 3d b1 e8 9e be
       0.75472564 0.37276924 0.07988917 -0.31036904

conv1.2.weight f4 [16]
000000 a7 3d ce 3f 88 9d a6 3f 95 04 33 3f e7 5a 7a 3f
       1.6112565 1.3016825 0.69928867 0.97794956
000010 9a 74 ed 3d b9 56 43 3f d6 5f 70 3f a4 56 da 3f
       0.115945056 0.76304203 0.93896234 1.7057691
000020 28 18 4e 3f 36 e8 f8 3d 2d 3e 7c 3f 7b 27 54 3f
       0.8050561 0.12153666 0.9853237 0.8287274
000030 05 87 46 3f 1c 9b bb 3f 97 87 8b 3f e2 d3 8b 3f
       0.77549773 1.4656711 1.0900754 1.0924037

conv1.2.bias f4 [16]
000000 b7 bb a9 3e 93 45 1a 3f 2f 7a dd bd 0d f4 ad 3e
       0.33151028 0.6026241 -0.1081432 0.33975258
000010 58 c0 55 bc 0d 5e 0c be 3e 86 f7 bd 79 0b 27 3d
       -0.013046347 -0.13707753 -0.120861515 0.040782426
000020 e6 62 00 be 6d db 8f be ae ea 7e 3c a0 c7 24 be
       -0.12537727 -0.28097096 0.015558882 -0.16091776
000030 4c 84 2e be 9a 75 f0 3e 00 4a 37 3d 8b 91 22 bb
       -0.17042655 0.46964723 0.044748306 -0.0024805989

conv1.2.running_mean f4 [16]
000000 5d 62 96 3f 54 80 d5 3c e5 4e 72 3f 04 00 00 00
       1.1748768 0.026062168 0.94651634 6e-45
000010 17 80 28 3d 54 85 b6 3f fe 09 a4 3f fa cf 31 3f
       0.04113778 1.4259439 1.2815549 0.6945797
000020 7a 54 62 3f a9 e7 b0 36 04 00 00 00 ca 19 aa 3f
       0.8841015 5.2721775e-06 6e-45 1.328912
000030 08 be dc 3f a6 e6 45 3e 99 af 91 3f 04 00 00 00
       1.7245493 0.19326267 1.1381713 6e-45

conv1.2.running_var f4 [16]
000000 71 5f fa 3e 0c 89 44 3c 14 64 87 3f 04 00 00 00
       0.4890094 0.011995565 1.0577416 6e-45
000010 27 d5 3f 3c b0 d8 e8 3f ec 33 e4 3f 0c e3 86 3e
       0.011708534 1.8191128 1.7828345 0.26345098
000020 34 00 e6 3e 1d 11 b3 35 04 00 00 00 6f be c1 3f
       0.4492203 1.334152e-06 6e-45 1.5136241
000030 bc 40 33 3f b1 83 03 3e 7f 40 33 3f 04 00 00 00
       0.7002065 0.12843205 0.7002029 6e-45

conv2.0.weight f4 [32, 16, 3, 3]
000000 6a 0a 9b be 35 62 1c bf cc 62 6d bd 9a c5 08 3f
       -0.30281383 -0.6108735 -0.05795555 0.53426516
000010 ad dd cc bd 84 63 7b 3f 66 4a e8 3e 37 0d e8 be
       -0.10003219 0.98198724 0.45369262 -0.45322582
000020 2e 97 c4 bd b3 ff 1b bf c3 e1 99 3e 6e 07 58 be
       -0.09599148 -0.6093704 0.30055055 -0.21096584
000030 c0 50 23 bf 6c de 9f bd 28 49 3e bf 70 52 f6 3d
       -0.6379509 -0.078060955 -0.7433038 0.120274425
000040 76 59 a3 3e 74 26 5a bf 71 6f 6a bf 44 31 89 bf
       0.3190419 -0.85214925 -0.91576296 -1.071816
000050 17 b1 c1 be 02 b7 5b be d2 a4 c3 be fe 68 5c 3e
       -0.3783042 -0.2145653 -0.38211685 0.21524426
000060 4e 1d 61 be 1c c7 09 be 5f 92 06 3e fd 64 8f be
       -0.21983835 -0.1345486 0.13141774 -0.28006735
000070 a4 a2 8d be 3f 1f 96 be 47 dd b6 be fe 2c 14 be
       -0.27663147 -0.29320714 -0.35715696 -0.14470288
000080 1b f1 80 be 01 62 8a be 78 2e 56 be b0 00 6d be
       -0.2518395 -0.27027896 -0.20916164 -0.23144794
000090 3c 4c c7 3d d1 b6 09 be 55 99 8d 3e 71 67 3d be
       0.097313374 -0.13448645 0.27656046 -0.18496491
0000a0 7e 7a 9a be a7 18 17 bf 57 08 bc bc f2 39 e8 3e
       -0.3017158 -0.5902199 -0.022953195 0.4535671
0000b0 91 b9 01 bc 30 00 47 bf 4d 67 27 bf 09 07 94 be
       -0.007917778 -0.7773466 -0.65392 -0.28911617
0000c0 8d f8 0f bf f2 21 87 be 25 46 f7 3e 86 81 65 3e
       -0.56238633 -0.26393086 0.48295704 0.2241269
0000d0 40 e5 a8 3d 6f 58 cc bd 72 f3 40 bf 31 e5 0e be
       0.08246851 -0.09977805 -0.7537147 -0.13954617
0000e0 85 d8 08 be bb db 29 bf f7 da ac 3e b3 cb d4 3e
       -0.13363846 -0.6635091 0.33760807 0.4156166
0000f0 31 2c 19 3d ef 1f 92 3e ec a0 17 3f fa 29 88 3d
       0.03739566 0.28539988 0.5922992 0.066486314
000100 43 14 a7 bd f5 a9 84 be b6 2f 0f be 03 a3 ac bf
       -0.081581615 -0.25910917 -0.13983044 -1.3487247
000110 11 16 c7 be e0 43 08 be f4 62 fc be bd 0d 65 bc
       -0.38884023 -0.13307142 -0.49294245 -0.013980326
000120 c1 f4 6d bf ea ed aa be f7 f8 e9 3d c8 87 2c bf
       -0.9295159 -0.3338464 0.114244394 -0.67394686
000130 e4 dc b2 3e 1f a8 ac 3e 80 ba 3e 3e f5 ed c0 3e
       0.3493415 0.33722016 0.18625832 0.37681547
000140 b2 56 31 3e 8a 7d 42 3e 02 58 6f be a5 82 83 3e
       0.17318228 0.18993202 -0.23373416 0.2568561
000150 30 8f e6 3d 1f 5f b5 3d 19 10 84 3e 89 c8 c9 3d
       0.112577796 0.088560335 0.25793532 0.09852702
000160 75 e1 cb 3e 41 b8 92 3e 30 71 31 bd 93 56 78 bd
       0.39820448 0.286562 -0.043320835 -0.06062944
000170 d5 15 97 3d 62 da 8f bd 0b d1 0a 3a 91 84 de 3d
       0.07377211 -0.07024075 0.0005295432 0.10865129
000180 87 81 b9 3c 9a e6 04 3c b7 c9 90 3d f1 43 41 bf
       0.022644771 0.00811162 0.07069724 -0.75494295
000190 1c 7c 20 bf 5c db c3 be 25 86 2c bf af 44 6e bf
       -0.62689376 -0.38253295 -0.6739219 -0.9307355
0001a0 df 17 56 3e 1d 32 96 3d 6c f2 00 bf bb 47 c9 3e
       0.20907544 0.07333777 -0.50369906 0.39312539
0001b0 32 85 73 bf 64 ed 51 bf e3 4d ce bd df 1c a6 be
       -0.95125115 -0.82002854 -0.100734495 -0.32443902
0001c0 9c 7f 0d 3f 10 87 67 3f 96 6e 88 3e 6b 3b 59 3e
       0.5527284 0.90440464 0.2664687 0.21214072
0001d0 e5 03 4b be e9 16 03 bf 8f ba 7f 3e 00 2d d5 bc
       -0.19825704 -0.51206833 0.2497351 -0.026022434
0001e0 30 4c 00 bf 2a fd a9 3e f4 df 81 bf 73 8b 62 3e
       -0.5011625 0.3320096 -1.014647 0.22123508
0001f0 50 d0 f6 3c 76 32 23 bf e8 cf 5e bf 39 10 f2 be
       0.030128628 -0.6374887 -0.8703599 -0.47278002
000200 c2 4f a3 3d b3 46 1f bf a5 de ff 3e 82 7c fa 3e
       0.07974197 -0.62217253 0.49974552 0.48923117
000210 7d df 12 3d 4f 7f e1 3d 1f 48 c2 bd 0f 77 5a be
       0.035857666 0.1101061 -0.09486412 -0.2133448
000220 90 06 c0 bc 29 45 93 bb 16 b8 10 be 49 b4 fd bd
       -0.02344063 -0.0044943285 -0.14132723 -0.12387902
000230 4d b1 c8 3d 14 c3 1a bc 07 1b 0c be c6 e3 5e 3c
       0.097994424 -0.009445924 -0.13682185 0.01360411
000240 cc 6a ae bd 79 d5 93 be 84 15 0d bf be 2f 1e 3e
       -0.08516464 -0.28873804 -0.55110955 0.154479
000250 25 9a f0 be 33 be 33 bf e5 98 32 3f 5d bb dd 3e
       -0.46992603 -0.70212096 0.6976455 0.4330701
000260 ed 59 80 3d 6f aa 1d bf 5c e7 62 3f 57 92 4e bf
       0.06267152 -0.61588186 0.88634276 -0.80692047
000270 3f 4a b9 bf f8 ca 83 be 00 21 4c bf 05 c9 37 3e
       -1.4475783 -0.2574079 -0.79737854 0.17947777
000280 e3 a2 1c bf 3e 6b 0c be 5c a2 a8 bd ab b6 da bd
       -0.61186045 -0.13712785 -0.082340926 -0.106793724
000290 1d 26 45 be 85 e3 ec bd 1c 28 a9 3d 26 0e 6e be
       -0.1925282 -0.115668334 0.082596034 -0.23247585
0002a0 3c fd a2 3d 6d 04 15 be 23 11 88 be 4d a1 1d bf
       0.07958457 -0.1455247 -0.26575574 -0.6157425
0002b0 fd 02 0f bf 93 91 46 bf 7f 21 35 bf 19 98 32 bf
       -0.55863935 -0.7756588 -0.70754236 -0.6976333
0002c0 0b 58 2b bf 97 c0 2a bf 17 57 3b bf 99 81 36 bf
       -0.6693122 -0.6670012 -0.73179764 -0.712915
0002d0 08 b7 9c be 21 01 2a 3f e7 77 5a 3f a8 38 e6 be
       -0.30608392 0.6640797 0.85339206 -0.449651
0002e0 62 20 40 bf ac bf f4 3d 6c 9d ac 3e 5d 77 de bd
       -0.7504941 0.11950621 0.33713853 -0.108626105
0002f0 1f 06 89 3e 01 3f 26 3d f1 5f 16 bd 54 22 69 be
       0.26762483 0.04058743 -0.03671259 -0.22767001
000300 ba 54 4d be 9c 00 e8 be 9d ee 08 bf 30 52 0b 3f
       -0.20051852 -0.45312965 -0.53489095 0.54422283
000310 f0 58 35 be 94 60 57 be 23 01 b2 bc 95 6e 29 3e
       -0.17709708 -0.21032935 -0.021729058 0.1654609
000320 86 7a f8 3d 3c 61 01 bf c0 f0 ce be f9 f7 ef 3c
       0.121327445 -0.5053899 -0.40418053 0.029293047
000330 2e e8 9f 3e 97 bd 54 be fa 60 a8 be 9a db f3 3e
       0.31231827 -0.20775448 -0.32886487 0.4762848
000340 00 9e 2e 3f ec 5b 38 3f b1 b6 70 3d 2c e6 5b bd
       0.6820984 0.7201526 0.058767978 -0.053686306
000350 c0 f3 3a be 3a da 14 be 8c 48 14 bf 79 19 a6 bf
       -0.18257046 -0.14536372 -0.579232 -1.2976524
000360 10 ee f0 bc b8 f5 34 be c8 6e 81 be 61 1b 69 be
       -0.029410392 -0.1767186 -0.25279832 -0.2276435
000370 7b e7 36 be c2 18 5d be 69 8f cd 3e 9c af 05 3e
       -0.1786174 -0.21591476 0.40148476 0.13055271
000380 29 4f 53 be 87 aa 49 3f 7a 76 2e 3f 5f 50 1d 3f
       -0.20635666 0.7877583 0.6814953 0.6145076
000390 f4 c5 13 3f 56 d1 ca 3e 8d 27 36 3f 69 00 04 3f
       0.5772393 0.39612836 0.711541 0.51563126
0003a0 8e d8 d0 3e 3e c3 eb 3e 86 0f 0d 3e c2 98 0e 3e
       0.40790218 0.46047395 0.13775453 0.1392546
0003b0 77 1e fb 3d a8 c3 00 bc 07 52 c1 bc c6 c4 c1 bd
       0.1226167 -0.007859148 -0.023598684 -0.0946136
0003c0 ce ad 06 be 6c 6d f3 bd fa 08 03 be cd e3 54 3d
       -0.13152239 -0.11886105 -0.12796393 0.05197506
0003d0 94 69 93 3e 81 3c 7f 3e ff 5a e8 be f9 48 c6 be
       0.28791487 0.24925424 -0.45381925 -0.3872755
0003e0 1d 7c c2 be f5 92 35 3e 01 bf 1b be b2 44 92 be
       -0.37985316 0.17731841 -0.15209581 -0.28568035
0003f0 6a 8b 3c be 46 28 8f be a3 d3 82 be 56 69 c5 be
       -0.18412557 -0.27960414 -0.2555209 -0.38556927

conv2.0.bias f4 [32]
000000 d4 b1 c9 be c9 2a 68 bf a3 95 e4 be 0e 3e 6a bf
       -0.39393485 -0.90690285 -0.44645414 -0.9150094
000010 d2 15 1d bf 9f 75 ee be de 2b 37 3d 32 cf 71 bf
       -0.6136142 -0.46574113 0.04471957 -0.9445678
000020 3f 75 94 3c 12 c5 df be d4 28 f8 bd 44 29 4b bf
       0.018122314 -0.4370504 -0.12117162 -0.7935984
000030 41 e8 8f bf 43 0d 96 bd 48 c3 51 be fe 95 0f bf
       -1.1242753 -0.07326748 -0.2048465 -0.56088245
000040 76 79 8d be 1e 8b 02 bf 15 b5 11 bf cd 59 03 bf
       -0.2763173 -0.50993526 -0.56916934 -0.513089
000050 8e b2 d6 3c 3f d0 cd be c4 20 22 bf 63 f6 61 be
       0.026208188 -0.40197942 -0.63331246 -0.22066645
000060 d6 d1 78 bf 80 c2 f7 be 20 2e 34 bf ca aa 37 bf
       -0.97195184 -0.4839058 -0.7038288 -0.7174498
000070 22 3c 8b be b6 19 14 3f 1b 3d 43 be 23 91 33 bf
       -0.27194315 0.5785173 -0.19066279 -0.70143336

conv2.2.weight f4 [32]
000000 1e ba c6 3f a6 5e 98 3f 20 ad 45 3f e5 83 69 3f
       1.5525548 1.1903884 0.7721729 0.9121688
000010 59 18 82 3f 3e af 81 3f 98 e8 5a 3f 98 18 89 3f
       1.016368 1.0131605 0.8551116 1.071063
000020 88 38 8a 3f ae ac 6b 3f 37 9d 41 3f 38 ad 8a 3f
       1.0798502 0.92060363 0.75630516 1.0834112
000030 88 7f 5c 3f 04 2c 8a 3f 57 df 85 3f 01 9f da 3f
       0.861321 1.0794683 1.0458783 1.7079774
000040 ad f0 84 3f 56 f9 84 3f 49 5c a0 3f 59 07 8f 3f
       1.0385948 1.0388591 1.2528163 1.1174117
000050 e4 ab 86 3f c3 f0 a6 3f 5f 1b 97 3f f3 aa 83 3f
       1.0521207 1.3042225 1.1805228 1.0286545
000060 ed dd 7f 3f f4 e6 86 3f ae d2 d0 3f 0e f2 74 3f
       0.99948007 1.0539231 1.6314294 0.95681846
000070 6a 43 a3 3f 7b c1 90 3f 57 df 5f 3f a2 d8 22 3f
       1.2754948 1.1309046 0.87450165 0.63611805

conv2.2.bias f4 [32]
000000 9c 91 43 be 9e d6 3b 3f fb a4 74 3e e4 e7 8b 3d
       -0.19098514 0.73374355 0.2389106 0.06831339
000010 db 4c 57 be 28 14 56 3e 7c bb fb 3d a0 81 1d 3f
       -0.21025412 0.20906126 0.12291619 0.6152592
000020 6b 66 e4 3e 2c 3c fc 3e ed 96 82 3d 10 17 87 3e
       0.4460939 0.49264657 0.06376443 0.26384783
000030 24 5f 73 3e e7 75 89 3e 80 17 81 be 57 07 5e 3e
       0.23766762 0.26847765 -0.25213242 0.21682487
000040 1e 49 be bc 0f c7 17 3f 98 fa 96 3c 12 6c 8f 3e
       -0.023228224 0.59288114 0.01843004 0.2801214
000050 52 c3 95 3e 2a 81 d2 3e b5 0f 61 3e 2b d0 1b be
       0.2925058 0.4111417 0.21978648 -0.15216129
000060 7e e5 05 3e 5b ae cd 3d 0b 52 ef 3e 09 66 11 3f
       0.13075826 0.10043021 0.4674228 0.5679632
000070 c9 b2 cd 3e ec f1 9e 3e 83 5b b8 be 62 33 46 bb
       0.40175465 0.31043947 -0.36007318 -0.003024303

conv2.2.running_mean f4 [32]
000000 ed 42 c2 3f 57 16 0c 3f bf 0e 25 3e 97 7b a7 3f
       1.5176674 0.5472159 0.16118906 1.3084592
000010 1c 68 2c 3f ff a2 11 3f 41 07 d0 3f b1 b0 2c 40
       0.6734636 0.5688934 1.6252214 2.6982844
000020 bf 4f d2 3f 66 2c fd 3f 04 5c 26 3f 64 a9 c1 3f
       1.6430587 1.9779174 0.64984155 1.5129819
000030 a8 6e b5 3f 06 c8 a1 3f 69 5f eb 3f e0 0a b2 3f
       1.4174395 1.2639167 1.8388492 1.3909569
000040 63 57 c2 3f 06 37 33 40 4a dd c1 3f b6 93 ea 3f
       1.5182918 2.8002334 1.5145657 1.8326328
000050 82 5a b0 3f fe 12 8a 3f 34 eb 0d 40 1a 34 f3 3f
       1.3777621 1.0787046 2.2174807 1.9000275
000060 b8 f4 f7 3e 8e fc 62 3f 7c b3 a3 3f 28 99 11 40
       0.48428893 0.8866662 1.2789149 2.274973
000070 c0 38 d5 3f fc 8b 1e 40 26 09 89 3f 2e 66 97 3e
       1.6657944 2.477294 1.0705917 0.29570144

conv2.2.running_var f4 [32]
000000 0f b9 6c 41 a7 c2 82 40 f5 18 86 3f 01 78 2c 41
       14.79518 4.0862613 1.0476366 10.779298
000010 b1 83 bd 40 c3 02 51 40 7d 3c 66 41 30 bc d1 41
       5.9223256 3.2657936 14.389768 26.216888
000020 9e b9 5f 41 5b de 4e 41 71 57 ad 40 a0 61 53 41
       13.982817 12.929286 5.416924 13.211334
000030 4a 31 7b 41 16 55 16 41 1c 6a 40 41 c2 10 67 41
       15.699533 9.395773 12.025906 14.441591
000040 04 82 68 41 70 45 c0 41 57 d8 31 41 3b 4a 96 41
       14.531742 24.033905 11.115317 18.786245
000050 6c 34 06 41 07 75 39 41 9b 1a 72 41 49 cc 7b 41
       8.387798 11.591071 15.131495 15.737374
000060 96 0a 97 40 73 dd e8 40 fc 8c 30 41 bb 21 a6 41
       4.720042 7.2770324 11.03442 20.76647
000070 41 9b 40 41 a1 bf 8d 41 4d 14 c7 40 6f 7f 08 40
       12.037904 17.718569 6.221228 2.132778

conv3.0.weight f4 [64, 32, 3, 3]
000000 3c d2 aa be 2c 83 1b bf b3 73 c8 3e 26 94 41 bd
       -0.3336352 -0.6074703 0.39150771 -0.047260426
000010 25 5c 28 bf f8 f3 f4 3e 78 bf 28 3e 66 67 ab 3e
       -0.657656 0.47842383 0.1647929 0.33477324
000020 c6 ca 3b 3f 80 37 5a 3b 03 fb 9a 3c 98 05 48 bd
       0.7335628 0.003329724 0.01891852 -0.04883346
000030 35 a8 d6 3d e3 3f bf 3e 2c 03 07 bf 42 b9 1f bf
       0.10481302 0.3735343 -0.52739215 -0.62392056
000040 35 bf a6 bd 66 57 28 be 0d 8e e3 bd b4 a2 df 3e
       -0.081419386 -0.1643959 -0.111110784 0.4367882
000050 82 70 ac 3e cc ed ae 3e e7 c6 7e bf db 8a 99 bf
       0.33679587 0.341658 -0.9952225 -1.19955
000060 aa 59 ed 3e 17 bf 15 be 37 7f 93 bf 6b 78 ac bd
       0.4635747 -0.14623676 -1.1523198 -0.084214054
000070 17 e7 b5 bf 4c ff e7 3e dc 0f f3 be dd c0 61 be
       -1.4211148 0.45311964 -0.47473037 -0.22046228
000080 a4 95 88 bf f0 25 66 bf d7 65 dc be 80 c2 db bf
       -1.0670667 -0.8990164 -0.43046448 -1.7168732
000090 1d a7 04 3e 5f 8b dc 3e f0 0e f5 be 24 9f 6f 3f
       0.12954374 0.43075082 -0.4786296 0.93602204
0000a0 e8 2c 5a 3c 49 f4 80 3e 30 ae 8c 3b c1 33 2f 3c
       0.013316371 0.25186375 0.0042932257 0.010693491
0000b0 a4 fc 80 be 56 dd a2 be 4d 68 fa 3e 8e 0f cf bd
       -0.2519275 -0.3180949 0.489077 -0.10110389
0000c0 96 c7 25 be 34 cf 60 3f 3c c5 d0 bd 6a 01 ec be
       -0.16189417 0.87816167 -0.101938695 -0.4609483
0000d0 4e f3 2d be bd 9e 17 3e 4e 71 ed 3d c9 10 0a 3e
       -0.16987345 0.14806648 0.11593877 0.13482966
0000e0 61 a7 ed 3d 70 2b 09 3f 3e 30 8b 3f 24 40 06 bf
       0.116041906 0.53581905 1.0874097 -0.5244162
0000f0 52 df 03 3e e1 8d 40 bf 93 26 22 be 45 c1 5a bf
       0.12878159 -0.7521649 -0.15835027 -0.85451156
000100 f4 19 44 bf 6e 53 48 bf cf ee cb bf 79 79 21 bf
       -0.766021 -0.78252304 -1.5932254 -0.6307598
000110 98 d4 d1 3e 0b 29 80 3d d1 0b 5a bf 4f 9b 2e bf
       0.4098251 0.06257828 -0.8517428 -0.6820573
000120 af 7e df 3e 56 43 90 be 1f 71 ea 3e ac 90 f9 3d
       0.4365134 -0.28176373 0.4578943 0.12185797
000130 a1 23 a1 3d 6b e7 2a bf 1d 41 0a 3d 2b dd 12 be
       0.07868124 -0.66759366 0.033753503 -0.14342181
000140 59 01 61 bf 7c da 11 bf d5 de 07 3f 30 7a 83 be
       -0.8789268 -0.56974006 0.5307439 -0.2567916
000150 9c 3e a9 3d c2 df 57 be b4 ea b7 be 6f a0 a3 3e
       0.08263895 -0.2108145 -0.35921252 0.3195834
000160 1f db 03 3f d2 bb ae 3e 2c 59 14 3e 7e 50 ee bc
       0.5150623 0.3412767 0.14487141 -0.029091116
000170 0d 5b 07 be 36 a6 66 3f 2e e9 ad 3e f4 0c df 3d
       -0.13218327 0.9009737 0.33966964 0.108911425
000180 b8 4f 09 3f 0f 31 a4 3e ae 69 83 be 8a 9b b6 be
       0.53637266 0.3206868 -0.25666565 -0.35665542
000190 d6 58 1f 3e b0 84 e9 be e2 71 22 bf 9e 4f 1b bf
       0.15561232 -0.45609045 -0.6345502 -0.6066836
0001a0 e3 c7 1a 3f 7b 28 69 bf e8 5f 3f bf 66 68 a7 bf
       0.6046125 -0.91077393 -0.74755716 -1.3078735
0001b0 50 d0 af be 54 08 f2 bd 1f 5a 71 be 98 f1 dd bd
       -0.34338617 -0.11817995 -0.23569535 -0.10837096
0001c0 61 37 89 bf a2 9a a4 be 4e d9 5a 3e 4e 83 1f bf
       -1.0720025 -0.32149225 0.21371958 -0.6230973
0001d0 67 67 ee 3c 6b e9 2d be e4 17 98 bd 5b b3 c6 bc
       0.02910204 -0.16983573 -0.07426432 -0.024255445
0001e0 35 fe 68 bf 51 74 27 be 9f 0d 8f 3e 12 e7 49 3d
       -0.9101289 -0.16352965 0.2794008 0.04929263
0001f0 53 03 1a 3f ad b1 14 3f c3 79 36 bf 4d 04 9e 3e
       0.6016132 0.5808361 -0.71279544 0.30862656
000200 d6 86 99 3c a4 92 20 3f 37 2b 9d 3e b5 1c af 3e
       0.018741053 0.62723756 0.30697033 0.3420159
000210 eb f4 b1 be 90 c0 41 3e 47 74 ee 3e d4 17 4d bc
       -0.3475717 0.18921113 0.46573088 -0.012517888
000220 df e4 81 3e 7e 85 6c be 4a 99 a4 bd 42 2f f3 3e
       0.25369927 -0.23097798 -0.0803705 0.47496992
000230 43 4c c5 be 00 c8 1b bf 1a fa a4 bd 67 81 b7 3e
       -0.38534746 -0.6085205 -0.080555156 0.35840914
000240 19 8d 44 3f f3 36 66 3e e3 c7 da be 13 8f e5 3b
       0.767778 0.22481899 -0.42730626 0.007005581
000250 17 ab 29 bf 09 63 c6 be f8 9d 03 bf a2 02 37 bf
       -0.6627669 -0.38747433 -0.51412916 -0.7148839
000260 20 dd 59 be 2e 78 27 3e 2c 8a 78 be 39 a6 a6 be
       -0.21275759 0.16354439 -0.24271458 -0.32548693
000270 53 1d e1 bc b5 7b 28 3e 25 06 c2 3e f9 da c0 3e
       -0.027479803 0.1645344 0.37895313 0.37667063
000280 1a 52 cb 3e 7f 2c d7 be 83 d3 5c be 0e 36 9d 3d
       0.39711076 -0.42026135 -0.2156506 0.07676326
000290 19 7b b8 3e d2 47 85 3d 9d 30 90 3e 23 16 5b bc
       0.36031416 0.06507839 0.2816209 -0.013371977
0002a0 1e 53 ce be 99 34 fa bd 46 ef 0b be b1 4a f8 be
       -0.40297788 -0.122170635 -0.13665494 -0.48494485
0002b0 7a a1 ab 3e ea ad 82 be 42 dc 8b 3d 94 2e 34 3f
       0.33521634 -0.2552331 0.0682912 0.7038357
0002c0 3c a1 14 3e f0 b2 de bd 52 49 d0 3c 66 86 d0 bd
       0.14514631 -0.10873973 0.025425587 -0.101818845
0002d0 82 4b 3e be cf 18 80 3e 73 2b 15 bf 38 df db be
       -0.18583491 0.25018927 -0.58269423 -0.4294374
0002e0 79 71 5d 3e b1 a0 56 be 93 d2 c6 be 93 03 e6 3e
       0.21625318 -0.20959736 -0.3883253 0.44924602
0002f0 e0 c6 7e be 24 a4 33 bf 9e 78 be 3e d0 62 10 3e
       -0.24880552 -0.70172334 0.372014 0.14100194
000300 d7 ed aa 3e 7b f5 2a bd 3d 40 74 3e 6f 68 20 3f
       0.33384582 -0.041738015 0.2385263 0.62659353
000310 cd fb bf 3e 0b ba 65 be 2c a3 a4 be 71 9e 82 3e
       0.37496796 -0.22434251 -0.3215574 0.25511506
000320 fa fa 93 be df 2e 85 bd dd 45 88 3e f4 bd 98 be
       -0.28902417 -0.065030806 0.266158 -0.29832423
000330 6a 96 a2 be 2c f8 31 3f 3d 8d 18 3f 6b cc 54 be
       -0.31755382 0.69519305 0.5959051 -0.20781104
000340 18 61 59 bf c1 58 01 bf a4 18 26 be 00 ae cc be
       -0.8491378 -0.5052605 -0.16220337 -0.399765
000350 5a 36 d9 bd 1d 5c 1f bf f5 fa cd 3e c9 3c 11 be
       -0.1060607 -0.6224993 0.40230528 -0.14183344
000360 80 70 2b 3f 2c 08 ab be b0 e7 32 bf a2 73 dc bd
       0.66968536 -0.33404672 -0.6988478 -0.10764243
000370 ce 13 cc bd a7 27 ea 3d fa ec 35 bf 49 52 55 bf
       -0.09964715 0.11433344 -0.7106472 -0.8332868
000380 fe 36 2a bf 7e d5 0c c0 b2 91 f8 be 5f d9 04 3f
       -0.6649016 -2.2005305 -0.48548657 0.5189418
000390 5b 09 a3 bd 1f 77 f3 bd e2 62 7a 3d 91 9e e9 3c
       -0.07960769 -0.11887955 0.06112946 0.028517993
0003a0 2e fa 3c bf 32 96 3a bf 6c 2a 75 be 71 b9 7b be
       -0.73819244 -0.7288543 -0.23941964 -0.24582459
0003b0 60 c6 f0 be d6 78 18 3e be 15 b2 be 98 80 a0 3e
       -0.47026348 0.14889845 -0.34782213 0.3134811
0003c0 32 cb 79 bf 40 4a bb 3e fa 4a 76 be 4b e0 a1 bf
       -0.97575676 0.36580086 -0.24052039 -1.2646574
0003d0 27 38 49 bf b0 ca 74 be 21 b4 0b bf 68 43 58 bf
       -0.78601307 -0.23905444 -0.5457173 -0.84477854
0003e0 70 89 3d 3e d0 54 5f bf 99 6a b6 bd 39 eb 0e bf
       0.1850946 -0.8723879 -0.08907051 -0.5582767
0003f0 e1 63 30 bf a9 56 28 3e 6a d2 a1 3e 7f 90 98 bc
       -0.68902403 0.16439308 0.31605846 -0.018623589

conv3.0.bias f4 [64]
000000 ab 3a 0c bf 97 d6 07 bf 5b ce 4d bf d6 8e c0 be
       -0.5477702 -0.53061813 -0.80393 -0.37608975
000010 ba 47 cd be d1 45 f8 be 40 a7 25 bf 36 4c 84 bf
       -0.40093786 -0.48490766 -0.6470833 -1.0335758
000020 73 c2 68 3e c3 4c 7f 3e 3b 48 99 3e 7d a7 02 bf
       0.22730426 0.24931626 0.2993792 -0.51036817
000030 f5 8f 10 bf e7 71 8b be 9d 04 14 bf 0a 03 6f bf
       -0.5646966 -0.27235338 -0.5781954 -0.9336401
000040 ef 9e 0f 3f 04 54 2e bf 47 a7 d9 bf 21 8d bb be
       0.5610189 -0.6809695 -1.7004174 -0.3663111
000050 e8 ea 41 bd 26 a9 9a bd d2 5d fa bd 24 c3 43 bf
       -0.047343165 -0.07551794 -0.12224926 -0.76469636
000060 e2 86 03 3e 4f 53 f6 be c9 89 a4 bf 79 33 82 3e
       0.12844422 -0.48110434 -1.2854549 0.25429896
000070 2e 64 c8 be e9 e2 ad 3d e4 08 c7 be ed 12 4f bf
       -0.3913893 0.08490545 -0.3887397 -0.80888253
000080 bb e4 1c bf d4 c9 bf be c2 ce 3d bc 4d b8 67 be
       -0.61286515 -0.3745867 -0.011584939 -0.22628899
000090 97 cd 24 bf 0a c3 26 bf 80 05 dc be 63 5f 0e 3e
       -0.64376205 -0.65141356 -0.42972946 0.13903575
0000a0 dc c5 bf bd b3 a6 36 bf 68 66 fd be ae 07 52 bf
       -0.093639106 -0.7134811 -0.49492192 -0.8204297
0000b0 95 59 02 bf ef a4 6a bd 5e ef 98 be ca 2e 88 be
       -0.5091794 -0.0572862 -0.29870123 -0.26598197
0000c0 63 f7 bc bd a2 54 a8 be 08 62 a1 be 19 0f fc be
       -0.09226873 -0.3287707 -0.31520104 -0.4923027
0000d0 65 57 65 bf 12 be 41 bf 81 d8 5a bf 9b 6e d7 be
       -0.8958648 -0.7568065 -0.8548661 -0.42076573
0000e0 9f 8d 8e 3e ea 60 b7 bf 2d db a8 be 9e b5 74 be
       0.27842423 -1.4326451 -0.32979718 -0.23897406
0000f0 ae 70 c6 be 27 a2 1c be 65 bc 21 bf 7b 4c 22 bf
       -0.38757843 -0.15296231 -0.6317809 -0.6339795

conv3.2.weight f4 [64]
000000 34 27 9b 3f 03 db a3 3f 15 a0 57 3f f1 dc 8a 3f
       1.2121339 1.2801212 0.8422864 1.0848676
000010 5c 7f 86 3f ce 1b 8d 3f a9 02 68 3f d2 90 89 3f
       1.0507617 1.102411 0.9062906 1.0747321
000020 27 73 82 3f 31 a3 9f 3f c7 2f 7e 3f 8e 9c 99 3f
       1.0191392 1.2471677 0.9929165 1.2000902
000030 9f 00 af 3e 86 5c 63 3f 06 e1 88 3f 0f 8e f6 3e
       0.3418016 0.88813055 1.0693672 0.48155257
000040 1f ca bb 3f 62 e4 88 3f c4 52 6f 3f f9 9c 6f 3f
       1.4671057 1.0694697 0.93485665 0.93598896
000050 cd bb a8 3f 6f 1e 5e 3f 0d 70 87 3f 52 9a 7e 3f
       1.3182312 0.8676519 1.058107 0.99454224
000060 88 21 92 3f d1 f3 73 3f 45 d1 4f 3f 52 81 82 3f
       1.1416483 0.9529391 0.81178695 1.0195715
000070 77 ea 85 3f ca 6f a3 3f f9 ab 8a 3f 8b 2f 7e 3f
       1.0462178 1.276849 1.0833732 0.99291295
000080 bc 52 93 3f 6d 1b 3f 3f 4e 7f 9d 3f b9 ed 86 3f
       1.1509624 0.74651223 1.2304475 1.0541297
000090 42 fb 88 3f 44 30 3c 3f 46 59 69 3f d5 e2 2a 3f
       1.0701678 0.7351115 0.91151845 0.6675237
0000a0 2b 63 87 3f 10 15 37 3f 12 53 82 3f fb 61 8b 3f
       1.0577139 0.71516514 1.0181601 1.0889276
0000b0 04 69 92 3f 65 73 7f 3f 6d cb 8b 3f 65 a7 80 3f
       1.1438298 0.99785453 1.0921456 1.0051085
0000c0 55 15 95 3f 70 bf 81 3f 00 02 65 3f bd 47 8f 3f
       1.1647135 1.0136547 0.89456177 1.1193768
0000d0 9f 71 89 3f 36 b3 77 3f 71 00 6a 3f 20 c2 a6 3f
       1.07378 0.9675783 0.91406924 1.3027992
0000e0 00 df a4 3f 42 07 43 3f 9e 80 ae 3f 12 03 6c 3f
       1.2880554 0.7618295 1.3633001 0.92192185
0000f0 66 aa 72 3f 4f 10 9b 3f 77 9e a3 3f 2c 32 b7 3f
       0.9479126 1.2114352 1.2782735 1.4312186

conv3.2.bias f4 [64]
000000 15 8a d9 bd e9 da 5e bd c1 45 7a bf 50 22 89 3e
       -0.1062204 -0.054407988 -0.97762686 0.2678399
000010 b4 be da 3d ac 1c 95 3e 73 ac 4a bf 74 b6 0c be
       0.10680905 0.29123437 -0.79169387 -0.13741475
000020 b1 91 27 bf 28 2b 1e bf 1d e4 27 bd 33 f5 67 be
       -0.6545668 -0.617846 -0.04098903 -0.2265213
000030 ba 83 03 c0 81 bf 69 3d ef ea d4 3d 86 b5 64 be
       -2.054915 0.057067398 0.103963725 -0.2233487
000040 b8 89 e4 be e9 d7 62 3e 5a 02 66 3c 80 dc 2b 3f
       -0.4463632 0.22152676 0.014038647 0.6713333
000050 8f 47 3b 3d 5e 02 f0 3c 24 02 da 3e 6e 92 9e be
       0.04572254 0.029298004 0.42579758 -0.30971092
000060 0c 4e db be d4 7e a2 3c 21 c0 57 bd 9c a3 29 3f
       -0.42832983 0.019835867 -0.052673463 0.66265273
000070 4f ca 5a bd 21 43 24 3e 24 fa fe 3c 8a 06 26 be
       -0.053415593 0.16041233 0.031125136 -0.16213432
000080 04 cb cc 3e e8 50 29 bd d7 7a 9d 3d 2b 1f ea 3b
       0.3999864 -0.041336924 0.076894455 0.007144829
000090 99 2e 97 be 73 ff 64 3d bf 94 bb bd 97 7f 58 bf
       -0.2952774 0.055907678 -0.091592304 -0.84569687
0000a0 5b 0b 00 be 39 af 0e be 0e 3d 7d be 0f 33 f2 3e
       -0.12504332 -0.1393403 -0.24730322 0.4730458
0000b0 a5 61 b9 be ae 81 8f 3d e0 7d a3 bd 22 87 b9 3d
       -0.3620731 0.07007156 -0.07982993 0.09058978
0000c0 1e a0 de bd ce 60 d8 3e 7d a7 9a be 2e a3 a2 bc
       -0.10870384 0.42261356 -0.30205908 -0.0198532
0000d0 ac c9 24 bf 89 de c8 3e 5d 2f 00 be 0b 4d 44 be
       -0.64370227 0.3923228 -0.12518068 -0.19170015
0000e0 b0 13 08 be 58 f6 e8 bd bc 8c e6 be 96 44 62 bd
       -0.1328876 -0.11375111 -0.45029247 -0.05524119
0000f0 9b b7 75 be 9c 86 96 bd 5c 2c 5c be 89 97 e4 3d
       -0.23995821 -0.073498935 -0.21501297 0.111617155

conv3.2.running_mean f4 [64]
000000 7a 49 37 3f c8 ef b6 3e 17 de 2a 3e aa ed 08 3f
       0.7159649 0.35729814 0.16686283 0.53487647
000010 06 a6 04 3e 8f 38 ba 3e 5b 5b 8a 3f 67 1d 97 3e
       0.12953958 0.36371276 1.080913 0.2951462
000020 99 2c c8 40 ed c6 8c 3f 3e 58 30 40 15 ca 58 40
       6.255444 1.0998207 2.7553859 3.387334
000030 04 00 00 00 39 8f 31 3f 7c b9 b2 3e 3f 10 0f 3d
       6e-45 0.69359165 0.34907138 0.034927603
000040 08 43 48 40 58 5d 4c 3f e2 c4 8a 3e 14 8b 2f 3e
       3.1290913 0.7982993 0.27103335 0.17142898
000050 75 44 1f 3f f2 e6 61 3f 2a 88 60 3f ee 71 96 3e
       0.6221383 0.8824302 0.8770777 0.29383796
000060 02 a3 1f 3f f9 28 04 3f 3b d2 45 3f c3 01 a3 3f
       0.62358105 0.5162502 0.7727391 1.2734913
000070 93 a0 9e 3e f6 02 af 3f 36 26 00 3e 4e 65 73 3e
       0.30981883 1.3672779 0.12514576 0.23769113
000080 20 42 bc 3e 68 a9 39 3f 51 7f 19 3f c8 dd 65 3f
       0.367692 0.7252412 0.59959894 0.89791536
000090 ba 28 79 3f 22 93 88 3f 58 93 bb 3f f1 db 51 41
       0.9732777 1.0669901 1.4654341 13.116197
0000a0 9f be cd 3f bd 0b b6 3e d0 ff 5b 3e aa d3 a7 3f
       1.6073798 0.3555583 0.21484303 1.311147
0000b0 ff a4 aa 3e f3 0b 97 3e 3d f7 47 3f ac 26 4d 3e
       0.33329007 0.29501304 0.7811163 0.20034283
0000c0 1d 1b 46 3e 60 ef 7b 3f 27 f5 16 3f c0 9b 64 3f
       0.1934628 0.9841213 0.5896782 0.89300156
0000d0 fb 05 ed 3e d9 39 f7 3f fd 88 69 3f b5 f9 bb 3f
       0.46293625 1.9314529 0.9122465 1.468558
0000e0 ee 5d 01 3f 75 26 f3 3e 2f f7 32 3f fa bf 96 3e
       0.5053395 0.47490278 0.6990842 0.29443341
0000f0 ec 17 f2 3f 46 00 4e 3f f1 5f 21 3f 41 97 0e 3f
       1.891355 0.8046917 0.6303702 0.55699545

conv3.2.running_var f4 [64]
000000 ee 73 e1 40 f3 27 6d 40 c5 bc da 3f 00 cf b4 40
       7.0454016 3.7055633 1.7088858 5.6502686
000010 24 12 9b 3f a1 3d 7d 40 59 db 4c 41 71 0e 5f 40
       1.2114911 3.9568865 12.803552 3.4852564
000020 38 5d 7e 42 ac ae 40 41 12 6a 0a 42 dd ae 25 42
       63.591034 12.0426445 34.603584 41.420765
000030 04 00 00 00 70 4a 09 41 ca b4 93 40 25 d5 95 3e
       6e-45 8.580673 4.615819 0.2926418
000040 fe e7 2c 42 2f 44 04 41 d9 74 5e 40 2b ed b2 3f
       43.226555 8.266646 3.4758818 1.3978628
000050 19 d6 df 40 0c 40 09 41 da 14 14 41 a7 3b 6f 40
       6.994885 8.578136 9.255091 3.738016
000060 c8 d7 d0 40 66 b5 af 40 be 28 1d 41 c6 14 81 41
       6.5263405 5.4908934 9.822447 16.135143
000070 16 6a 36 40 fc e8 8f 41 6c a9 87 3f ff ae 2a 40
       2.850225 17.988762 1.0598578 2.666931
000080 ae c0 76 40 15 c9 d8 40 87 25 d8 40 e7 53 2f 41
       3.8555102 6.774546 6.754581 10.957984
000090 86 4e 3b 41 1a 44 56 41 c1 4f 80 41 15 a4 41 43
       11.706671 13.391626 16.038942 193.64095
0000a0 ff ef b1 41 b4 bb 57 40 e9 64 19 40 dd 8b 93 41
       22.242186 3.3708315 2.396784 18.443293
0000b0 ca 1f 37 40 f1 bd 63 40 42 b9 04 41 80 65 f0 3f
       2.8613153 3.558468 8.295229 1.8780975
0000c0 c3 dd d6 3f 88 42 27 41 05 b1 d4 40 af e1 40 41
       1.6786426 10.453743 6.646609 12.055099
0000d0 cd e6 7e 40 45 e0 b8 41 75 1e 2c 41 23 25 8f 41
       3.982837 23.109507 10.757436 17.893133
0000e0 3d 69 c2 40 d7 7f ca 40 61 84 04 41 6e 7f 3c 40
       6.0753465 6.3281054 8.282319 2.9452777
0000f0 b9 d0 af 41 e0 39 14 41 2a 21 ff 40 c4 b5 bb 40
       21.976915 9.26413 7.9727983 5.865938

ln1.weight f4 [16, 2304]
000000 7e 86 bb bc c4 44 ff 3e 3b 09 50 bf 43 9f 86 bd
       -0.02289128 0.49857152 -0.81264085 -0.065733455
000010 ca 0b f1 be 0b 84 83 bf ed 68 ff bd f5 a4 8d 3e
       -0.47079307 -1.0274671 -0.12471185 0.27664915
000020 fc c2 37 bf e8 d6 94 bd 07 45 11 be ec 43 db bb
       -0.717819 -0.072675526 -0.14186488 -0.0066914465
000030 e4 c8 38 be 7a 29 c5 3e 18 f7 c9 3e 50 9c e6 be
       -0.18045384 0.38508207 0.3944633 -0.45041132
000040 70 0d 97 3e 64 af 56 3c 86 e3 bd be 73 38 90 bc
       0.2950244 0.01310334 -0.3708765 -0.017605042
000050 56 2d c5 3e e0 5e 4a 3f 0c 60 6c 3e 3c a7 ea bd
       0.3851115 0.7905102 0.23083514 -0.11457679
000060 d6 65 a7 be df dc 4c 3e 8f a2 d8 be bd fb ca bd
       -0.32694882 0.2000613 -0.42311522 -0.099112965
000070 43 7a 95 3d fe 17 1a 3e 50 13 1a be 63 c5 f4 be
       0.0729871 0.15048215 -0.1504643 -0.47806844
000080 7a a1 17 3e 2a 8b 0b 3e 61 3c 80 bd 46 74 b6 3e
       0.14807692 0.13627306 -0.06261516 0.35635585
000090 12 d5 e9 3d a7 4b af bd e7 69 51 3f cf 3f 26 bf
       0.11417593 -0.085593514 0.8180222 -0.64941114
0000a0 95 ff af be d6 65 13 3f 48 63 b6 be cc 2e 10 3e
       -0.3437468 0.57577264 -0.3562262 0.14080352
0000b0 e9 9a 0a be 76 84 1b 3e b0 85 dc 3c d3 51 cb 3d
       -0.13535656 0.15187249 0.026919216 0.09927716
0000c0 a4 67 e2 3d 99 0e 8f 3f ae 96 97 3e 1b 8e 5a be
       0.11054924 1.117633 0.29607147 -0.21343271
0000d0 a7 cf f7 bd 56 f5 04 bf 11 f0 8d bf 23 d7 a4 be
       -0.121001534 -0.5193685 -1.1088887 -0.32195386
0000e0 5b db 68 be 45 4a 87 bd 3f a0 89 3e 61 8e 86 bd
       -0.22739927 -0.06605963 0.2688007 -0.06570125
0000f0 78 4a 53 bf 90 99 25 3f 85 a7 a3 bb bb 8d 99 3d
       -0.82535505 0.6468744 -0.004994335 0.07497736
000100 d6 bb 2d 3f 39 83 d4 bd 7e d5 77 be fb 3f 56 be
       0.6786474 -0.10376591 -0.24202535 -0.20922844
000110 e0 f8 f1 3e 7e d2 17 3a 51 37 cb 3e 12 af e4 bd
       0.4726019 0.00057915587 0.3969064 -0.111662045
000120 52 38 7a 3e 40 27 12 bf a0 2b 78 be 9d b5 3d 3e
       0.24435547 -0.5709114 -0.24235392 0.18526311
000130 fe f7 a4 bd 0a 07 89 bd a7 54 c3 3c be 7e e3 3d
       -0.08055113 -0.06690796 0.023844076 0.111081585
000140 2e 4a f3 be a3 40 6d 3e 81 b2 19 bf 53 67 21 be
       -0.47517532 0.23169188 -0.60038 -0.15762071
000150 2c af 05 3e 3f 30 b5 3e f1 8c b3 be c5 c7 6b 3d
       0.13055104 0.3538837 -0.35068467 0.057563562
000160 6f 17 79 3e e6 81 44 be 2a ce bf 3c 76 80 e1 3e
       0.24325345 -0.19190177 0.023413736 0.4404332
000170 b1 24 03 bf 6d a2 53 3e 4e a8 07 bf 95 02 ee be
       -0.5122786 0.2066743 -0.5299119 -0.46486345
000180 11 db 6b be e9 c3 bc 3c c3 af 0b be 98 75 04 be
       -0.23032786 0.023042636 -0.13641267 -0.12935483
000190 eb e9 39 3d 2c 43 21 bf 7e 36 2f 3e af c6 f0 3d
       0.045389097 -0.6299312 0.17110631 0.11756646
0001a0 fe 97 1c 3f 08 8d 19 3e ce 21 9c 3e e5 5c 10 bf
       0.6116942 0.14995205 0.3049454 -0.56391746
0001b0 bf 53 84 be 3f 49 c2 be 3d e1 15 bf 00 8c 02 bf
       -0.25845143 -0.37946507 -0.5854681 -0.50994873
0001c0 5f 0c 09 3e a2 d0 4b 3f fc a8 87 bf f8 3d 9b be
       0.13383625 0.79615223 -1.0598445 -0.30320716
0001d0 f7 9b 48 3f 0c ee bc be ab 06 a1 3d c7 ae 35 3e
       0.78362983 -0.36900365 0.078626 0.17742454
0001e0 e5 c2 15 be 25 95 b5 3e 4b bd 83 3e 72 6e d2 bd
       -0.14625128 0.3546535 0.25730357 -0.10274972
0001f0 aa 42 ca 3e ce e7 b3 bc 83 6d c3 3e 42 61 dc 3e
       0.39503986 -0.021961119 0.38169488 0.43042952
000200 05 c2 6a be d8 8b 0a 3f 09 cc 1b bf ca 60 33 bd
       -0.22925575 0.54119635 -0.6085821 -0.043793477
000210 29 b7 a9 be eb 61 60 be b2 d1 9f be 41 79 00 bf
       -0.33147553 -0.21912353 -0.31214672 -0.5018502
000220 a0 d2 75 3e e9 50 4c be 85 45 be 3e 26 e0 76 3f
       0.24006128 -0.1995274 0.37162414 0.96435773
000230 47 5d ac 3e 6e 52 a7 bc 82 39 99 3e b5 6c 57 3e
       0.33664915 -0.020425048 0.29926687 0.21037562
000240 8c 31 53 be 91 60 e9 be 05 70 d7 3e 9d 95 01 be
       -0.2062437 -0.45581487 0.42077652 -0.12654729
000250 a6 f5 d0 be cd 35 70 3d e2 0d 4a 3e aa 24 9b bd
       -0.40812415 0.05864506 0.19731858 -0.075753525
000260 7b 1f ad 3e 1f 8a a1 3e 74 d3 22 bf 22 e3 76 3e
       0.3381308 0.3155069 -0.636039 0.24110082
000270 2f 7f c4 be 10 84 a3 3e 4a 03 f9 3e 52 f3 00 bf
       -0.38378283 0.31936693 0.48635322 -0.5037128
000280 54 44 2e be e2 d6 9c 3e 60 dd 07 3e 06 52 b4 be
       -0.17018253 0.30632693 0.13268042 -0.3521883
000290 0a c0 2a 3f 5d 66 2d bf a2 ff d6 be 90 3d 49 3e
       0.6669928 -0.6773432 -0.41991907 0.1965239
0002a0 4b e3 3c 3e 7c d5 2d 3e 3c 3b 66 3e 76 c0 e5 be
       0.1844608 0.16975969 0.22483534 -0.448734
0002b0 2d 46 1c bf 2e 0c 96 bd 1d ed c4 3e df 5e 93 bc
       -0.6104458 -0.07326542 0.38462153 -0.017989574
0002c0 85 a0 df 3e de 75 af be f5 65 3a be 24 21 b4 be
       0.43677154 -0.34269613 -0.18202956 -0.35181534
0002d0 f3 02 17 3d 20 38 ac be 9a 45 87 3e 86 5f 14 bf
       0.036868047 -0.3363657 0.2642029 -0.5795826
0002e0 be 52 50 3e b3 21 08 3f 1e 28 80 bf 5a 4b 49 bf
       0.20344064 0.5317642 -1.0012243 -0.786306
0002f0 2d 57 9c bd c0 c0 86 3c 3f 12 37 be a2 f2 ac 3e
       -0.07633815 0.016449332 -0.17878054 0.33778864
000300 a0 e4 15 3d 45 ab 44 bd 8b 57 ca 3b 68 2a 84 bf
       0.036594987 -0.048014898 0.0061749867 -1.0325441
000310 d9 57 3a bf 2b 4a d1 bd 9b 75 09 3f eb 8a 94 bb
       -0.72790295 -0.102192245 0.53695077 -0.004533162
000320 77 be ed 3d de 9e 13 3f 79 ff 29 be 4a bb b9 3d
       0.11608594 0.5766429 -0.16601361 0.09068926
000330 38 2d 6e bf 05 12 83 be 4e d1 3e be b6 98 b2 3e
       -0.9303775 -0.25599685 -0.18634531 0.34882134
000340 65 41 b6 be c8 d8 28 be d1 0d 8c 3e 93 62 83 3e
       -0.35596767 -0.16488945 0.2735429 0.25661144
000350 f8 7f 44 3f e3 23 f7 bc a1 59 bc be cd 94 37 3e
       0.76757765 -0.03016848 -0.3678713 0.17927857
000360 ec 61 49 be b5 dc 82 3d ef 9b c3 bc 33 af 88 be
       -0.1966626 0.06389753 -0.023878066 -0.26696166
000370 b4 4d ee 3e e3 f4 1d 3e b2 8c a8 be ac a9 1c 3e
       0.46543658 0.15425448 -0.32919842 0.152991
000380 14 9a 89 be d3 31 d6 bc a7 3b ba be e2 82 b6 3e
       -0.26875365 -0.026146805 -0.36373636 0.3564673
000390 bc 31 a1 3e cf e9 00 3d d7 45 dd bd 55 21 39 be
       0.31483257 0.031472977 -0.108043365 -0.18079121
0003a0 36 aa aa 3e 5b 56 e4 be 77 0f 25 3e 6e 6a 9c 3e
       0.33332986 -0.44597134 0.1611918 0.3054995
0003b0 5a 3d d2 be 90 4b b7 be b2 63 02 3e 73 c6 40 bf
       -0.41062433 -0.35799837 0.12733343 -0.7530281
0003c0 60 1a d0 be bf 94 24 3b 09 6b aa be 77 43 e2 be
       -0.40645123 0.0025113074 -0.33284786 -0.44192097
0003d0 5e 91 a3 bd 43 ba 44 bd c8 49 56 be e0 56 7a 3e
       -0.07986711 -0.048029196 -0.20926583 0.24447203
0003e0 99 6f 83 be fb 61 c3 3d af 83 5a be 26 ba 6d be
       -0.2567108 0.09540173 -0.21339296 -0.23215541
0003f0 a3 4a c8 be 3e ca 05 3f fa 3b 8f bc 97 b0 07 bf
       -0.39119443 0.5226172 -0.017484654 -0.5300383

ln1.bias f4 [16]
000000 f0 2d 25 3d 53 2e e7 40 3e ec be 3f 4f 80 3d 40
       0.040327013 7.224405 1.4915845 2.9609563
000010 32 4a 8d 40 9d db 55 be 73 a2 b8 bd cb 94 09 3e
       4.415307 -0.20884557 -0.0901536 0.13435666
000020 c3 aa 3d be ba 68 e2 3f f0 8f e6 40 32 d5 21 be
       -0.18522172 1.768821 7.2050705 -0.15803984
000030 af d7 bd be a9 25 1d 40 07 83 20 be f8 0b 27 40
       -0.37078616 2.4554236 -0.15674983 2.6101055

batchnorm.weight f4 [16]
000000 ca d7 ce 3e 97 91 c0 3e e3 ae 27 3f 35 d9 bd 3e
       0.4039901 0.37611076 0.6550123 0.37079778
000010 2d e9 6d 3f a0 f0 d8 3e c0 09 21 3f 63 96 49 3f
       0.92933923 0.42371082 0.629055 0.78745097
000020 97 92 a4 3f de 73 14 3f e0 c5 ca 3e d1 1c a1 3e
       1.2857236 0.579893 0.39604092 0.31467298
000030 3c 47 ec 3f f0 37 ae 3e 75 27 df 3e 95 df 4f 3f
       1.8459239 0.34027052 0.4358479 0.81200534

batchnorm.bias f4 [16]
000000 a2 47 04 3e 09 a1 dc bd ba 47 49 3f e9 50 b6 bd
       0.12917951 -0.107729025 0.7862507 -0.08902151
000010 c5 12 36 be 6f ad a6 3a 3f 7b 3a 3e 8d c0 70 3e
       -0.17780598 0.0012716482 0.18211077 0.23510952
000020 9b 1b 33 3b 1b b7 90 3e 96 c6 d1 bd 62 ec 65 3b
       0.0027329687 0.28264698 -0.102429554 0.0035083522
000030 93 98 16 bc 4f 36 9d bd 7f ce 40 bb 64 93 28 be
       -0.00919165 -0.07676374 -0.0029419956 -0.16462475

batchnorm.running_mean f4 [16]
000000 08 66 44 41 a2 c8 81 43 fb f6 ea 42 47 9a 78 43
       12.27491 259.56744 117.48238 248.60265
000010 40 bd 64 43 07 66 14 38 2b 7f 90 40 e9 81 c1 40
       228.73926 3.538097e-05 4.5155234 6.047108
000020 04 00 00 00 bc f0 29 43 61 e5 80 43 7f 17 84 37
       6e-45 169.94037 257.79202 1.5746567e-05
000030 8d 93 5a 2e 75 2d 72 43 79 5b a1 3d a8 bd 69 43
       4.9698513e-11 242.17757 0.07878775 233.74084

batchnorm.running_var f4 [16]
000000 18 5d 5c 44 13 5f 5c 45 c1 15 3c 45 82 44 55 45
       881.4546 3525.9421 3009.3596 3412.2817
000010 91 d1 27 45 5c ec 45 39 a4 35 85 43 32 57 ce 43
       2685.098 0.00018875435 266.41907 412.6812
000020 04 00 00 00 1d 82 0c 45 5d a1 59 45 b4 f7 7b 3a
       6e-45 2248.132 3482.0852 0.0009611801
000030 89 b7 c6 30 c2 6d 57 45 99 37 ef 3f f2 85 3a 45
       1.445856e-09 3446.8599 1.8688842 2984.3716

ln2.weight f4 [5, 16]
000000 7e 79 4d 3d b9 b9 4c 3d 6e 33 23 3e 93 e3 92 3d
       0.050164692 0.049981806 0.15937588 0.071723126
000010 59 09 47 3e 6c 90 e7 3d 9e a9 2d 3e 4a c5 0f 3e
       0.1943716 0.11306843 0.16959235 0.14040104
000020 0c d1 7d bd 9e 7d 8e 3e 4c a2 97 3d 4b 35 2c 3e
       -0.06196694 0.27830213 0.074040025 0.16817205
000030 9f ac 59 bd 8f 27 a0 3d e4 57 ab 3d ff 5d 6b bf
       -0.05314314 0.07820045 0.08366373 -0.919403
000040 99 92 96 3e 14 be cf bc fc 46 da 3e be f8 29 bd
       0.2940872 -0.025359191 0.42632282 -0.041496985
000050 36 07 ec 3e 6c 51 c4 bd 0d 73 81 bd 94 e7 84 bd
       0.46099252 -0.095858425 -0.06320772 -0.064894825
000060 43 67 7e 3c 17 62 b0 3e a0 15 c4 bc df 7f 10 bd
       0.015527549 0.34449837 -0.023936093 -0.035278197
000070 8d 63 3a 3d 8b 5f 45 bd ec 23 c4 bd 48 2e b3 3b
       0.045505095 -0.04818682 -0.09577164 0.0054681636
000080 19 52 2e bf 44 2f 6a 3e f8 a4 3a 3e d5 df 80 3e
       -0.6809402 0.22869593 0.18226993 0.2517077
000090 84 9e b3 3d fd b1 ab bd 52 2d 39 bf 3a 89 1c bf
       0.08770469 -0.08383558 -0.7233478 -0.6114689
0000a0 cf 70 d6 ba b2 63 52 bf ea 87 55 3e ec b5 9a 3a
       -0.0016360524 -0.8218337 0.20852628 0.0011803485
0000b0 cb 1c a2 be 78 83 81 3e fc 50 2b 3e f1 f1 a9 3d
       -0.31662592 0.25295615 0.16730112 0.082981
0000c0 a9 c0 26 bd 8d 1d b2 3e 82 69 54 bf cb 7e d7 3e
       -0.04071108 0.3478817 -0.8297349 0.42088923
0000d0 a9 83 fe 3d 40 ee b4 bb 9c 88 34 bf 96 bc 06 bf
       0.12427456 -0.0055215657 -0.7052095 -0.5263151
0000e0 05 86 e9 ba e7 20 77 bb 50 ca b8 3e be 7d 1d 3d
       -0.001781643 -0.003770882 0.36091852 0.038449995
0000f0 28 22 73 be 08 7c db 3e 6a 6c 5b 3c 73 ce 1b 3e
       -0.23743498 0.42868066 0.013392547 0.15215473
000100 85 fc 42 3e 03 c9 0a bd 9a 96 55 3e 09 dd e2 bc
       0.19041641 -0.033883106 0.20858231 -0.027693288
000110 d4 ec 33 bf ea 68 6b 3c 01 51 a8 bd 63 fd 7e bd
       -0.70283246 0.014368275 -0.08218575 -0.062253367
000120 83 5d cf 3c 3a 4b 58 3e b6 e1 c5 bc d1 28 db 3c
       0.025313145 0.21122447 -0.024155479 0.026752861
000130 d1 cf 61 3d 38 93 17 bd 06 c3 06 be 7f 13 ff 3e
       0.05512983 -0.037005633 -0.13160333 0.49819562

ln2.bias f4 [5]
000000 a6 89 86 3f aa d1 cc 3f a8 74 ab 3f 09 6b b7 3f
       1.0510757 1.6001484 1.3394976 1.432954
000010 cd dc b6 3f
       1.4286133
